controller_multilabel_25e_64n.pt (torch, 25937 bytes, 8 tensors)

net.0.weight f4 [64, 16]
0	0x3e2b5740	0.16732502
1	0x3e1de81a	0.15420571
2	0xbd95668d	-0.07294951
3	0xbd7dcaec	-0.0619611
4	0x3ca98f86	0.02069832
5	0x3e5868f2	0.21133783
6	0xbc04765b	-0.008084859
7	0xbd898953	-0.06715646
8	0x3e3c1582	0.1836758
9	0xbda75b73	-0.081717394
10	0xbbcbd6be	-0.0062206676
11	0xbea6d22c	-0.32582223
12	0x3b65727a	0.003501086
13	0x3e2bb23f	0.16767214
14	0xbd5a440a	-0.053287543
15	0xbeb1e8b1	-0.34747842
16	0xbe1df2cd	-0.15424652
17	0xbe7ae702	-0.24502185
18	0xbc5385a7	-0.012910283
19	0xbe607de9	-0.21923031
20	0x3e1ad885	0.15121658
21	0xbd07e0c8	-0.033173352
22	0x3df34885	0.118790664
23	0x3d599ab8	0.053126067
24	0x3e7ad706	0.24496087
25	0x3ef41d88	0.4767878
26	0x3e4c445b	0.1994795
27	0x3dc007b7	0.093764715
28	0xbdd358e2	-0.103196874
29	0xbe12c479	-0.14332761
30	0x3e961161	0.29310134
31	0x3e05b5c7	0.13057624
32	0x3de058ba	0.10954423
33	0x3e833cc0	0.25632286
34	0xbe0fee2d	-0.140557
35	0x3bcc66c0	0.0062378347
36	0xbdd1c4ea	-0.102426365
37	0xbd4c8927	-0.049935486
38	0x3eb0515e	0.34437078
39	0x3e8eeb53	0.27913913
40	0x3ead95a1	0.3390322
41	0xbd8108a3	-0.063004754
42	0x3dbbe042	0.09173633
43	0x3c1bd385	0.009510879
44	0x3d3f44ba	0.046696402
45	0xbe112531	-0.14174344
46	0x3e1f9f15	0.15588029
47	0x3d062bce	0.03275662
48	0x3d61e194	0.05514677
49	0x3d8de0b1	0.06927622
50	0xbce6dbfb	-0.028181067
51	0x3e046427	0.1292883
52	0x3e66745d	0.22505327
53	0x3e82d588	0.25553536
54	0x3dc16dbd	0.09444759
55	0x3e4d8b58	0.20072687
56	0x3e98f283	0.29872522
57	0xbe1522f9	-0.14564122
58	0xbd995d48	-0.07488495
59	0xbd781f9f	-0.06057703
60	0xbec24ad9	-0.3794773
61	0xbeb1f451	-0.3475671
62	0xbde054ae	-0.10953651
63	0xbe9b9c78	-0.30392814
64	0xbb7c5853	-0.0038504794
65	0xbe728410	-0.2368319
66	0xbe85bab8	-0.26119018
67	0xbe9772cc	-0.2957977
68	0xbdc812cf	-0.097692125
69	0xbddd82f3	-0.10815992
70	0x3dd7a48f	0.10529434
71	0x3eb789f6	0.35847443
72	0x3e6c1145	0.23053463
73	0xbe14c5e3	-0.14528613
74	0xbe164a55	-0.14676793
75	0xbe2e25c8	-0.170066
76	0xbe42a784	-0.19009215
77	0x3de69e9a	0.112607196
78	0xbe87b29d	-0.2650346
79	0xbd366e9e	-0.044539087
80	0xbe89b371	-0.26894715
81	0x3e524324	0.20533425
82	0xbe33eadd	-0.17570062
83	0x3e75d7b2	0.24008062
84	0x3de15eee	0.110044345
85	0x3e4a1604	0.19734961
86	0x3e738239	0.23780145
87	0x3e472688	0.19448292
88	0x3d8cd7b0	0.068770766
89	0x3ea2fa61	0.3183165
90	0x3ea88bf4	0.32919276
91	0x3e855361	0.26040176
92	0x3dd9afa5	0.10629205
93	0xbe90b89f	-0.28265855
94	0xbea2a7d0	-0.31768656
95	0xbe2b5d2a	-0.16734758
96	0xbe812a18	-0.25227427
97	0x3de4135e	0.111365065
98	0xbea0e537	-0.31424877
99	0xbeadea73	-0.33967933
100	0x3e2c425b	0.16822188
101	0x3e49890f	0.1968119
102	0x3d0cb779	0.03435466
103	0x3e8751a2	0.26429468
104	0xbd4f016d	-0.05053847
105	0x3c29e6d8	0.010369979
106	0xbd320c8e	-0.043469004
107	0x3ea07059	0.31335714
108	0x3d5655dc	0.052327976
109	0x3df9145a	0.12162085
110	0x3df8fcee	0.121576175
111	0xbda33d94	-0.079707295
112	0xbd1b774d	-0.03795557
113	0x3e303a0b	0.17209642
114	0x3d8172ae	0.063207015
115	0xbe13608b	-0.14392297
116	0x3a3e0f37	0.0007250192
117	0x3dc5aa85	0.09651665
118	0xbd2218d4	-0.03957446
119	0x3ddb6268	0.10712129
120	0x3ed5a5be	0.41728014
121	0xbd66b222	-0.056322224
122	0xbe423878	-0.18966854
123	0xbe4c16f1	-0.19930626
124	0x3c00b2d8	0.00785514
125	0xbe56907b	-0.20953552
126	0x3d75f582	0.060048588
127	0x3e04d04d	0.12970085
128	0x3dc100d5	0.09423987
129	0x3e383a25	0.1799093
130	0x3e6c4ff3	0.23077373
131	0xbe2e0365	-0.16993482
132	0x3d49866c	0.04920046
133	0x3e129089	0.14312948
134	0x3e7cd27e	0.24689671
135	0x3dd94622	0.1060908
136	0x3eabcca3	0.33554563
137	0xbe9bc3c7	-0.30422804
138	0xbe55bac7	-0.20872031
139	0xbe369d24	-0.17833382
140	0x3e1d7cbb	0.15379612
141	0xbd3e0a6a	-0.04639665
142	0x3d6e8693	0.05823381
143	0xbe406670	-0.18789077
144	0xbd81ee8c	-0.06344327
145	0x3ce9eaea	0.028554399
146	0xbe390eae	-0.18072006
147	0x3d43877a	0.047736622
148	0xbe75ee4b	-0.24016683
149	0x3d8e990c	0.06962785
150	0xbe05d785	-0.13070495
151	0xbe1b4f9c	-0.15167087
152	0xbe79316e	-0.24335262
153	0xbb0d0ea2	-0.0021523614
154	0xbdc7f294	-0.09763065
155	0xbe095489	-0.13411154
156	0x3d9df84f	0.07713377
157	0x3d4028ea	0.04691402
158	0x3e83876a	0.2568925
159	0x3e8b1649	0.2716544
160	0xbdca5b10	-0.0988065
161	0xbc1243d5	-0.008927305
162	0xbca11ff4	-0.019668557
163	0x3c708795	0.014680763
164	0x3d304283	0.04303218
165	0x3e680bc2	0.22660735
166	0xbd440da6	-0.04786458
167	0x3e0a0895	0.13479836
168	0x3ea9062a	0.33012515
169	0x3eae207f	0.34009168
170	0xbde449ce	-0.111468896
171	0xbe02a4e1	-0.12758209
172	0xbe63fbca	-0.22264019
173	0x3dd81287	0.10550409
174	0xbe1f6a7c	-0.15567964
175	0xbe3a69ab	-0.18204372
176	0x3db6d1df	0.089267485
177	0xbe81a2f7	-0.25319645
178	0x3e66dca6	0.22545108
179	0xbe00dacc	-0.12583464
180	0x3e02c4f5	0.12770446
181	0xbd06be3c	-0.032896265
182	0x3eaacf73	0.33361396
183	0xbdde0d79	-0.108424135
184	0xbe935fcd	-0.28784028
185	0xbeb4e822	-0.35333353
186	0xbdd450d3	-0.103669785
187	0xbe5632d2	-0.20917824
188	0xbe0fe5f4	-0.14052564
189	0xbdf3e1af	-0.1190828
190	0x3dc8ce4c	0.09804973
191	0xbe24ad4a	-0.1608173
192	0x3e9f366a	0.31096202
193	0x3e90c8ec	0.2827829
194	0x3e2c5534	0.16829377
195	0x3d9de530	0.0770973
196	0x3c927c5a	0.017881561
197	0x3e2817c7	0.1641532
198	0x3dcdcf9b	0.10049363
199	0xbd9318ba	-0.071824506
200	0xbd1a5f86	-0.037688754
201	0xbe1ad77c	-0.15121263
202	0x3d406131	0.04696769
203	0x3e636e41	0.22210027
204	0x3de8ec65	0.11373214
205	0x3e458aa5	0.1929117
206	0x3ceb8016	0.0287476
207	0x3e5c4278	0.21509731
208	0x3ed28ed3	0.4112459
209	0x3b0842d9	0.0020791797
210	0xbd09d65d	-0.0336517
211	0xbd947457	-0.072487526
212	0x3c0c7ca2	0.008574637
213	0x3d5e1497	0.054218855
214	0x3e4c4211	0.19947077
215	0xbe8e0c4c	-0.27743757
216	0xbe050b9d	-0.12992711
217	0xbb31e969	-0.002714718
218	0x3da2d9d5	0.079517044
219	0xbd363199	-0.044480894
220	0x3d930dab	0.07180341
221	0x3e523467	0.20527802
222	0x3e2b4e59	0.16729106
223	0xbe31ab03	-0.17350392
224	0x3bc02060	0.0058632344
225	0x3e388885	0.18020828
226	0xbdf3c61a	-0.11903019
227	0x3e077847	0.13229476
228	0xbe0437eb	-0.12911956
229	0xbec7813c	-0.38965786
230	0x3d87fdf2	0.06640233
231	0x3e2e044a	0.16993824
232	0x3e882c9b	0.2659653
233	0x3e7b8476	0.24562249
234	0x3ec76e9d	0.3895158
235	0xbd05b60b	-0.032644313
236	0xbe00181c	-0.12509197
237	0xbbf7e089	-0.0075646085
238	0x3e08340b	0.13301103
239	0x3dc88a0b	0.097919546
240	0x3d4f6a6c	0.0506386
241	0x3d64581a	0.055748083
242	0xbc209a57	-0.0098024225
243	0xbe02bbad	-0.12766905
244	0x3e87449b	0.2641953
245	0x3e9c1687	0.30485937
246	0x3d882132	0.066469565
247	0x3da68e86	0.08132653
248	0x3ed3f3ce	0.41396946
249	0x3dd4bbcd	0.10387383
250	0xbef915f7	-0.4864957
251	0xbe356cdf	-0.17717312
252	0xbed34e03	-0.41270456
253	0x3dbf4cc2	0.09340812
254	0xbe6e5b4b	-0.23277013
255	0xbeba4119	-0.3637779

net.0.bias f4 [64]
0	0x3d17d9d1	0.03707296
1	0x3d115a32	0.035486408
2	0x3e10ff66	0.14159927
3	0xbd0237e8	-0.031791598
4	0xbd7ec06c	-0.062195227
5	0xbe0651f2	-0.13117197
6	0x3c4971c5	0.012295191
7	0x3d1d875a	0.03845916
8	0x3d41b1f5	0.047288854
9	0x3e5050e2	0.20343354
10	0x3e8c406f	0.2739291
11	0xbe5b3e46	-0.21410474
12	0x3e0c2a49	0.13688006
13	0x3c899222	0.016793314
14	0x3db38d89	0.0876723
15	0xbd7c3a75	-0.061579186
16	0x3ba8e01c	0.005153669
17	0xbe99e09e	-0.30054182
18	0xbbe1b7c4	-0.0068883616
19	0x3e649e30	0.22325969
20	0x3d21c553	0.039494824
21	0xbd8be9d4	-0.068317086
22	0x3e3934ce	0.1808655
23	0x3d017b67	0.031611826
24	0x3ea49182	0.32142264
25	0x3e0e9c86	0.13926896
26	0x3e80e610	0.25175524
27	0x3e72ac6f	0.2369859
28	0x3e9ce576	0.30643815
29	0x3ec0b918	0.37641215
30	0x3d9c0488	0.07618052
31	0x3e38edef	0.18059514
32	0x3b8d7b7c	0.004317699
33	0x3cb93098	0.02260618
34	0x3dd5f344	0.1044679
35	0xbe9f4663	-0.31108388
36	0x3e8eb420	0.278718
37	0xbda0c2a4	-0.07849625
38	0xbdf34452	-0.118782654
39	0x3d11e4bf	0.03561854
40	0xbe43cc7a	-0.1912097
41	0x3dd94f55	0.106108345
42	0xbb953326	-0.0045532165
43	0x3e03007f	0.12793158
44	0x3df96c5a	0.121788695
45	0xbb631180	-0.0034647882
46	0x3dd470d3	0.10373082
47	0x3da1ef59	0.0790698
48	0x3d4b487b	0.04962967
49	0x3e3dde2e	0.18541786
50	0x3d3bd628	0.045858532
51	0xbe2493bf	-0.16071986
52	0xbe91ec74	-0.28500712
53	0xbd84f021	-0.064911135
54	0xbbeb0b46	-0.0071729748
55	0x3dd9b42c	0.10630068
56	0xbdbcbe38	-0.09215969
57	0x3c5213e2	0.012822123
58	0xbdd921b7	-0.10602134
59	0x3df15a33	0.11784782
60	0x3e944a22	0.2896281
61	0x3d3f60f3	0.046723317
62	0x3e9fd65d	0.31218234
63	0x3dbcfed9	0.09228296

net.2.weight f4 [64, 64]
0	0x3da63dcb	0.08117255
1	0xbb6aa61c	-0.0035804575
2	0x3d78315b	0.060593944
3	0xbc049a19	-0.00809338
4	0xbc9051c8	-0.017617121
5	0xbdbec281	-0.093144424
6	0x3dd2550f	0.1027013
7	0x3dcd1086	0.10012917
8	0x3e4e8316	0.20167193
9	0x3cc29752	0.023753796
10	0xbe15739b	-0.14594881
11	0x3e47c381	0.19508173
12	0x3d0376d3	0.03209574
13	0x3d4d6633	0.050146293
14	0x3e8a23a9	0.26980332
15	0xbd9102b8	-0.07080597
16	0xbe2018fa	-0.15634528
17	0xbe60ea09	-0.21964277
18	0x3d4cf4d3	0.05003817
19	0x3db00884	0.08595374
20	0xbde0e6ca	-0.109815195
21	0xbdd5f02d	-0.104462005
22	0x3e26bd13	0.16283064
23	0x3dc29265	0.09500579
24	0xbe1fb860	-0.15597677
25	0x3e000d8b	0.12505166
26	0xbd3aa9db	-0.045572143
27	0x3e0e12f8	0.13874424
28	0xbcef34b6	-0.02919994
29	0x3e5d25cf	0.21596454
30	0xbd80f80d	-0.06297312
31	0xbe1910f7	-0.14947878
32	0x3e252633	0.16127853
33	0x3d92b27b	0.07162949
34	0xbe4da153	-0.20081072
35	0x3dad7531	0.08469618
36	0xbcafe899	-0.021473216
37	0x3d94044e	0.072273836
38	0xbea0032c	-0.3125242
39	0xbd90d32a	-0.07071526
40	0x3ced2c72	0.028951857
41	0xbd39d335	-0.04536744
42	0xbdc35bde	-0.09539007
43	0x3da72b6f	0.08162581
44	0x3bf741ab	0.00754567
45	0xbd589b96	-0.052882753
46	0x3d9d4a65	0.07680205
47	0xbe827b56	-0.25484723
48	0x3ad96868	0.0016586902
49	0xbb77e5ab	-0.0037826102
50	0x3db8e3e7	0.09027844
51	0x3dfad2eb	0.12247261
52	0xbe862c7c	-0.26205814
53	0x3e757323	0.23969702
54	0xbc095112	-0.008381145
55	0xbde14c36	-0.11000864
56	0x3e3afe09	0.18260969
57	0xbe168cab	-0.14702098
58	0x3c383031	0.0112419585
59	0x3dbda7f6	0.09260552
60	0x3c3ffcac	0.0117179565
61	0x3ce96088	0.028488412
62	0x3e68b143	0.2272387
63	0x3e32ac90	0.1744864
64	0x3d1e3116	0.03862103
65	0xbd7d84d2	-0.061894245
66	0xbdacd42e	-0.084389076
67	0x3cc0a99b	0.023518374
68	0xbe2c9661	-0.1685424
69	0xbd492076	-0.049103223
70	0x3cd645a1	0.026156249
71	0xbe5ce6c4	-0.21572405
72	0xbd421eca	-0.047392644
73	0x3e789618	0.24276006
74	0x3d82d839	0.063888974
75	0xbda5c4b4	-0.08094159
76	0xbc28cd4e	-0.010302855
77	0xbd7edfcd	-0.06222515
78	0x3de1adbf	0.110194676
79	0xbcc6723d	-0.024224395
80	0x3d598871	0.053108636
81	0xbd65ac69	-0.056072626
82	0x3e197f70	0.1499002
83	0x3cc1c5b9	0.023653852
84	0xbb30623d	-0.0026914023
85	0xbe3cb5e6	-0.18428764
86	0x3de545c9	0.11194951
87	0x3cd922e0	0.026505888
88	0xbd6f9d27	-0.05849948
89	0xbcd8c0f5	-0.026459197
90	0xbc80eb24	-0.015737124
91	0x3df21b4a	0.11821611
92	0x3e83c7e5	0.25738445
93	0x3e3c2669	0.18374027
94	0x3dfa9a45	0.12236456
95	0x3e07f4a3	0.13276915
96	0x3dc7afbb	0.09750315
97	0xbd0a414e	-0.033753686
98	0xbe174fff	-0.1477661
99	0xbd3423a1	-0.04397929
100	0x3dcc3c15	0.09972397
101	0x3dea9c31	0.114555724
102	0x3c142681	0.009042383
103	0xbe2b5628	-0.16732085
104	0xbe46c27e	-0.1941013
105	0x3e4b7ebb	0.19872563
106	0x3dc083d0	0.09400141
107	0xbdb4a806	-0.088211104
108	0x3dfa080c	0.12208566
109	0x3d3b061c	0.045660123
110	0x3e36737a	0.17817488
111	0xbe513832	-0.20431593
112	0x3d859df6	0.06524269
113	0x3da12019	0.0786745
114	0x3decb55a	0.115580276
115	0x3de88a21	0.11354471
116	0x3da50dd4	0.08059278
117	0x3c2d72e7	0.010586477
118	0x3d188e98	0.037245363
119	0xbe76f175	-0.24115546
120	0x3d5924bb	0.053013545
121	0xbc8f86de	-0.017520364
122	0xbccad51a	-0.024759818
123	0x3e0d38e7	0.13791238
124	0xbdee24d2	-0.11628117
125	0xbd431fd3	-0.04763777
126	0x3d370ceb	0.044690054
127	0xbdda98d6	-0.106736824
128	0x3d891ede	0.066953406
129	0x3e08c9a5	0.13358171
130	0x3d95f2b3	0.07321682
131	0x3e512c19	0.20426978
132	0x3e0f59b9	0.1399907
133	0x3d805801	0.062667854
134	0x3e025888	0.12729084
135	0x3e484168	0.195562
136	0x3cfeab8f	0.031087665
137	0xbdb69878	-0.089158
138	0x3db638ea	0.08897574
139	0x3d422811	0.04740149
140	0xbd7d166b	-0.061788958
141	0xbd2e9e99	-0.04263172
142	0x3e1ea79e	0.15493628
143	0x3e967e59	0.2939327
144	0xbda427d9	-0.08015413
145	0x3d387da2	0.045041688
146	0xbe26e4d3	-0.16298227
147	0xbc5ab522	-0.0133488495
148	0x3e193bd4	0.14964229
149	0x3e6cecb0	0.23137164
150	0xbd165bea	-0.03670875
151	0xbe04a1d7	-0.12952362
152	0x3e15601a	0.14587441
153	0xbe02808b	-0.12744348
154	0x3cf6b0d4	0.030113615
155	0xbd0faa0d	-0.035074282
156	0xbd5577c0	-0.052116156
157	0x3e0b9200	0.13629913
158	0xbc2da2c7	-0.010597891
159	0xbd484e7f	-0.048902985
160	0xbd65af77	-0.05607554
161	0x3e01db77	0.12681375
162	0x3c9738fb	0.018459788
163	0x3d4bb480	0.049732685
164	0xbdc36542	-0.09540798
165	0xbe0bd4cd	-0.13655396
166	0xb922d744	-0.00015529717
167	0x3e834748	0.2564032
168	0x3e11adf7	0.14226519
169	0xbdeacd18	-0.114649
170	0xbce1dc26	-0.027570795
171	0x3d4c23d3	0.049838852
172	0x3e095136	0.13409886
173	0xbe1d3f97	-0.15356289
174	0xbcd16e2a	-0.025565226
175	0x3e540624	0.20705467
176	0xbe15714e	-0.14594004
177	0x3e5e8c13	0.21733122
178	0xbe51bbaf	-0.20481752
179	0x3e01426e	0.12622997
180	0xbdd4c237	-0.10388606
181	0xbd3d8499	-0.046269033
182	0x3c80fdb7	0.01574598
183	0x3e5793ac	0.21052426
184	0x3dd0950a	0.10184677
185	0x3dd503c2	0.10401107
186	0x3df4774f	0.11936819
187	0x3c66a9ad	0.01407854
188	0xbc8bf324	-0.017083712
189	0x3c91a215	0.017777482
190	0x3e010dfd	0.12602992
191	0xbd0539f8	-0.032525986
192	0xbdd648f4	-0.104631335
193	0x3d4b5402	0.049640663
194	0x3d56cb41	0.05243993
195	0xbde5ab34	-0.11214295
196	0x3e2cfea0	0.16894007
197	0x3ce43517	0.027857346
198	0x3d56695b	0.05234657
199	0x3e1890ea	0.1489903
200	0x3e42fc0a	0.19041458
201	0xbdb7707d	-0.08957002
202	0x3da0abed	0.07845292
203	0x3e0dfc23	0.13865714
204	0xbd72525b	-0.05916057
205	0x3ceff64e	0.029292252
206	0x3e244889	0.16043295
207	0xbc411fd5	-0.0117873745
208	0xbcbcf2b1	-0.023064943
209	0x3c5c4007	0.013443
210	0x3dd9f95e	0.10643266
211	0xbcd2c4a8	-0.025728539
212	0xbd7af555	-0.061269123
213	0xbe2c4b4f	-0.16825603
214	0xbcca77e4	-0.024715371
215	0x3d643c4d	0.05572157
216	0x3dd22355	0.10260645
217	0xbd994712	-0.07484259
218	0xbdd9de37	-0.10638087
219	0x3dd1f1ea	0.102512196
220	0xbd914437	-0.07093089
221	0x3d85cf43	0.06533673
222	0x3a3466da	0.0006881781
223	0xbe3b38d8	-0.18283403
224	0x3d9258b5	0.07145826
225	0x3e241023	0.1602178
226	0x3ce5716d	0.028008187
227	0x3e44af92	0.192076
228	0xbd9a67d1	-0.07539333
229	0xbbaa1b82	-0.0051912675
230	0xbd891cfe	-0.06694983
231	0x3db128d1	0.08650363
232	0x3dafea0a	0.08589561
233	0x3d784139	0.060609076
234	0xbe35a313	-0.17737989
235	0x3df800f3	0.12109556
236	0x3db03190	0.08603203
237	0x3d2f3940	0.042779207
238	0x3c0c0619	0.008546376
239	0x3e2cd5b6	0.16878399
240	0x3e343e3e	0.17601869
241	0xbd52521c	-0.051347837
242	0x3dd9a800	0.106277466
243	0xbe15b50d	-0.14619847
244	0xbd4f194b	-0.05056123
245	0xbcc45e8c	-0.023970865
246	0x3d671a08	0.05642131
247	0x3db975b2	0.09055652
248	0x3e3f387b	0.1867389
249	0x3d40f213	0.04710586
250	0x3e5c4c95	0.21513589
251	0x3e114def	0.14189886
252	0x3e4d7c2a	0.20066896
253	0x3d2d739c	0.04234658
254	0x3d7675b4	0.060170844
255	0x3d603daa	0.054746307

net.2.bias f4 [64]
0	0xbd4a0638	-0.049322337
1	0x3e42086e	0.18948528
2	0x3d49ff51	0.049315754
3	0xbd94e1f8	-0.072696626
4	0x3d0fa1b1	0.03506631
5	0x3dbe9d10	0.09307301
6	0x3cc1ae68	0.023642734
7	0x3d6a8806	0.05725863
8	0x3dd12d5a	0.10213728
9	0x3cc543bb	0.024080148
10	0x3c95e15c	0.018295936
11	0xbd121b32	-0.035670467
12	0xbd01f782	-0.031730182
13	0x3de579d3	0.11204877
14	0xbd10a62d	-0.035314728
15	0x3e519e5f	0.2047057
16	0x3df8bf81	0.121459015
17	0xbd65c489	-0.056095634
18	0x3d57863c	0.05261825
19	0x3e1be69a	0.15224686
20	0x3e013681	0.12618448
21	0xbd03806c	-0.032104895
22	0x3d2020b6	0.039093696
23	0xbcf47189	-0.029839294
24	0x3d280f07	0.041029956
25	0x3e2b1f62	0.1671119
26	0xbd04454e	-0.032292657
27	0xbbf978da	-0.0076132836
28	0x3de68a30	0.11256826
29	0x3da7e54f	0.08198034
30	0x3b0933e4	0.002093547
31	0x3dc885fb	0.0979118
32	0x3e5788ed	0.21048327
33	0x3d9196e3	0.071088575
34	0x3df35e3a	0.11883207
35	0x3d5e4971	0.054269258
36	0x3dd513a3	0.10404136
37	0xbdb37d3f	-0.08764123
38	0x3d759475	0.059956033
39	0xbb373888	-0.002795728
40	0x3e02ded6	0.12780318
41	0x3dd1a1be	0.10235928
42	0x3d8cbffd	0.06872556
43	0xbc857c5d	-0.016294653
44	0x3df012d2	0.1172234
45	0x3cc50e11	0.024054559
46	0x3e25747c	0.16157717
47	0xbd26ecb2	-0.040753074
48	0x3d9149f7	0.07094186
49	0xbda75b56	-0.08171718
50	0x3d81ca05	0.0633736
51	0x3dbbbd11	0.09166921
52	0x3dbea86e	0.09309469
53	0x3da79b23	0.08183887
54	0x3d769b4f	0.060206708
55	0x3db5057b	0.08838936
56	0x3dff588c	0.12468061
57	0x3d0561d9	0.032564018
58	0x3e118ddb	0.1421427
59	0x3ddfb742	0.109236255
60	0xbd939d12	-0.07207693
61	0x3cfa5cf1	0.030561896
62	0xbcc1fc00	-0.023679733
63	0x3e0d25ba	0.13783923

net.5.weight f4 [4, 64]
0	0xbd6843cd	-0.056705285
1	0xbe5e2044	-0.21691996
2	0x3c88c89d	0.016697222
3	0x3dfe917c	0.12430093
4	0xbd082de9	-0.03324691
5	0xbe07530f	-0.13215278
6	0xbda18edc	-0.078885764
7	0xbe2637e1	-0.16232254
8	0x3d5c4a11	0.053781573
9	0xbe44bc13	-0.1921237
10	0xbe64785b	-0.22311537
11	0xbd07da7e	-0.033167355
12	0xbcfa522b	-0.030556759
13	0xbe80fb0a	-0.25191528
14	0x3d217f49	0.03942803
15	0xbe839fd4	-0.25707877
16	0xbdb23765	-0.08701972
17	0x3e419890	0.18905854
18	0x3c81c1a3	0.015839403
19	0xbd3ca060	-0.046051383
20	0xbe33c13f	-0.17554186
21	0xbe406437	-0.18788229
22	0x3cc9c72e	0.02463111
23	0xbe36f19f	-0.17865609
24	0x3e6400d2	0.22265938
25	0xbc1ebf75	-0.009689202
26	0x3d997fc4	0.074950725
27	0x3e29b852	0.16574219
28	0xbe6d13f3	-0.23152141
29	0xbe1d8b52	-0.15385178
30	0xbde85cc7	-0.11345821
31	0x3d97f18d	0.07419119
32	0xbed46cd9	-0.41489294
33	0x3bd54b3a	0.006509212
34	0xbde25b00	-0.11052513
35	0xbe4e54df	-0.20149563
36	0xbe676eb9	-0.22600831
37	0xbdc8f28a	-0.09811886
38	0xbdc2701a	-0.09494038
39	0x3db9a65b	0.09064933
40	0xbe770133	-0.24121551
41	0xbd18f19d	-0.037339795
42	0x3e1f6c7c	0.15568727
43	0xbd2e575f	-0.042563792
44	0x3e0e4ce2	0.13896516
45	0xbda9b6cc	-0.08286819
46	0xbd908e29	-0.07058365
47	0xbd041c50	-0.032253563
48	0x3e138704	0.14406973
49	0xbc883895	-0.016628543
50	0xbc6c555c	-0.014424648
51	0x3d6ff687	0.058584716
52	0x3e044b11	0.1291926
53	0xbdfa0bfe	-0.122093186
54	0x3d08e0c5	0.033417482
55	0x3d71a204	0.0589924
56	0x3e1da9fe	0.15396878
57	0x3e51fed9	0.20507373
58	0xbe8d2c09	-0.2757266
59	0x3e13a7bd	0.14419456
60	0xbdf69630	-0.12040365
61	0x3e6e4a82	0.2327061
62	0x3b8fea2d	0.0043919296
63	0xbe6b25b1	-0.22963597
64	0xbc847640	-0.016169667
65	0x3d7de557	0.061986294
66	0xbe7a3198	-0.24432981
67	0xbcb3a092	-0.021927152
68	0xbe1fc550	-0.15602612
69	0x3e418f34	0.18902284
70	0x3e779827	0.24179135
71	0x3e9000d8	0.28125644
72	0xbeaf10e1	-0.34192565
73	0x3e033db3	0.12816505
74	0xbe50b2c6	-0.20380697
75	0xbecb5929	-0.3971646
76	0x3bfed4f7	0.007776852
77	0x3e7be0b9	0.24597444
78	0xbed6a344	-0.41921437
79	0x3d867136	0.06564562
80	0xbf1035d4	-0.56332135
81	0xbe9793db	-0.29604992
82	0x3df38252	0.11890091
83	0x3e6e9a81	0.23301126
84	0x3ea94e2e	0.3306746
85	0xbde64ccb	-0.11245116
86	0xbe051ce1	-0.12999298
87	0x3e7f142b	0.24910037
88	0xbea48598	-0.32133174
89	0xbe1dadb5	-0.15398295
90	0xbad55164	-0.0016274867
91	0x3e1f28d2	0.15542915
92	0x3df30a73	0.118672274
93	0x3d9c38d8	0.076280296
94	0xbddeb393	-0.10874095
95	0x3b93218f	0.0044900845
96	0x3d9bdf0f	0.076109044
97	0xbe733f63	-0.23754649
98	0x3e493299	0.19648208
99	0x3e3d35e0	0.18477583
100	0x3d8127a8	0.06306392
101	0xbe450b96	-0.19242701
102	0x3d381588	0.04494241
103	0xbeadd625	-0.33952442
104	0x3e497cde	0.1967654
105	0x3dbe32cb	0.09287032
106	0xbded7479	-0.11594481
107	0x3e240643	0.16018014
108	0x3e5acb88	0.21366704
109	0x3e3270af	0.17425798
110	0x3e063038	0.13104331
111	0xbdec4551	-0.115366586
112	0x3e588e34	0.21147996
113	0x3d016e53	0.031599354
114	0x3e3a1eef	0.18175863
115	0xbe0c3034	-0.13690263
116	0xbea28e4c	-0.3174919
117	0xbdde21f1	-0.108463176
118	0xbe3180c6	-0.1733428
119	0x3e302508	0.17201626
120	0xbdae925d	-0.0852401
121	0xbcdae135	-0.026718715
122	0x3d9802f7	0.074224405
123	0xbe9f78b4	-0.31146777
124	0x3e5ce1e4	0.21570545
125	0x3dc18e25	0.0945094
126	0x3e79178b	0.24325387
127	0x3d2788ba	0.040901877
128	0x3e5ef534	0.21773225
129	0x3e86b21f	0.2630777
130	0xbe22b76a	-0.1589028
131	0xbcdc6ada	-0.02690642
132	0xbe63900a	-0.22222915
133	0x3e1c8f03	0.1528893
134	0xbcf13bbf	-0.029447434
135	0x3e1f556f	0.15559934
136	0xbd43981c	-0.047752485
137	0x3e6cf512	0.23140362
138	0xbcc78658	-0.024356052
139	0xbdab2a83	-0.08357718
140	0x3d2a8064	0.04162635
141	0x3d15574a	0.0364602
142	0x3e06314e	0.13104746
143	0x3e190b79	0.14945783
144	0x3dbe0f23	0.09280231
145	0xbdfb36ef	-0.12266337
146	0xbc97cb97	-0.018529696
147	0x3d970c99	0.0737545
148	0xbd7a6285	-0.06112911
149	0xbe468c29	-0.19389404
150	0x3e20219a	0.15637818
151	0x3ea0a0ce	0.31372684
152	0xbe247533	-0.16060333
153	0xbe969cb8	-0.29416442
154	0x3e84a597	0.25907585
155	0x3df12720	0.117750406
156	0xbdef89dc	-0.116962165
157	0xbe1eebad	-0.1551959
158	0xbe72389e	-0.2365441
159	0x3e32adc4	0.17449099
160	0x3d26dd0c	0.04073815
161	0x3d656334	0.05600281
162	0x3e8046d6	0.25054044
163	0xbd7917da	-0.060813762
164	0x3eb3fd21	0.3515406
165	0xbd541006	-0.051773094
166	0xbeb1a9a4	-0.34699738
167	0xbd167f0f	-0.036742266
168	0xbe6946d6	-0.22780928
169	0xbeada1ac	-0.33912408
170	0x3e4137fd	0.18869014
171	0xbe28d481	-0.16487314
172	0xbe56f7cc	-0.20992965
173	0x3e818198	0.25294185
174	0x3e7e1983	0.2481442
175	0xbe8fd05f	-0.28088662
176	0x3e085c2c	0.13316411
177	0xbeafdd42	-0.34348494
178	0xbdc2ff61	-0.09521366
179	0xbe968ca6	-0.2940418
180	0xbe42ac10	-0.19010949
181	0x3d21a721	0.039466027
182	0x3e0f83aa	0.1401507
183	0x3e248918	0.16067922
184	0x3dfa4fcf	0.122222535
185	0x3e02b21a	0.12763253
186	0x3e6539a9	0.22385277
187	0xbd76a5ac	-0.06021659
188	0xbe474147	-0.19458495
189	0x3e31cda6	0.17363605
190	0x3e24b642	0.16085151
191	0x3e9867f2	0.29766804
192	0xbeacd78e	-0.33758205
193	0x3e427da6	0.18993244
194	0xbe408893	-0.18802099
195	0xbe81275d	-0.25225344
196	0x3e6fd82e	0.2342231
197	0x3e9367be	0.28790087
198	0x3d39a47d	0.045322884
199	0xbdd51198	-0.10403746
200	0x3c82a25d	0.015946561
201	0xbe83cc78	-0.25741935
202	0xbde3703e	-0.11105393
203	0xbd80ac7d	-0.062828995
204	0x3b702fae	0.0036649513
205	0xbe475e99	-0.1946968
206	0xbe00f2a6	-0.12592563
207	0x3e7f2d29	0.24919571
208	0x3d6562af	0.056002315
209	0xbd1b4059	-0.037903164
210	0xbe8d23cd	-0.27566376
211	0x3cabf4df	0.020990787
212	0x3da205a2	0.079112306
213	0x3e3e90bd	0.18609901
214	0xbdedfb6e	-0.11620222
215	0xbe41c4fb	-0.18922798
216	0x3abdc790	0.001447903
217	0x3e4fc297	0.20289074
218	0xbe95382f	-0.29144427
219	0xbe6e031c	-0.23243374
220	0x3e709869	0.2349564
221	0x3e80aa79	0.2513006
222	0x3e49fe28	0.19725859
223	0xbe7e768c	-0.2484991
224	0x3c568dc2	0.013095321
225	0xbe0f1904	-0.13974386
226	0xbeab0ea4	-0.33409607
227	0x3e27986c	0.16366738
228	0xbdc35991	-0.09538568
229	0x3e48ebb0	0.19621158
230	0x3e49164a	0.19637409
231	0xbe541ec1	-0.20714857
232	0x3e3dc361	0.18531562
233	0x3e8330c9	0.25623158
234	0xbe0d5bf6	-0.13804612
235	0x3e59d1dc	0.21271461
236	0xbd30c77e	-0.043159
237	0xbe4e61f2	-0.2015455
238	0xbe324d41	-0.17412283
239	0x3e037fdd	0.12841745
240	0xbe0c0cef	-0.13676809
241	0x3e851250	0.25990534
242	0x3e727293	0.23676519
243	0x3dd9091f	0.10597443
244	0xbe150c09	-0.14555372
245	0xbe24e24b	-0.16101949
246	0xbe2a05d8	-0.16603792
247	0x3dc088ee	0.09401117
248	0xbe846a23	-0.25862226
249	0xbe7cbb29	-0.24680771
250	0xbd0a94cb	-0.033833306
251	0x3d0e7992	0.034783907
252	0xbe8a9f44	-0.27074635
253	0xbddb5751	-0.10710014
254	0xbdc04edc	-0.09390041
255	0xbe482c34	-0.19548112

net.5.bias f4 [4]
0	0x3bf91dd3	0.0076024323
1	0xbde349ae	-0.11098038
2	0xbdf7fa70	-0.12108314
3	0xbd059dc7	-0.03262117

mean f4 [1, 16]
0	0x4205af7d	33.421375
1	0x41463406	12.387701
2	0x41528fca	13.160105
3	0x41645cc7	14.272651
4	0x4183aca0	16.45929
5	0x41a7abf6	20.958965
6	0x41e0f9fa	28.122059
7	0x420f1dd6	35.779137
8	0x4223fcc1	40.99683
9	0x42184308	38.06546
10	0x41ec6a36	29.55186
11	0x41bfe0ec	23.984825
12	0x4197783e	18.933712
13	0x41721f8f	15.132705
14	0x4149b1c3	12.605899
15	0x413e01dd	11.875455

std f4 [1, 16]
0	0x4163bbe5	14.233373
1	0x413808e2	11.502169
2	0x414ac167	12.672217
3	0x414d0a8e	12.815077
4	0x415eea99	13.932275
5	0x41853e00	16.655273
6	0x419db576	19.713604
7	0x41a8778e	21.058376
8	0x41bf8cc3	23.943731
9	0x41bb6aea	23.427204
10	0x41a62e98	20.77275
11	0x41a075f0	20.057587
12	0x418d4b7d	17.66186
13	0x4163d396	14.239157
14	0x411c38dc	9.763882
15	0x41025026	8.1445675
