controller_multilabel_t.pt (torch, 25937 bytes, 8 tensors)

net.0.weight f4 [64, 16]
00000000: cb2d 4e3c f3eb f3bd a214 02bc bf67 bfbe
00000010: 5d7d 5e3e f731 883e d710 b83b 0de0 2a3e
00000020: 98a3 523f 6bef 2bbf 781b 05be e4c7 8fbc
00000030: ca0d 973c 54b3 e3be c3c2 a53d 0b4d d23d
00000040: 6077 6abb a690 cd3d 8ba2 8ebe cb8d ed3d
00000050: ebca c83d f161 533f c1d3 98bc c32e 2dbf
00000060: 0fae 8e3d efd3 74be 9b68 e03e 5ced 2cbe
00000070: 56c4 f4bc 8574 cabd d209 bb3c 87f4 84bc
00000080: 0b06 61be bb29 87bc 60b5 853d fabe b13d
00000090: f6ac 84be 1fc3 2c3e c620 943d 1ce0 1abf
000000a0: 3b44 3c3c 1d55 c2be da13 c63d a580 283f
000000b0: 3280 873e fb98 f13d b79d fcbe 9dbf a03d
000000c0: d770 273f bcdd 493d dcb3 30bd 1fe4 5f3e
000000d0: f9c2 003e 39ce 32bd 09f2 b23c 19de e63e
000000e0: c802 3f3e 2f2e a63e 12b7 de3e b7c8 f93d
000000f0: 6a6c 203e f182 0f3e 909b d2bd 6f42 393e
00000100: bee2 dabc 80cb d6be 63fb 39be a4ac 30be
00000110: cbb5 453e 496d bd3e 2816 253f daea f03e
00000120: 596b b13c f681 2abf e206 20be 9c01 0bbd
00000130: 8a77 5e3d d486 e4bb 847b e8bd 3c41 65bd
00000140: 7d7d 5cbe 2a03 843d a216 14be 6421 3dbe
00000150: c237 12be 167a c1bd 4053 1dbf eda7 4ebd
00000160: 0272 5c3f 739d 6e3c 49d4 833d 4eb0 283c
00000170: e399 1f3e 4ecb 0b3e 754a 06be e02e 4cbe
00000180: 8e58 e4bd 047c 06bd f802 b5be 763c 3c3e
00000190: 8f51 ab3e 71cc aa3e 82dc 233e 85f2 263e
000001a0: 1e2c 0d3f 9d7c 8e3b 15e2 203e 4de5 843e
000001b0: e908 8f3e 3597 72be 6976 2a3e a8fa 1e3e
000001c0: 5700 acbe f850 903e f459 f7be 5084 ed3d
000001d0: 7919 493e 45ef 313e 03a0 47be f458 d8be
000001e0: 0f12 bbbe c3c6 2cbe 9010 abbe b0c7 8dbe
000001f0: 63dd bcbe 7452 0bbe 93ec e73e d9a6 ce3d
00000200: e0ad bdbe 05d6 15bf 2903 54bd 19c5 803d
00000210: c600 523e 4020 f93d a917 92bc ea5d c4be
00000220: 66d8 85bd 617d 70be 5efb 23bf 820b 883e
00000230: b842 333e 8c3b 8a3e da92 b8bc a578 913e
00000240: 0199 013e 06f2 84bd b83d e13d acdb 333e
00000250: 8331 453e c1d6 52be 595b 453c adf1 0fbe
00000260: 5d4e 45be 738a 5abe 8f54 81bd 8291 933d
00000270: 7c51 7038 f0df 043e 5451 5d3e 00e8 373e
00000280: d15a 923e 213e df3d 6ef3 653e b300 1e3d
00000290: 4ee4 7dbe 3e51 babc b3d9 863e 09f6 4cbe
000002a0: 54a6 0cbf 9f96 1d3c 44ba d53d b3c5 cb3d
000002b0: 41ee 67be b87b 61bd e3bd 993e 8ac8 493e
000002c0: 6ca8 c7be dab4 83bd 0a15 813e ff1e 883e
000002d0: 43c1 29be c1f0 ed3d e1fe a13d da56 1a3e
000002e0: 310b 463e e2c7 7c3e 1d68 153f 6d0d d43d
000002f0: c618 db3e 035f 2bbf a04c cebe f4a3 c63d
00000300: 4707 a53d fb1f d0bd 9972 41bd 1eba 823c
00000310: 3b66 3cbe b136 043e 6111 d3be de8e 6bbe
00000320: 6b39 fb3e 517b 743e 3dbb 503f 41e1 94bf
00000330: b784 d43d 0bb2 86be 4f9e 94bd 3ab3 9e3c
00000340: ffc9 b13e bef1 c23d c645 2abd 56d2 f33d
00000350: 4b4b 61bd 1729 10bf e165 debe f4c4 d6be
00000360: 50e0 cfbe f2f1 e6bc b03e c73e 6ca1 72bd
00000370: 8ddb cdbd 4df1 cdbb 7ac7 b6bc fe17 f8be
00000380: 07e7 83bd e095 5abd 3883 363e 6cf9 82bd
00000390: 3a73 7cbc a341 3cbe 3436 1bbe 53eb 63bf
000003a0: 7d64 1a3f cab7 be3e c58e 373c 4768 333e
000003b0: 7922 afbc 65bd 02bf 421a 7d3e c2ed 49bd
000003c0: a149 cebe 20be 9abc 66e7 d03c 7ab4 2dbe
000003d0: 4cdd 013e 4c80 45bb 5892 8f3d 9b45 ef3e
000003e0: 824e 83bf 904a 84be 6b3e a43f cf27 6d3e
000003f0: 3238 b63d b9f2 4ebc 94b0 103d 9087 eb3c
0.01258416 -0.11910238 -0.00793949 -0.3738384 0.2172751 0.2660062 0.005617242 0.16687031
0.82280874 -0.671622 -0.1299876 -0.01755137 0.018439192 -0.44472754 0.080937885 0.10268601
-0.003577672 0.10037355 -0.27858385 0.115993105 0.098043285 0.8257132 -0.01865566 -0.6764948
0.06966793 -0.23908971 0.43829808 -0.1688742 -0.029878777 -0.098855056 0.022831831 -0.016229881
-0.21974961 -0.01649939 0.06528735 0.08679004 -0.2591321 0.16871308 0.072328135 -0.60498214
0.011490877 -0.3795556 0.09671755 0.65821296 0.26464993 0.11796757 -0.49339077 0.07849047
0.65406555 0.049283728 -0.043140277 0.21864365 0.12574376 -0.0436537 0.021843927 0.45091322
0.18653405 0.3245711 0.43499047 0.121964864 0.15666357 0.14014794 -0.102835774 0.18091749
-0.026719447 -0.41952133 -0.18162303 -0.17253357 0.1930763 0.3699744 0.6448693 0.47054178
0.021657633 -0.66604555 -0.15627626 -0.03393708 0.05431322 -0.0069740806 -0.11351684 -0.055970415
-0.21532245 0.06445916 -0.14461759 -0.18469769 -0.14279082 -0.09447114 -0.61455154 -0.050453115
0.8611146 0.014563906 0.064369746 0.010295941 0.15586047 0.13651773 -0.1311434 -0.19939756
-0.11149703 -0.032833114 -0.35353827 0.18382439 0.33460662 0.333591 0.16002086 0.16303451
0.5514544 0.004348351 0.15711243 0.25956193 0.27936485 -0.23690493 0.16646732 0.15525305
-0.3359401 0.28186774 -0.48310816 0.11597502 0.19638623 0.1737643 -0.19494633 -0.42255366
-0.36537215 -0.16872697 -0.33411074 -0.27691412 -0.36887655 -0.13605672 0.4529768 0.100904174
-0.3704672 -0.5852969 -0.051760826 0.062875934 0.20508108 0.12164354 -0.017833548 -0.383529
-0.06535415 -0.23485328 -0.6405543 0.2657128 0.1750592 0.26998556 -0.022530962 0.28412357
0.12656023 -0.06491475 0.109981 0.17564267 0.19257168 -0.20589735 0.012045705 -0.14057036
-0.19268174 -0.21341877 -0.063149564 0.07205488 5.7296347e-05 0.1297605 0.21613055 0.17959595
0.28584912 0.10900522 0.22456142 0.038574886 -0.24794123 -0.022743817 0.26337966 -0.2001573
-0.54941297 0.00961843 0.10435918 0.099498175 -0.2264948 -0.055049628 0.30027685 0.19705406
-0.38995683 -0.06430979 0.25211364 0.26586148 -0.1657763 0.11618186 0.079099424 0.15072194
0.19340207 0.24685624 0.5836199 0.10354123 0.42792338 -0.6694185 -0.40292835 0.0969924
0.08058029 -0.1016235 -0.04722843 0.015957888 -0.18398373 0.12911488 -0.41224197 -0.23003718
0.49067244 0.23875166 0.815357 -1.1631242 0.10376876 -0.2630771 -0.072567575 0.019372571
0.34724423 0.09518765 -0.041570447 0.11905353 -0.055003446 -0.563127 -0.43437102 -0.41947138
-0.40600824 -0.02819154 0.38915014 -0.059235975 -0.100516416 -0.006284869 -0.022311915 -0.48455805
-0.06440549 -0.05336559 0.17823493 -0.0639523 -0.0154083315 -0.18384413 -0.15157396 -0.8903095
0.6030958 0.37249595 0.0112034725 0.17520247 -0.021378743 -0.51070243 0.24717048 -0.04929901
-0.4029055 -0.018889487 0.025500964 -0.16963378 0.12682074 -0.0030136285 0.07010335 0.46732792
-1.0258334 -0.25838137 1.2831548 0.23159717 0.08897437 -0.012631112 0.035324648 0.028751165

net.0.bias f4 [64]
00000000: 0d5b 83bb 48d2 41bd 2a66 03bf 1c74 5abe
00000010: f23c 73be 17b2 82bd 3fa7 373e bf34 4dbe
00000020: 212e a8bd a636 833e 7974 9fbe 7d27 033e
00000030: e2da 2d3d a3cf 3dbe 8be7 373e 4043 bcbe
00000040: effa a53d 5bbb f1be 7204 f2bd 166a 9f3e
00000050: 5c5b 983d 6553 c9bc ca07 ef3d a287 863e
00000060: fd48 29bf 8111 253e 78ab c4be 90cd 68be
00000070: d50d 743d 61bf 08be 2553 103f cf31 ab3c
00000080: cbf2 4abe 894c 58bc 4bd2 d9be abe4 e0bd
00000090: 2827 f1be cba8 873c 819c 013e 091d cd3e
000000a0: 8450 1c3f b6d2 9dbe 8d35 65be dff6 27be
000000b0: 75c9 493e 9936 00bf b7db 4d3d 147c a63c
000000c0: 621d 34bd 8297 f3bd 1598 ee3d 8ca9 d33d
000000d0: c032 383e 2729 36be 8b17 bfbd 6679 663e
000000e0: 04d0 56be 6b5a ecbe 67fd 223e 34ff 4d3d
000000f0: f569 4a3e e540 f33d 882d 09bf 166c 9c3d
-0.004008657 -0.04731968 -0.51327765 -0.21333355 -0.23753718 -0.06381624 0.17934893 -0.20039652
-0.082119234 0.2562763 -0.3114355 0.12808032 0.04244507 -0.18536238 0.1795942 -0.36770058
0.081045024 -0.47213253 -0.11817254 0.31135625 0.074393004 -0.024575898 0.116714075 0.26275355
-0.66126996 0.16119958 -0.3841207 -0.22734666 0.059583504 -0.13354255 0.5637687 0.020897774
-0.1981918 -0.013201841 -0.42543253 -0.10981115 -0.47100186 0.016559979 0.12657358 0.40061215
0.6106036 -0.30824822 -0.22383709 -0.16402768 0.19705756 -0.5008331 0.050258365 0.020322837
-0.043973334 -0.11894132 0.11650101 0.10335073 0.1798811 -0.17789136 -0.09330662 0.22507247
-0.20977789 -0.46162733 0.15916978 0.05029221 0.19766982 0.11877612 -0.535851 0.07637803

net.2.weight f4 [64, 64]
00000000: 5485 1abe f454 e13b d130 d73d 7c79 ef3d
00000010: 99ac 1fbe 0f17 9cbd bfb1 a43d 0687 d13d
00000020: 931b d6bc 6ab4 713e d3b7 f93d a01c 3bbe
00000030: 555a 05be 4ada 783e e129 23be 05d0 26be
00000040: a8e9 a0be d180 2f3d b192 b43c 0b41 133c
00000050: 2df9 883e 6678 0e3e 1929 10bc fc5e 773e
00000060: 87cd acbe 5cc9 80be a95e 903e 173e 3abd
00000070: 30a7 0dbe 7fd7 20bd f130 5e3c b604 f7be
00000080: 1a57 e03c f431 503e e44e 603d f3d3 c4bd
00000090: 5407 883e a490 663c 1a46 073d 794a 9dbe
000000a0: 34ce a73d 9002 b73d 9cf0 cabd ecf3 7abd
000000b0: 86e0 b33e 704b 45be 6523 20be 541f a4bd
000000c0: aa28 e1bd fbd6 b73c 0c8e 80be 1c07 223e
000000d0: 5a1a 3bbd 60e5 dbbd 2124 433d 9fcd a53d
000000e0: 78cb e43d c343 06be faf0 23be 1ca2 c03d
000000f0: a30e 143e 2e69 26be 7d57 283e 88ea 323e
00000100: aac6 97bb 372a a13e b09a 0e3d 4c6c 8cbe
00000110: a745 fc3c 8bf6 41be c373 07be 9ae2 433c
00000120: f672 69bd 5b55 293e a589 383e e019 bbbd
00000130: 4d6a f2be 214f b53d fd9f 36bd 8dd5 31be
00000140: 1c71 853d 646d b4be ec95 7f3e 09e2 9b3d
00000150: 662d bd3e 9e34 0a3e 0da1 98bd 785e 973e
00000160: a284 0cbe 4023 d6bd 10eb c4bc 827c 2d3e
00000170: 6b03 6cbe 7310 31bc cb84 5a3d a902 92be
00000180: d51f a8bd 495a d6bc 4b7d 64bd be38 6d3e
00000190: 0677 7f3d 3259 9ebd a8a7 ea3c aed1 2ebe
000001a0: d3a3 8ebc c8cb f9be 1f36 d83e e9fd 91be
000001b0: 393c 0b3e 098a 513d 0aec 2f3d bc5d f2be
000001c0: e8b4 a83e dafe 70bc 07a8 c93c 6b43 963d
000001d0: 65e9 85bd 675e 17bd 0e04 083e afdd 20bd
000001e0: 8178 adbc 3716 833d 6f0f 9cbe 917b 17be
000001f0: 7d1e 7e3e cb2c 933d 8da0 d43c 8f67 b6be
00000200: f1d4 803d 3577 ec3e e9c1 99be 764c 0dbe
00000210: 1d18 9dbe d08b 83be 669f 03be 369e 4ebe
00000220: af69 dbbb 1ef2 573e 1239 a63e 9899 b3bd
00000230: 3b9a d7be 893c 7e3e ebc4 f7be f350 9ebe
00000240: 146d ea3c b2ec 45bd 4770 8c3e 13c2 0c3e
00000250: 05c3 0fbf cc1f aabe 19b9 4dbd 0881 de3d
00000260: 6b0e 21be 1641 6d3e 70d5 96be 98e2 dd3d
00000270: bf12 d13e 638f 2e3e 7e3a 933d 069d 5f3e
00000280: c9a7 c33d a2b8 aebc 85c5 183d 8f88 213e
00000290: e645 b3bd 6135 633e 23d9 a3be f938 3b3e
000002a0: 8b0a b3bd 9827 e1bd 9ee9 b53e 4b86 81bd
000002b0: 4e74 363e 1ede 9ebd 2855 783d e563 afbe
000002c0: 289c 963d d568 af3a 9c12 3bbe de9f 0bbe
000002d0: 88e3 aabd e196 013e 8101 5bbd a1c4 26be
000002e0: 788b c43c 7c1d 59bd 8726 aebd e155 93bd
000002f0: 8cb3 8dbe e2e9 ed3b 580e e7be 75d6 6d3e
00000300: f2ba 993d e7d3 7f3e 837b bebd 9b66 813d
00000310: 3832 643e f3b5 203e b1b8 6bbd f7f8 dbbd
00000320: b388 c03d f8bc 1a3e f66e 24be a23b 2f3e
00000330: af5e 3bbe 6661 503e 0eb5 92bd aa49 d4bd
00000340: bcb3 713c e1ce babe a061 753d fece 303e
00000350: a73d 81bd e5f3 82be ab60 123d 5344 79bd
00000360: d3f5 c2bc d2cf df3d dc33 523d eb6a 7a3d
00000370: 0e18 7abe 64ed 3e3e 8939 1f3e e985 1abe
00000380: c54d acbe 7170 08be 5ddf af3e d693 ac3e
00000390: 1387 d7be ba73 053e 08f0 09be 88b0 803d
000003a0: a486 2b3e 967c a4be 7317 b93d 4c88 8c3d
000003b0: 543d b3be fd48 ccbd 9b1a 043d 3d2d e5bd
000003c0: 80bd 2b3d f552 ecbd 5e32 293e ef6a 8ebd
000003d0: 8bea 2cbb 0636 b93b 23ff 29be c353 533e
000003e0: 4dad 57ba 6cba 423c 6a04 4bbe 89ae 23be
000003f0: c17a aebd 4958 f6bb 4864 5abf d143 b43d
-0.15089923 0.0068765823 0.10507358 0.11693093 -0.15593185 -0.076215856 0.08041715 0.10230832
-0.026136195 0.23603979 0.12193265 -0.18272638 -0.1302274 0.2430202 -0.15933944 -0.1629029
-0.31428266 0.04284746 0.022042604 0.008987675 0.26752606 0.13913116 -0.008798861 0.24157327
-0.33750555 -0.25153625 0.2819722 -0.04546937 -0.13833308 -0.039268013 0.013561473 -0.48245782
0.027385283 0.20331556 0.054762736 -0.096107386 0.2656809 0.014072571 0.03302584 -0.3072088
0.08193627 0.08936036 -0.09909174 -0.06126778 0.35132235 -0.19267058 -0.15638502 -0.08013788
-0.10994084 0.022441378 -0.25108373 0.15823025 -0.045679428 -0.10737109 0.047641877 0.0809586
0.11171621 -0.13111787 -0.16009894 0.0940592 0.14458708 -0.1625106 0.16439624 0.17472279
-0.004631837 0.3147752 0.03481549 -0.27426374 0.030794932 -0.18941705 -0.13227753 0.0119558815
-0.0569944 0.16536467 0.18021257 -0.09135795 -0.47346726 0.08852983 -0.04458617 -0.1736662
0.065157145 -0.35239708 0.24959534 0.07611472 0.369487 0.13496634 -0.07452593 0.2956426
-0.1372247 -0.10455942 -0.024037868 0.16942027 -0.23048179 -0.010807144 0.053349297 -0.28517655
-0.082091965 -0.026166098 -0.05578355 0.23166177 0.06236937 -0.077318564 0.028644398 -0.17072174
-0.017412102 -0.48788285 0.4222879 -0.2851403 0.13597192 0.05115703 0.042949714 -0.4733714
0.3295052 -0.014709199 0.024616254 0.07337078 -0.06538657 -0.036955263 0.13282797 -0.039273914
-0.021175625 0.064007215 -0.30480525 -0.1479323 0.24816318 0.07186278 0.025955463 -0.35625884
0.06290615 0.46184698 -0.30030754 -0.13798699 -0.3068246 -0.25692606 -0.12853774 -0.2017754
-0.006695948 0.21088454 0.32465416 -0.0876953 -0.42109856 0.2482778 -0.48392424 -0.30921134
0.028616466 -0.048321433 0.2742941 0.13745908 -0.5615695 -0.33227384 -0.05022535 0.108644545
-0.15728156 0.2316936 -0.29459715 0.10834235 0.40834615 0.17046885 0.07188891 0.21837243
0.09553487 -0.021328274 0.037297744 0.15774749 -0.087535664 0.22188331 -0.320016 0.18283452
-0.08742245 -0.1099388 0.35529798 -0.063244425 0.17817804 -0.07757209 0.060628086 -0.342559
0.07354003 0.0013382683 -0.18268818 -0.13635203 -0.083441794 0.12655212 -0.05346823 -0.16285945
0.023992285 -0.053006634 -0.08503442 -0.071941145 -0.27676046 0.007260547 -0.4512813 0.2322634
0.0750636 0.24983178 -0.09300902 0.063183986 0.22284782 0.15694408 -0.057549182 -0.10740846
0.09401073 0.15111148 -0.16057953 0.17112592 -0.18297838 0.20349655 -0.0716344 -0.10365613
0.014752325 -0.3648596 0.059907556 0.17266461 -0.063105874 -0.25576702 0.03573672 -0.060856175
-0.023798859 0.109283105 0.05131899 0.06113712 -0.24423239 0.18645245 0.15549292 -0.15090145
-0.33653083 -0.13324143 0.343501 0.3370654 -0.4209524 0.13032427 -0.13470471 0.06283671
0.1675058 -0.32126302 0.09037676 0.06861934 -0.35007727 -0.09974859 0.032251935 -0.11190269
0.04192877 -0.1153926 0.1652312 -0.0695399 -0.0026384916 0.005652192 -0.16601233 0.20637421
-0.0008227423 0.011885267 -0.19825903 -0.15984549 -0.08519507 -0.0075178486 -0.8530927 0.088019975

net.2.bias f4 [64]
00000000: 8d21 223e 2523 a93e a8c7 1f3e 06f1 963e
00000010: abfa 9e3e ce44 de3d 2110 c8bc c248 203e
00000020: abc5 9d3e d6b3 c13e 8ed3 d23d bcfb dc3e
00000030: 46c9 9b3e 3e93 ef3d f1f2 b63e 00e1 7bbc
00000040: ff83 2d3c 3bc9 b03d a572 4c3e 6544 e33d
00000050: 26dc bf3e 02df 1f3e 157c 493e 0dc8 ae3e
00000060: bce6 87be 4845 ac3d 60b6 9cbc 7d60 1f3e
00000070: ac08 103e 9fd1 833e c402 593e 8e37 8f3d
00000080: e236 973e 2b58 303e ed79 b43c d556 9d3e
00000090: cba1 1c3e 860e 533e f51c 9e3d 6e6e 953e
000000a0: 3f3f 453e ed70 2f3e 662d e73e 6649 d83e
000000b0: ee32 c43e 03aa 4c3e bbde 913e b031 c13e
000000c0: 255c b03e 1e51 993e dba7 203e 8831 c43e
000000d0: c7dd 9d3d 69ce 1e3e 4bc7 c5bd 00b6 963e
000000e0: f3e9 e63d 0177 8c3e 282e b43e 8cdb 9d3d
000000f0: 116c 5b3e f928 883e 3e76 89bc e25b 883e
0.15833111 0.33034626 0.15603507 0.2948076 0.3105062 0.10852967 -0.024421753 0.15652755
0.3081487 0.37832516 0.10294257 0.43160808 0.30426997 0.11698006 0.35732225 -0.015373468
0.010590552 0.08632132 0.19965608 0.110970296 0.37472647 0.15612414 0.1967624 0.34137002
-0.26543224 0.08411652 -0.019129932 0.15564151 0.14065808 0.25745866 0.21192461 0.06993018
0.2953406 0.17221133 0.022030795 0.3073031 0.15296094 0.20611009 0.07720367 0.29185814
0.19262408 0.17132922 0.45151824 0.422435 0.38320106 0.1998673 0.28490242 0.3773322
0.344453 0.299447 0.15689032 0.3831904 0.07708316 0.15508427 -0.09657153 0.2943573
0.11275091 0.27434543 0.35191464 0.07707891 0.21427943 0.2659376 -0.016780015 0.266326

net.5.weight f4 [4, 64]
00000000: d8ab 11bf 6c01 22bf 7da4 94be c137 31bd
00000010: a6dd 6fbf d190 c63e 8920 32bd 6b8b 7d3d
00000020: 42ac 56bf 8616 063c f1d6 cdbb 10fb d9be
00000030: 6e09 923e ee25 543d 1687 363e 2ede 0ebe
00000040: 717d 07be f10a 26be 055b 693d 61d2 283c
00000050: d2ee f83d 242b 0cbd 8843 a73d 7304 d63d
00000060: e14d b0be 6785 2bbe 1198 5a3b 29a4 f53c
00000070: 0002 b1bd 2253 8cbd 2b7e d9bc 15bd 6dbe
00000080: 60ca c13b 8927 9fbd f07a 99bd e273 ce3c
00000090: dc81 c43c 1eb0 0a3e 24b1 8e3e 709a 6cbf
000000a0: ec82 6d3c 7381 c63d e1a7 eb3e d136 b83c
000000b0: 99e0 0f3d d359 3abd c147 663d 7624 813e
000000c0: 46da 2cbf 9140 c93c d21b fabe 3fff 78bf
000000d0: a1d8 e6bb 177e 96be e5e9 953e 5378 51bf
000000e0: 3886 cdbd 816c 603d 2b1a f33c ac9d 303f
000000f0: 37ff 063d eaec 49be 961d 8ebe 431b f23d
00000100: 70a0 eb3d 8997 8d3e 0f26 b2bc ab3d b4bd
00000110: 094b 653f d389 a43f 1ae1 823e 8e1e 94bf
00000120: f75a 3d3d d011 8ebf 781a e1bc 64f6 e7bd
00000130: 69cb 5a3f 6d60 51bf aba0 2fbf 1a83 9a3e
00000140: 2144 b23f 00b3 cc3e 1c73 98bf 55a4 7ebe
00000150: dff1 99bf 894e 3ebe c066 8bbf 0546 a13e
00000160: bf2c c9bf 273d be3d 5428 e6bc 38a4 91bf
00000170: 7d62 5c3f b25a 0f3f 21ae ce3c 8170 613f
00000180: 2c69 f73d 54be 343e fa11 a4be b0ed bcbf
00000190: fb30 f5be d9e1 a2bf ea47 113f 194b 5d3e
000001a0: b587 9bbf 78c5 6dbf 0994 48bf d07d f2bd
000001b0: ad43 9fbf 5473 98bf baa0 b6bf 2f98 eabe
000001c0: a9a0 873f 2985 eb3a b92e 843e 3d18 8d3e
000001d0: 04f8 ebbe 6759 47bf 4fe6 063f e809 0b3f
000001e0: a56b c13e c944 e3bf 071e a6bf 54c6 303f
000001f0: 475f 89bf 9f00 2abf 8087 b4bf 15ce a9bf
00000200: c664 47be 0dcd ca3e bbca 063f 4d22 1e3e
00000210: 8344 943e 1fc8 293d 6daa f83d fe24 74bd
00000220: eb01 853e 7c74 133e 19b0 a5bf 5e4c a73e
00000230: f936 15bf c702 a7bc 0526 44bf db2e 82be
00000240: d638 cc3e 16e1 2cbc 4743 d13b 925b 86bf
00000250: 42a4 0b3d 29e7 be3d ec6a ba3d 687c 183e
00000260: afe2 bc3e ce50 073f 885e a8bf 3d81 05bd
00000270: 58bb dabd fc19 15bf bf01 333d eea9 dfbd
00000280: f373 b3bf c071 7f3f cebb 81bf 89c3 163b
00000290: db45 bc3d 221a 16bd 1a17 5e3d 496f 633e
000002a0: de74 e5bd 1b73 8ebd aa73 6fbe 703f 143d
000002b0: 6f7a 693c 7eea fdbc 667b 81bd 735a 66bf
000002c0: 8e82 133e c275 aabf 763f 77be fd2c fe3e
000002d0: baa4 3dbf ea2a e63e f7af 483e a755 183f
000002e0: a434 803e cf2c 67bd 99b3 80be d813 0ebd
000002f0: fa10 17bd 2fc6 6a3f e5d0 d4be 5d20 90bd
00000300: 9d51 593e 1dfe ef3e 8a4e a8bf ea87 98bf
00000310: 6111 f93e e5a7 00bf fa50 93bf 96d3 01bf
00000320: 56d2 b53e 92fe 4c3e dba5 513d 0ca1 363e
00000330: b9de 85bd bc90 48be d5d4 47bb 0d5f 343f
00000340: 10ae 94bd accf 0bbf 93d5 893c 883c 813d
00000350: 09ed a93b c746 bebf e1d9 d9bd 8d0a 2bbf
00000360: 5944 633e b48d 263f f1eb e63c c2a8 393d
00000370: 4e34 e5be 7ac4 d23d 65c4 a0bf e734 06bb
00000380: 25c5 df3d f754 85be 9c85 b03d 6997 4cbc
00000390: d31a 29bf 037e 55bc c0aa dabe 6cf0 9b3e
000003a0: 6a89 56bd 6f78 f6bd a80e 2ebf 424d 84bf
000003b0: 4f42 973d 2d40 87be 04c0 3fbd f40e 2b3f
000003c0: 14ad 573e d3fc 103e 76d4 f93e c3dd 383f
000003d0: f21c 2fbb 2efb 0ebf df92 0f3f 481c 5a3d
000003e0: 7825 3c3f 99cd 3f3d ebd6 2b3d 2bd3 debd
000003f0: fbcd b9bd 59b4 6bbf c433 753e 12a3 86bc
-0.5690284 -0.6328342 -0.29031745 -0.04326606 -0.93697584 0.3878236 -0.04348806 0.061900537
-0.83856595 0.008184081 -0.0062817265 -0.42574358 0.2852282 0.051793985 0.17824969 -0.13951942
-0.13231446 -0.16215111 0.05697157 0.0103040645 0.12154926 -0.03422083 0.081671774 0.10450067
-0.34434417 -0.16750108 0.0033354799 0.029985504 -0.086429596 -0.06851794 -0.02654942 -0.2321666
0.0059140176 -0.077712126 -0.074941516 0.025201742 0.023987703 0.13543746 0.27869523 -0.9242315
0.014496546 0.09692659 0.4602652 0.022487076 0.035126302 -0.04549582 0.056220774 0.2522313
-0.6752056 0.02456692 -0.4884935 -0.97264475 -0.007044867 -0.29393074 0.2928001 -0.81824225
-0.10035366 0.054790977 0.029675564 0.6899059 0.032958236 -0.19719282 -0.27756947 0.11821606
0.115052104 0.27654675 -0.021746663 -0.08800825 0.8956762 1.2854561 0.25562364 -1.1571825
0.04622933 -1.1099186 -0.027478442 -0.11326292 0.8546663 -0.8178776 -0.68604535 0.30178148
1.3927041 0.39980316 -1.1910129 -0.24867375 -1.2026938 -0.18584646 -1.0890732 0.31498733
-1.571678 0.09289008 -0.028095402 -1.137824 0.8608778 0.55997765 0.025229516 0.8806229
0.12080607 0.1765073 -0.32044965 -1.4760036 -0.47888932 -1.2725173 0.5675036 0.21610679
-1.215079 -0.9287944 -0.78350884 -0.11840403 -1.2442528 -1.1910195 -1.42678 -0.45819232
1.0595905 0.0017968762 0.25816897 0.27557555 -0.46087658 -0.7787079 0.52695173 0.5431199
0.3777744 -1.7755367 -1.2977914 0.69052625 -1.0732201 -0.664072 -1.4103851 -1.3266016
-0.19472036 0.39609566 0.5265309 0.15442772 0.2895852 0.041450616 0.12141881 -0.05960559
0.25978026 0.14399904 -1.2944366 0.3267545 -0.58287007 -0.020387067 -0.76620513 -0.25426373
0.39887112 -0.010551712 0.006386194 -1.0496695 0.034092195 0.09321434 0.09102425 0.14891207
0.36891696 0.52857673 -1.3153849 -0.032593954 -0.10680264 -0.58242774 0.043702837 -0.109210834
-1.401976 0.99782944 -1.0135438 0.0023004732 0.091930114 -0.036646016 0.05422125 0.2221042
-0.11203931 -0.069555484 -0.23383966 0.03619331 0.014250382 -0.030995604 -0.063223645 -0.89981765
0.14405271 -1.3317187 -0.24145302 0.49643698 -0.7407948 0.44954616 0.19598375 0.59505695
0.25040162 -0.056439217 -0.25137022 -0.034686893 -0.036881424 0.91708654 -0.41565624 -0.07037423
0.21222539 0.4687356 -1.3148968 -1.1916478 0.48646072 -0.50256187 -1.1509087 -0.5071348
0.35512036 0.20018986 0.051183563 0.17834872 -0.065366216 -0.19586462 -0.0030491848 0.70457536
-0.07259762 -0.5461376 0.016825473 0.063103735 0.0051857275 -1.486535 -0.1063726 -0.66812974
0.22194041 0.6505997 0.028188678 0.045326956 -0.44766468 0.10291381 -1.2559935 -0.002047831
0.10926274 -0.26041386 0.08619234 -0.012487271 -0.66056556 -0.013030532 -0.42708397 0.30456865
-0.052377142 -0.1203469 -0.67991114 -1.0336077 0.07385694 -0.2641615 -0.04681398 0.6681969
0.21062118 0.14158945 0.48794907 0.7221338 -0.0026720134 -0.5585202 0.5608348 0.053249627
0.7349467 0.046826933 0.04195301 -0.10880121 -0.09072491 -0.92072064 0.23945528 -0.01643518

net.5.bias f4 [4]
00000000: 0420 513e 17cb cf3e 3570 0abc 2644 36bd
0.20422369 0.40584633 -0.008449604 -0.044498585

mean f4 [1, 16]
00000000: 78d8 c041 3646 1241 ebf5 1541 fe2c 2b41
00000010: 3e58 5a41 ec95 9241 2c4f c241 32ea f641
00000020: 2e42 0e42 029f f741 78df c241 cbd1 9341
00000030: 498a 5c41 8bbd 2b41 7906 1641 f876 1241
24.105698 9.142141 9.372539 10.698484 13.6465435 18.323204 24.288658 30.864353
35.56463 30.95264 24.359116 18.477438 13.783761 10.733775 9.37658 9.154045

std f4 [1, 16]
00000000: cd72 2041 9c97 a340 a36b a040 03d5 ed40
00000010: f01e 3641 d4e3 7441 f3a4 8e41 eb2e 9941
00000020: 7f3f a441 8205 9941 69fe 8d41 59e0 7741
00000030: 674b 3b41 7690 f340 005a a140 035c a540
10.028028 5.112257 5.0131392 7.4322524 11.382553 15.305622 17.830542 19.14791
20.531004 19.12769 17.749224 15.492272 11.705909 7.6113844 5.0422363 5.167482
