controller_multilabel_fini_le_tour_30e_128n.pt (torch, 80721 bytes, 8 tensors)

net.0.weight f4 [128, 16]
-0.20985086 0.047029722 -0.1087373 0.18139116 0.27728477 -0.16520913 0.04889894 -0.104849465
0.37978286 0.13534673 -0.00030847132 -0.035009883 0.07523109 0.11360154 0.15763934 -0.2284121
0.13800494 0.15234707 -0.15117772 0.23684008 0.13554749 -0.15556002 -0.16120687 -0.061510477
-0.2845935 0.17400397 -0.057556093 0.015765337 -0.09092581 0.10032494 0.16620241 -0.09924298
0.23284568 -0.02470825 -0.24533121 -0.25039294 -0.32352516 0.16443293 0.18785496 0.093348354
-0.17577715 -0.29783115 -0.11305889 0.027910352 0.12388914 -0.103810884 -0.0564319 -0.021517735
-0.36505947 0.2207984 -0.19369067 -0.336413 0.025569519 0.14485982 -0.10771745 0.25634664
-0.10216865 -0.18959545 0.0040198136 0.016891321 0.057833426 -0.084217176 0.15707481 -0.09793746
-0.2166926 0.10794947 0.04711664 0.26922843 0.17882924 -0.07182733 -0.11287796 -0.25903487
0.08222491 -0.19527362 -0.20075354 0.27818564 -0.02837594 0.02499796 -0.16028364 -0.10438834
0.37663972 0.1475807 0.23674566 0.2857519 0.19720374 -0.0969859 0.1145303 -0.14524539
-0.113489784 0.13575818 -0.13266177 0.044816785 0.0036842944 0.08742643 -0.031444352 0.20289388
0.176918 -0.26487386 0.20395711 0.17590532 -0.07131979 -0.009461772 -0.018419042 0.17687243
0.3134762 -0.3392103 0.005020915 0.03870914 0.008795749 0.20303525 -0.12611282 -0.06487105
-0.010410979 0.0002747167 0.07927419 -0.10415031 -0.14318548 -0.10111819 0.11825555 0.24903435
0.13162641 0.13137254 -0.2042799 -0.09267629 0.11514756 -0.26737708 -0.06360244 -0.25093034
0.23317598 0.20970093 0.086014144 0.26781598 0.27787465 0.08949847 0.18469341 -0.18220703
-0.261966 -0.24966028 0.19318034 -0.07943132 0.218222 0.093486845 0.16467872 -0.06381087
-0.11016692 -0.19013754 0.071356 -0.045883186 -0.0046882313 -0.16159558 -0.24350235 -0.25122806
-0.03409732 0.15501158 0.18414094 0.2154242 0.051342983 -0.12121086 0.10368803 -0.011728987
0.1240705 -0.024829084 -0.14041123 -0.11116505 -0.17235062 -0.001103545 0.07305737 -0.10977061
-0.05757163 0.008275571 -0.1047215 0.180539 -0.0043222886 0.24404219 -0.030992812 0.22054076
0.31503904 0.10742125 -0.24346426 -0.09003104 0.21711096 0.232598 -0.03764959 -0.2157455
-0.040450912 -0.13482514 -0.15491445 0.25938672 0.21897209 0.16690229 -0.1481222 0.23128995
0.11726367 0.19363274 0.13853401 0.14723894 -0.16161211 0.08507044 -0.09210718 -0.0499253
0.009750895 -0.17631826 0.07908168 0.27569148 -0.1966882 0.10820348 0.15119007 0.06885116
-0.25965697 0.066908576 0.13431458 -0.18804292 0.05890657 -0.24888353 -0.022034682 -0.14202766
-0.004729292 0.23754524 -0.17355366 -0.2376534 -0.072476536 0.14673601 -0.29639667 -0.114303
-0.22154611 0.07523218 0.27853617 0.053287905 -0.34997606 -0.1651257 -0.3390153 0.20963672
0.14941368 -0.15054779 -0.038149063 0.092852004 -0.10448741 0.05028129 0.10550672 0.06855097
0.22638834 0.046168998 -0.1359362 -0.09879592 -0.056152914 -0.17521812 -0.13539273 -0.09503975
0.10684782 0.11614336 -0.3385146 -0.1109042 -0.13666481 -0.0110615585 -0.32531542 -0.15242773
00000000: 25e3 56be 3da2 403d a9b1 debd 9bbe 393e
00000010: 45f8 8d3e 952c 29be 414a 483d 51bb d6bd
00000020: e672 c23e 5598 0a3e 52ba a1b9 8666 0fbd
00000030: c212 9a3d eda7 e83d 356c 213e dde4 69be
00000040: 2b51 0d3e df00 1c3e 55ce 1abe 3586 723e
00000050: f6cc 0a3e 204b 1fbe 6a13 25be 69f2 7bbd
00000060: 3db6 91be 192e 323e f0bf 6bbd 4f26 813c
00000070: 5037 babd 2a77 cd3d f730 2a3e e73f cbbd
00000080: 196f 6e3e f568 cabc 1b38 7bbe 8133 80be
00000090: 17a5 a5be 1b61 283e 0d5d 403e 6c2d bf3d
000000a0: edfe 33be 537d 98be 6b8b e7bd 40a4 e43c
000000b0: 97b9 fd3d cd9a d4bd 2325 67bd f645 b0bc
000000c0: 13e9 babe fa18 623e d956 46be 533e acbe
000000d0: 2b77 d13c 2256 143e f79a dcbd de3f 833e
000000e0: cc3d d1bd 4f25 42be a4b8 833b ab5f 8a3c
000000f0: bee2 6c3d 0e7a acbd 38d8 203e 6f93 c8bd
00000100: aae4 5dbe 9d14 dd3d 61fd 403d 4fd8 893e
00000110: 031f 373e 351a 93bd 8f2c e7bd 38a0 84be
00000120: 8965 a83d cff5 47be 5692 4dbe 596e 8e3e
00000130: a974 e8bc 86c8 cc3c 6521 24be 8ec9 d5bd
00000140: ecd6 c03e 651f 173e 746d 723e 134e 923e
00000150: c7ef 493e 8ba0 c6bd dd8e ea3d 35bb 14be
00000160: 556d e8bd 3104 0b3e 7dd8 07be ce91 373d
00000170: 3474 713b a10c b33d cbcb 00bd 6ac3 4f3e
00000180: fe29 353e 8c9d 87be 22da 503e 8620 343e
00000190: 1c10 92bd 8c05 1bbc 88e3 96bc 0c1e 353e
000001a0: f47f a03e f9ac adbe 7d86 a43b 7a8d 1e3d
000001b0: 0c1c 103c 79e8 4f3e b823 01be 1ddb 84bd
000001c0: d092 2abc da07 9039 825a a23d c24c d5bd
000001d0: 379f 12be 0e17 cfbd f72f f23d dc02 7f3e
000001e0: 13c9 063e 8686 063e c02e 51be 11cd bdbd
000001f0: 7cd2 eb3d a6e5 88be ff41 82bd f179 80be
00000200: afc5 6e3e d7bb 563e 2f28 b03d 2d1f 893e
00000210: 9645 8e3e f94a b73d 4520 3d3e 7b94 3abe
00000220: 6820 86be f2a6 7fbe 11d1 453e e3ac a2bd
00000230: 9775 5f3e 0876 bf3d 8aa1 283e 46af 82bd
00000240: 329f e1bd 6ab3 42be 1823 923d 02f0 3bbd
00000250: bc9f 99bb 5079 25be ae58 79be f7a0 80be
00000260: a2a9 0bbd 5bbb 1e3e 718f 3c3e 2998 5c3e
00000270: 054d 523d 663d f8bd 645a d43d f02a 40bc
00000280: ad18 fe3d 5d66 cbbc f6c7 0fbe 80aa e3bd
00000290: ae7c 30be d3a4 90ba 1a9f 953d 6acf e0bd
000002a0: 3bd0 6bbd 4396 073c 3a78 d6bd 37df 383e
000002b0: fca1 8dbb 32e6 793e a3e4 fdbc 70d5 613e
000002c0: cc4c a13e acff db3d b24e 79be 3262 b8bd
000002d0: 5652 5e3e 2c2e 6e3e 7536 1abd 63ec 5cbe
000002e0: dbaf 25bd 9a0f 0abe e5a1 1ebe 56ce 843e
000002f0: 383a 603e 6fe8 2a3e 59ad 17be 46d7 6c3e
00000300: ef27 f03d a947 463e dcdb 0d3e cec5 163e
00000310: a57d 25be 6939 ae3d b0a2 bcbd 797e 4cbd
00000320: 38c2 1f3c c68c 34be 93f5 a13d 6f27 8d3e
00000330: a268 49be c999 dd3d 92d1 1a3e d601 8d3d
00000340: c2f1 84be 5d07 893d c389 093e 538e 40be
00000350: 0448 713d 53db 7ebe 1482 b4bc b36f 11be
00000360: 2df8 9abb 0f3f 733e 0db8 31be 6a5b 73be
00000370: 946e 94bd f741 163e 4ec1 97be b117 eabd
00000380: fcdc 62be 5413 9a3d 4b9c 8e3e 6b44 5a3d
00000390: 1030 b3be b616 29be 6a93 adbe 02ab 563e
000003a0: e6ff 183e 3329 1abe 3142 1cbd 3129 be3d
000003b0: 7ffd d5bd c1f3 4d3d e813 d83d 7364 8c3d
000003c0: 58d2 673e b41b 3d3d dc32 0bbe 8455 cabd
000003d0: 9900 66bd 616c 33be 64a4 0abe 33a4 c2bd
000003e0: 08d3 da3d 92dc ed3d c951 adbe be21 e3bd
000003f0: dcf1 0bbe 8a3b 35bc be8f a6be 0416 1cbe

net.0.bias f4 [128]
0.2414999 0.11615979 -0.009539854 0.076916546 -0.2132593 0.20366752 0.045675565 0.11810521
0.2833555 0.21717598 0.077674836 -0.12355581 0.10197946 0.08617018 0.19613187 0.25230756
0.018558789 0.36106312 0.06253983 -0.047189854 0.0650431 0.055306673 -0.25913936 -0.07407313
0.119041644 -0.0018478289 -0.11857158 -0.17085926 0.18650009 0.021782603 -0.09202856 0.0118869515
-0.19704561 0.22851829 -0.09025854 -0.10104257 -0.07075737 0.24937733 0.2509592 -0.27230918
-0.059544772 0.092530854 0.01718785 0.19825235 0.19127046 -0.11440597 0.11393102 0.14148344
-0.07852686 0.0288215 0.015792333 0.13029592 0.02414646 0.18143228 0.25340477 0.23777717
0.22285321 -0.043336704 -0.0084164925 0.04363384 -0.004257035 0.12686999 0.06290107 0.1819496
-0.15022296 0.11408017 -0.21074213 -0.024088494 -0.061633654 0.07246378 -0.03600105 -0.11517259
0.118218616 0.14406835 0.18739861 -0.08302638 -0.031101078 0.023460515 0.33754233 -0.20517412
-0.06708208 0.19858953 0.2545048 0.07711569 -0.12440467 -0.074186444 0.27665555 0.099014886
-0.050048575 0.1890103 -0.10567959 -0.17169593 0.15554756 -0.19599935 0.19972014 -0.03390672
-0.17150831 0.12853636 0.3130359 -0.142817 -0.1398922 0.29343894 -0.15161636 0.08051393
-0.083373204 0.24849007 -0.18845123 0.038690943 0.06501799 0.06780409 0.12699217 0.058859874
-0.09817921 0.1947924 0.006199883 -0.16058215 0.082794525 0.19592823 -0.18240397 -0.0973968
0.079804145 0.2496442 -0.23525137 0.27410546 -0.009766944 0.016539413 -0.014748768 0.20363772
00000000: c04b 773e 2fe5 ed3d 0c4d 1cbc 6c86 9d3d
00000010: a560 5abe 388e 503e 4d16 3b3d 25e1 f13d
00000020: f913 913e 6163 5e3e fc13 9f3d d40a fdbd
00000030: 9bda d03d fe79 b03d cbd6 483e 752e 813e
00000040: 9a08 983c 44dd b83e e214 803d 264a 41bd
00000050: 5135 853d 4089 623d eaad 84be a7b3 97bd
00000060: 1bcc f33d d932 f2ba a8d5 f2bd bbf5 2ebe
00000070: e1f9 3e3e 6e71 b23c 7879 bcbd 7dc1 423c
00000080: 53c6 49be b300 6a3e 78d9 b8bd 68ef cebd
00000090: 3de9 90bd c55c 7f3e b97d 803e 1c6c 8bbe
000000a0: 38e5 73bd d180 bd3d 89cd 8c3c aa02 4b3e
000000b0: 67dc 433e ad4d eabd ab54 e93d 09e1 103e
000000c0: b1d2 a0bd 111b ec3c ec5e 813c 4b6c 053e
000000d0: ccce c53c 62c9 393e 45be 813e dc7b 733e
000000e0: a233 643e d481 31bd 54e5 09bc 66b9 323d
000000f0: 997e 8bbb 35ea 013e 47d2 803d ff50 3a3e
00000100: 0cd4 19be dda2 e93d c9cc 57be 3c55 c5bc
00000110: 9273 7cbd e467 943d d675 13bd 9bdf ebbd
00000120: 9a1c f23d a786 133e 6ce5 3f3e bc09 aabd
00000130: b0c7 febc 4430 c03c 59d2 ac3e 2a19 52be
00000140: 5462 89bd 0e5b 4b3e 744e 823e d5ee 9d3d
00000150: e0c7 febd 10ef 97bd cca5 8d3e 51c8 ca3d
00000160: bcff 4cbd eb8b 413e 8a6e d8bd 0fd1 2fbe
00000170: dc47 1f3e 0eb4 48be 7083 4c3e c6e1 0abd
00000180: e09f 2fbe 099f 033e 3e46 a03e 9f3e 12be
00000190: e73f 0fbe a13d 963e 5241 1bbe 7de4 a43d
000001a0: 92bf aabd 2e74 7e3e 5cf9 40be 657a 1e3d
000001b0: 2728 853d dfdc 8a3d 3c0a 023e 0d17 713d
000001c0: 2f12 c9bd a977 473e 6328 cb3b a66f 24be
000001d0: 2d90 a93d 69a1 483e 1bc8 3abe f977 c7bd
000001e0: 5b70 a33d bba2 7f3e bce5 70be 8d57 8c3e
000001f0: 8805 20bc aa7d 873c d1a4 71bc 6886 503e

net.2.weight f4 [128, 128]
-0.013612263 -0.016869478 -0.021941684 -0.14070429 0.042434137 -0.09659777 -0.12653275 -0.020561554
0.036339425 0.07565336 -0.024826748 -0.014490759 0.0038688285 -0.037666533 0.020548252 0.04977952
0.017621722 0.17189047 -0.07821198 0.06296809 -0.0003872282 -0.13739218 -0.0009698046 -0.038545683
-0.04686303 0.031285383 0.072760016 0.08615293 0.005715817 -0.010877164 0.010236125 0.058208294
0.10241779 0.03882089 -0.052701525 0.035165086 0.13705114 0.1452046 -0.05651411 0.081287295
0.034330875 -0.007740081 0.055033654 -0.039851703 -0.017121974 0.029500183 -0.012153904 0.06496937
0.042465374 0.05937475 0.07787394 -0.051784884 0.08431617 -0.082551636 -0.0074662366 -0.08802785
0.018543752 0.05717126 -0.10400715 0.028662361 -0.0020468456 0.051437907 0.020354938 0.03148455
0.027033804 -0.009328729 -0.014182092 -0.01937051 -0.03537904 0.081751615 0.050391257 0.00858602
0.06406149 -0.12635435 0.02409833 -0.018108696 0.05270041 -0.10170826 0.023216296 0.05047572
0.002567573 -0.07124925 -0.048731815 -0.019064931 -0.083137974 0.023834256 0.044448204 -0.114352696
0.11791192 0.1404588 -0.056969047 0.08225966 0.05822423 0.050719667 -0.11393025 0.04652857
0.0015421772 0.03773138 -0.007328118 0.10815928 0.160155 0.042540375 -0.07123531 0.06513566
-0.04290858 0.0027421038 0.0029643388 -0.050439894 0.06840349 -0.03150808 -0.07333013 0.031326838
-0.10747997 0.014579563 -0.06483843 0.039296977 -0.009252252 -0.06096033 0.029785441 -0.0138765
-0.105674 0.035429116 0.15048036 0.03941415 0.01255298 -0.049881354 -0.0420287 0.065299176
0.0022165675 -0.00019070058 0.0025445179 -0.0007786713 0.0005415296 -0.00049190846 -0.0014482931 -0.00043838818
-0.00090768945 -3.1132004e-05 -0.00025195398 -0.0009925889 -0.0003918899 -0.00022937918 -0.0002838593 -0.00073168695
-0.0023747515 2.504341e-05 -0.00046299724 -0.0027265144 -0.000687274 -0.0047791624 -0.000104413724 7.968341e-21
-0.0006313764 -0.00073268707 -0.00026305282 -0.0013665083 -0.0017354169 -0.00078391493 -0.00034528173 -0.00010084882
9.529494e-05 -6.6150215e-12 -0.0019404786 -0.0016996358 -0.0006868854 0.00066282705 0.00079422444 -0.00020808738
0.00028749154 -3.9389088e-05 -0.00022256532 -0.0012177144 -0.0013351098 -0.00045142154 -0.0010665476 -0.00096112327
-4.5350178e-05 -2.0303595e-18 -0.0018765768 -0.00016182371 -0.00018236425 -0.0007200882 -2.2034323e-05 0.0032885734
-0.00069244683 -0.00090562453 -0.0030010191 2.0607201e-16 -0.0012389959 -0.00031789052 -0.00035391326 -6.816443e-05
-0.0018514642 0.0077034063 -5.488254e-19 -0.00013670018 -0.00061540434 -0.0012075485 -0.0004574212 -0.00045396903
0.0005113687 -0.0015298718 -0.0005345154 -0.00014969672 -0.0021416233 -0.0011355786 -0.00092946034 -0.0019630345
-0.0012450735 -0.0016234781 -0.00031408196 -0.0008879047 -0.00026670573 0.00033660696 -0.0002663409 -8.617167e-05
-5.3069465e-20 -0.0013517073 -0.0010204734 4.007018e-06 -0.00073309947 3.759827e-05 -0.00027220973 -0.00048204922
-0.0021864043 -0.0004555553 -0.0012889614 -9.464374e-05 -7.693862e-05 -0.00075264566 -0.0010761241 -0.0010152597
-0.0018409344 -0.0013747723 -0.00031027914 -0.0006447628 -0.0002489615 0.0012995177 -0.008788106 -0.0017982061
-0.0008642054 -0.0004718169 -7.08956e-05 -4.2721158e-16 0.0022021146 -0.002889542 0.00013539512 -0.0010764931
-0.0031310113 -0.001125007 2.591252e-05 -0.0014359794 -0.002187902 -0.000505983 -0.0019622485 -0.00026958686
00000000: f805 5fbc dc31 8abc 0cbf b3bc c914 10be
00000010: 6bcf 2d3d 0dd5 c5bd cd91 01be b470 a8bc
00000020: a6d8 143d 26f0 9a3d 7761 cbbc a66a 6dbc
00000030: 2c8c 7d3b 3948 1abd cf54 a83c 9ce5 4b3d
00000040: 6e5b 903c 0e04 303e 9a2d a0bd 6af5 803d
00000050: e404 cbb9 89b0 0cbe 7c3a 7eba 14e2 1dbd
00000060: 73f3 3fbd 1a25 003d 3403 953d f370 b03d
00000070: c04b bb3b 2236 32bc 6cb5 273c d26b 6e3d
00000080: 6bc0 d13d a702 1f3d 8edd 57bd 4409 103d
00000090: 2257 0c3e 84b0 143e 577b 67bd f479 a63d
000000a0: 889e 0c3d 81a0 fdbb f86a 613d 8a3b 23bd
000000b0: 6243 8cbc 5eaa f13c 2b21 47bc a90e 853d
000000c0: 2cf0 2d3d f032 733d 5f7c 9f3d 631c 54bd
000000d0: f5ad ac3d d510 a9bd 55a7 f4bb f247 b4bd
000000e0: 11e9 973c 692c 6a3d b301 d5bd 54cd ea3c
000000f0: 5f24 06bb 8eb0 523d 66bf a63c f2f5 003d
00000100: ff75 dd3c 86d7 18bc 015c 68bc e7ae 9ebc
00000110: 9de9 10bd 646d a73d 1067 4e3d 61ac 0c3c
00000120: ac32 833d 0963 01be dc69 c53c b058 94bc
00000130: 63dc 573d 6c4c d0bd 1a30 be3c a1bf 4e3d
00000140: ba44 283b 20eb 91bd 039b 47bd 0f2e 9cbc
00000150: 3e44 aabd 0f40 c33c 520f 363d bf31 eabd
00000160: ce7b f13d 6fd4 0f3e 6058 69bd c177 a83d
00000170: 887c 6e3d 6dbf 4f3d 4354 e9bd be94 3e3d
00000180: e122 ca3a 388c 1a3d b620 f0bb 9d82 dd3d
00000190: acff 233e d13e 2e3d d1e3 91bd d865 853d
000001a0: e8c0 2fbd deb4 333b 5a45 423b 109a 4ebd
000001b0: 2117 8c3d 9e0e 01bd 1b2e 96bd 9250 003d
000001c0: 751e dcbd 1fdf 6e3c 03ca 84bd def5 203d
000001d0: c296 17bc 8ab1 79bd 9900 f43c 425a 63bc
000001e0: 9c6b d8bd 1f1e 113d 8617 1a3e bb70 213d
000001f0: 04ab 4d3c 6450 4cbd 4926 2cbd 93bb 853d
00000200: d543 113b ccf6 47b9 edc1 263b bf1f 4cba
00000210: 70f5 0d3a 6bf3 00ba a7d4 bdba 77d7 e5b9
00000220: 02f2 6dba bc93 02b8 b118 84b9 c219 82ba
00000230: 9276 cdb9 8185 70b9 f3d2 94b9 aece 3fba
00000240: b8a1 1bbb 5014 d237 70be f2b9 52af 32bb
00000250: 2d2a 34ba 859a 9cbb b1f8 dab8 8884 161e
00000260: f482 25ba cc11 40ba 5aea 89b9 691c b3ba
00000270: ee76 e3ba a47f 4dba ee06 b5b9 cc7e d3b8
00000280: 15d9 c738 d1be e8ac a857 feba 50c6 deba
00000290: 1910 34ba 92c1 2d3a 8033 503a 0832 5ab9
000002a0: 76ba 9639 b635 25b8 6c60 69b9 b79b 9fba
000002b0: dafe aeba c6ac ecb9 66cb 8bba e4f3 7bba
000002c0: 6236 3eb8 68d0 15a2 78f7 f5ba 39af 29b9
000002d0: 0839 3fb9 4dc4 3cba 59d6 b8b7 1b85 573b
000002e0: 5285 35ba 6f67 6dba bfac 44bb b995 6d25
000002f0: ce65 a2ba 8baa a6b9 6f8d b9b9 80f3 8eb8
00000300: d4ac f2ba db6c fc3b 13fc 21a1 2d57 0fb9
00000310: 1653 21ba 9b46 9eba 09d2 efb9 b102 eeb9
00000320: 5f0d 063a fb85 c8ba b91e 0cba e8f7 1cb9
00000330: 7a5a 0cbb b2d7 94ba 07a7 73ba 41a6 00bb
00000340: bc31 a3ba e3ca d4ba 5eab a4b9 47c2 68ba
00000350: a3d4 8bb9 9f7a b039 aca3 8bb9 10b7 b4b8
00000360: 0c9d 7a9f c52b b1ba 68c1 85ba 0674 8636
00000370: 792d 40ba d6b2 1d38 5fb7 8eb9 8dbb fcb9
00000380: c749 0fbb 99d7 eeb9 5ef2 a8ba 797b c6b8
00000390: 1b5a a1b8 324d 45ba bc0c 8dba 7612 85ba
000003a0: 824b f1ba b431 b4ba f6ac a2b9 4d05 29ba
000003b0: 0c87 82b9 9454 aa3a fdfb 0fbc c9b1 ebba
000003c0: d88b 62ba 315e f7b9 c9ad 94b8 4d45 f6a5
000003d0: 5a51 103b 785e 3dbb daf8 0d39 1d19 8dba
000003e0: a731 4dbb f974 93ba b75e d937 7937 bcba
000003f0: e862 0fbb f2a3 04ba 1199 00bb 5657 8db9

net.2.bias f4 [128]
-0.03002558 -0.0102379 0.021479217 -0.07907729 -0.055112835 0.013000257 0.07476518 -0.08507075
0.022957113 0.023889353 0.06593516 -0.13303356 0.089315675 -0.07026297 0.084525466 0.08877644
0.047292676 0.0653041 -0.031263944 -0.047472175 0.059018135 -0.04567945 -0.028875623 0.021922085
-0.055995196 -0.04597721 -0.05089256 0.019141473 0.06251542 -0.003851473 0.056110043 0.083130635
-0.057032514 0.09713524 -0.020849906 0.060786676 -0.025190018 -0.042618427 0.04898388 0.11397608
-0.08550659 0.07210226 0.042244717 -0.042751208 0.03148516 -0.007650214 0.020262508 -0.07491149
0.02302895 0.043243848 -0.0009755121 0.09135408 0.020705244 0.051828675 0.027455041 -0.015440365
0.08689623 -0.03981351 0.027242957 0.028508788 0.07456605 -0.016561719 -0.011424675 0.08066891
0.006222349 0.07937368 0.06081009 0.1310771 -0.07186555 0.07428713 0.014710423 0.09158738
0.13262762 -0.021237362 -0.008173627 0.05565787 0.037435148 0.012191959 0.090287976 0.0048820945
-0.07969903 0.030334817 0.03882931 0.033812635 0.06677455 0.0540475 0.06589236 0.13494612
-0.080013044 0.094124705 -0.037166763 -0.029662624 0.041697875 0.078494154 0.08629028 0.003662013
-0.018710252 -0.016847031 0.014714956 0.11859696 0.0022788106 0.09357813 0.055695914 -0.07054662
-0.015812062 -0.04304361 -0.029960757 0.032130066 0.020056278 0.14329384 0.040126584 0.055623516
0.056387316 0.018992998 0.0359757 0.013658576 -0.013015229 0.10138172 0.015922792 0.040247522
0.033574916 0.01001517 0.07445155 0.13713458 0.04902308 0.108625025 0.03309875 -0.033175357
00000000: 35f8 f5bc ddbc 27bc 2ff5 af3c 46f3 a1bd
00000010: ffbd 61bd 08ff 543c 7d1e 993d 9339 aebd
00000020: 8e10 bc3c 9bb3 c33c 0309 873d f339 08be
00000030: 23eb b63d 08e6 8fbd b01b ad3d 6cd0 b53d
00000040: f7b5 413d 28be 853d 9f0e 00bd 2f72 42bd
00000050: 00bd 713d 601a 3bbd 928c ecbc f295 b33c
00000060: 385b 65bd 9952 3cbd b874 50bd 94ce 9c3c
00000070: 1608 803d ff68 7cbb a5d3 653d 6540 aa3d
00000080: ed9a 69bd d7ee c63d 6ccd aabc 73fb 783d
00000090: 4c5b cebc a990 2ebd 52a3 483d 4b6c e93d
000000a0: 141e afbd 5aaa 933d cc08 2d3d e41b 2fbd
000000b0: 95f6 003d a5ae fabb 8ffd a53c 326b 99bd
000000c0: 35a7 bc3c 7620 313d 82b9 7fba d917 bb3d
000000d0: 0b9e a93c 4e4a 543d 65e9 e03c 96f9 7cbc
000000e0: a7f6 b13d 7e13 23bd 9f2c df3c 438b e93c
000000f0: 16b6 983d 71ac 87bc 8f2e 3bbc be35 a53d
00000100: d9e4 cb3b ab8e a23d 0014 793d 1339 063e
00000110: 3f2e 93bd da23 983d fc03 713c 2a92 bb3d
00000120: 89cf 073e faf9 adbc adea 05bc 82f9 633d
00000130: 9955 193d c8c0 473c e7e8 b83d faf9 9f3b
00000140: 3f39 a3bd b980 f83c 7c0b 1f3d 1e7f 0a3d
00000150: 18c1 883d e960 5d3d 93f2 863d 512f 0a3e
00000160: e1dd a3bd 74c4 c03d 2d3c 18bd 08ff f2bc
00000170: 64cb 2a3d 8bc1 a03d f5b8 b03d 62fe 6f3b
00000180: 3e46 99bc c902 8abc 0017 713c f7e2 f23d
00000190: 1958 153b e4a5 bf3d 6621 643d bf7a 90bd
000001a0: 4c88 81bc 7f4e 30bd 4370 f5bc d19a 033d
000001b0: 104d a43c 9fbb 123e c65b 243d 7cd5 633d
000001c0: 63f6 663d 3497 9b3c 415b 133d 38c8 5f3c
000001d0: d43d 55bc 38a1 cf3d 8470 823c 96da 243d
000001e0: da85 093d ab16 243c 0e7a 983d 026d 0c3e
000001f0: 6dcc 483d cc76 de3d 8e92 073d e2e2 07bd

net.5.weight f4 [4, 128]
-0.025752619 0.007935544 0.04633814 -0.0023225828 0.014052998 -0.22735396 0.0636673 0.10261826
0.029973734 -0.09880574 -0.11168553 0.1154891 -0.11801589 0.07084893 -0.12110612 -0.03718908
-0.05137657 -0.06741819 -0.13665546 0.1012684 0.0010648092 -0.06379912 0.032684762 -0.11454343
0.0058805305 -0.024999054 0.020244233 -0.017131712 -0.15292814 -0.13859195 -0.010332469 0.1690066
-0.035038285 -0.037094172 0.06678082 -0.0042571397 -0.011219778 -0.107619114 -0.091165684 -0.21363708
0.09350959 -0.034119908 0.048340984 0.07529822 -0.12643114 0.0024340611 -0.16535856 0.07872936
-0.17671648 -0.112084046 -0.08447138 -0.05913029 -0.15601002 -0.010152709 -0.018115154 0.05991134
0.043353222 0.03177559 0.17528513 0.07755161 0.14153518 -0.14394861 0.04060369 -0.09585474
0.15398844 0.04957445 -0.10992754 -0.15900917 0.035390522 0.0020259523 0.016565233 -0.110471144
0.061581377 0.06973544 0.099060595 0.2702221 0.09931309 -0.024432015 -0.05964308 0.0032278297
0.10587584 0.15791443 -0.10891356 -0.06440032 -0.006033835 0.046919398 -0.090272814 0.04764888
0.023117136 -0.04244125 0.05164696 -0.005671114 -0.22933641 0.029835846 0.043018218 0.10032994
0.004260179 0.092996284 -0.10968715 -0.19499935 -0.03936921 -0.075110115 -0.16646118 -0.0019211028
-0.07639716 -0.1720426 0.1557555 -0.15905352 0.05351602 -0.14497195 0.12290747 -0.0073282197
0.06878081 -0.046167735 -0.010405605 -0.02096478 0.11907001 -0.27407447 -0.051315676 0.048980232
-0.061411545 -0.11503641 0.06265612 -0.14638549 0.03754497 -0.18265595 0.0717148 -0.016961072
-0.09092136 0.0005997731 0.106827825 -0.042825192 -0.26877028 0.035822213 -0.2765935 -0.08666756
-0.0010125837 0.073414944 0.06441935 -0.045053985 0.13864194 -0.31848156 0.025589535 0.07332885
0.020250278 -0.1919695 0.07763485 -0.25147092 0.071976595 0.15357576 0.15535945 0.060400035
-0.2679934 -0.15919282 -0.30751088 -0.19441527 0.11314472 0.12515993 -0.07187617 0.04554028
-0.21740195 0.068525255 0.019387044 -0.039168704 -0.29638857 0.00090907677 0.2129018 0.15734856
0.008932782 -0.19123644 0.11348606 -0.25731748 0.08951526 -0.19127204 0.117464386 -0.16535388
0.0010699353 -0.17267494 0.025252204 0.13920815 0.100640595 -0.25850222 0.02733337 -0.20772406
-0.0012505758 -0.03077592 0.031051358 0.0035411906 0.1420973 0.14751638 -0.24586439 0.008096456
0.12446302 0.04522976 -0.061004788 0.09687175 -0.13598447 0.1767959 -0.15690082 -0.012571362
0.11916027 -0.16719429 -0.19905214 0.17927611 0.037569728 -0.10530269 0.11088576 -0.086458385
0.079604365 -0.09037389 -0.20233546 0.078443594 -0.24001637 -0.24684744 -0.085332364 0.10248752
0.017881313 0.111727856 -0.020199269 0.0033014806 0.13208003 0.123063475 -0.029834388 -0.10131086
-0.32649842 -0.15757258 -0.049187407 -0.0029055718 -0.21092278 0.11039203 -0.1248694 -0.28219646
-0.10564603 -0.006007882 0.10467178 -0.045498926 -0.1930882 0.1823612 -0.1290793 -0.31044367
-0.18524227 -0.2739595 -0.13616796 -0.2518658 0.13238545 -0.07581707 -0.10169754 -0.0037703528
0.01857124 0.07793519 0.11057454 0.089811645 -0.046215177 0.043734916 -0.29259205 -0.43312338
00000000: 28f7 d2bc 1504 023c 10cd 3d3d 7936 18bb
00000010: 8c3e 663c 7acf 68be 0064 823d 8629 d23d
00000020: 7a8b f53c aa5a cabd 62bb e4bd 8d85 ec3d
00000030: 51b2 f1bd 3e19 913d 7c06 f8bd 9453 18bd
00000040: 3d70 52bd 8c12 8abd 69ef 0bbe cf65 cf3d
00000050: 1191 8b3a 1da9 82bd 75e0 053d bf95 eabd
00000060: 77b1 c03b d1ca ccbc 3cd7 a53c ce57 8cbc
00000070: 3299 1cbe 0ceb 0dbe 8449 29bc 1110 2d3e
00000080: 4e84 0fbd 0ff0 17bd 62c4 883d 7a7f 8bbb
00000090: 29d3 37bc 6967 dcbd 13b5 babd aec3 5abe
000000a0: f581 bf3d 51c1 0bbd 3201 463d f435 9a3d
000000b0: 2a77 01be c584 1f3b c153 29be dc3c a13d
000000c0: 2af5 34be 528c e5bd 55ff acbd 9a32 72bd
000000d0: 17c1 1fbe 8c57 26bc 3b66 94bc 9865 753d
000000e0: 2693 313d 1f27 023d f27d 333e 61d3 9e3d
000000f0: 99ee 103e 4467 13be 0e50 263d 7d4f c4bd
00000100: 25af 1d3e 940e 4b3d b121 e1bd 4dd3 22be
00000110: a7f5 103d d7c5 043b d0b3 873c b23e e2bd
00000120: c13c 7c3d 74d1 8e3d 48e0 ca3d 8d5a 8a3e
00000130: a964 cb3d a625 c8bc 4d4c 74bd ff89 533b
00000140: 6fd5 d83d 52b4 213e 130e dfbd 51e4 83bd
00000150: 7ab7 c5bb 8e2e 403d f4e0 b8bd 792b 433d
00000160: 2660 bd3c e0d6 2dbd c38b 533d c1d4 b9bb
00000170: 2ad7 6abe 4e6a f43c df33 303d c979 cd3d
00000180: f998 8b3b d674 be3d a8a3 e0bd e9ad 47be
00000190: 9c41 21bd 55d3 99bd cd74 2abe 83cd fbba
000001a0: 1d76 9cbd ef2b 30be 5f7e 1f3e edde 22be
000001b0: 9d33 5b3d 8773 14be e9b6 fb3d 9021 f0bb
000001c0: f4dc 8c3d 611a 3dbd 457c 2abc 55be abbc
000001d0: fada f33d 7d53 8cbe 6330 52bd 7f9f 483d
000001e0: ac8a 7bbd 3698 ebbd da51 803d 14e6 15be
000001f0: c1c8 193d 290a 3bbe 36df 923d f2f1 8abc
00000200: fa34 babd 173a 1d3a 8cc8 da3d 7869 2fbd
00000210: 429c 89be 50ba 123d aa9d 8dbe c37e b1bd
00000220: acb8 84ba 935a 963d 4bee 833d 878a 38bd
00000230: 27f8 0d3e 0410 a3be 25a1 d13c 702d 963d
00000240: e9e3 a53c a793 44be 05ff 9e3d ccc0 80be
00000250: 7768 933d f742 1d3e 8c16 1f3e 0766 773d
00000260: 6e36 89be 7103 23be 1172 9dbe cc14 47be
00000270: 6bb8 e73d ed29 003e d033 93bd 7288 3a3d
00000280: 9e9e 5ebe f856 8c3d 94d1 9e3c 5d6f 20bd
00000290: 3ec0 97be 1c4f 6e3a ee02 5a3e fb1f 213e
000002a0: ce5a 123c 7cd3 43be 616b e83d 1ebf 83be
000002b0: c753 b73d d1dc 43be 2b91 f03d 8752 29be
000002c0: 123d 8c3a b3d1 30be b6dd ce3c 958c 0e3e
000002d0: a81c ce3d 675a 84be 3bea df3c 9eb5 54be
000002e0: 5cea a3ba c81d fcbc 6b5f fe3c 5213 683b
000002f0: f481 113e 890e 173e e0c3 7bbe ffa6 043c
00000300: 78e6 fe3d d742 393d 28e0 79bd b264 c63d
00000310: 833f 0bbe fc09 353e 9caa 20be 1df8 4dbc
00000320: 4d0a f43d fb34 2bbe 53d4 4bbe 2894 373e
00000330: b7e2 193d f0a8 d7bd 1318 e33d 1811 b1bd
00000340: 9d07 a33d f215 b9bd 0731 4fbe 09a7 a03d
00000350: dac6 75be 93c5 7cbe bcc2 aebd fae4 d13d
00000360: d57b 923c 93d1 e43d f078 a5bc a75d 583b
00000370: fd3f 073e b408 fc3d 3f67 f4bc 117c cfbd
00000380: cd2a a7be b55a 21be bc78 49bd 686b 3ebb
00000390: 24fc 57be 3715 e23d 87bb ffbd 0e7c 90be
000003a0: f25c d8bd c4dd c4bb 285e d63d 155d 3abd
000003b0: eab8 45be e5bc 3a3e 5d2d 04be 79f2 9ebe
000003c0: 26b0 3dbe 6b44 8cbe 9d6f 0bbe 8ef4 80be
000003d0: 0d90 073e fb45 9bbd cd46 d0bd 0618 77bb
000003e0: b722 983c 7c9c 9f3d e874 e23d 2bef b73d
000003f0: 204c 3dbd 6223 333d a0ce 95be 59c2 ddbe

net.5.bias f4 [4]
-0.14934774 0.016866758 0.021448212 0.07585385
00000000: 9dee 18be 282c 8a3c 29b4 af3c 4359 9b3d

mean f4 [1, 16]
33.421375 12.387701 13.160105 14.272651 16.45929 20.958965 28.122059 35.779137
40.99683 38.06546 29.55186 23.984825 18.933712 15.132705 12.605899 11.875455
00000000: 7daf 0542 0634 4641 ca8f 5241 c75c 6441
00000010: a0ac 8341 f6ab a741 faf9 e041 d61d 0f42
00000020: c1fc 2342 0843 1842 366a ec41 ece0 bf41
00000030: 3e78 9741 8f1f 7241 c3b1 4941 dd01 3e41

std f4 [1, 16]
14.233373 11.502169 12.672217 12.815077 13.932275 16.655273 19.713604 21.058376
23.943731 23.427204 20.77275 20.057587 17.66186 14.239157 9.763882 8.1445675
00000000: e5bb 6341 e208 3841 67c1 4a41 8e0a 4d41
00000010: 99ea 5e41 003e 8541 76b5 9d41 8e77 a841
00000020: c38c bf41 ea6a bb41 982e a641 f075 a041
00000030: 7d4b 8d41 96d3 6341 dc38 1c41 2650 0241
