controller_multilabel.pt (torch, 80721 bytes, 8 tensors)

net.0.weight f4 [128, 16]
0	0xbdaf8ca7	-0.08571749
1	0x3e917017	0.2840583
2	0xbe057834	-0.13034135
3	0xbe971a6f	-0.29512355
4	0xbe805a24	-0.25068772
5	0xbe4a9f24	-0.1978727
6	0xbdf17bb3	-0.11791172
7	0xbd8ca0d9	-0.06866617
8	0x3d09a7f7	0.03360745
9	0x3e371dfb	0.1788253
10	0xbdfe27bd	-0.12409923
11	0xbdc88352	-0.09790672
12	0x3dc4cc5c	0.09609291
13	0xbe2065b2	-0.15663794
14	0x3ce31c11	0.027723344
15	0xbe54a2c4	-0.20765215
16	0x3e7f847a	0.2495288
17	0xbe8403fc	-0.2578429
18	0xbe7e24da	-0.24818745
19	0xbe3ba9a5	-0.18326433
20	0x3c95a0b2	0.018265102
21	0x3e1aaacd	0.15104218
22	0xbe82e805	-0.25567642
23	0x3dbdd89a	0.09269829
24	0xbeabb091	-0.33533147
25	0x3e807a0b	0.2509311
26	0xbe698798	-0.22805631
27	0x3e97d7bd	0.29656783
28	0x3de3038d	0.11084662
29	0xbe0e37f4	-0.13888532
30	0x3d79478f	0.06085926
31	0xbd9331dd	-0.07187245
32	0x3ebbf8a5	0.36713138
33	0xbe15dda3	-0.14635329
34	0x3e018163	0.12647013
35	0xbc737896	-0.014860293
36	0xbe74b9ff	-0.23899077
37	0x3dd605aa	0.10450299
38	0xbdf174b0	-0.117898345
39	0xbe214243	-0.15747933
40	0xbddbf089	-0.10739238
41	0xbd916b92	-0.071005955
42	0x3e818dad	0.25303403
43	0xbd57181c	-0.052513227
44	0x3e2e2339	0.17005624
45	0x3e447e90	0.19188905
46	0x3db9e2b2	0.09076442
47	0x3bb67753	0.005568424
48	0xbea64303	-0.32473
49	0x3e04a561	0.12953712
50	0x3a8edf65	0.0010900317
51	0xbc1afa6f	-0.009459122
52	0x3e833895	0.25629106
53	0xbe233be5	-0.15940817
54	0x3df62477	0.12018674
55	0xbea6ac05	-0.32553115
56	0x3e196e4a	0.14983478
57	0x3e29698f	0.16544174
58	0xbd885c32	-0.0665821
59	0x3ec510c5	0.38489357
60	0x3e9587fa	0.29205304
61	0x3e04b2bf	0.12958811
62	0x3e223d7c	0.15843767
63	0x3e10069f	0.14065026
64	0xbe6e1145	-0.23248775
65	0x3db1c0b2	0.08679332
66	0x3e53302e	0.20623848
67	0x3ccd622b	0.025071224
68	0x3d593651	0.053030316
69	0x3e300b3f	0.1719179
70	0xbe51c388	-0.20484746
71	0x3e0be0f6	0.13660035
72	0x3e8f73fc	0.28018177
73	0x3eadbff1	0.33935502
74	0xbdeab4c9	-0.11460263
75	0xbeb7b5d2	-0.35880905
76	0x3da76601	0.081737526
77	0x3dec0727	0.11524802
78	0xbdf63ba7	-0.120230965
79	0xbe2658bc	-0.16244787
80	0xbea8eda0	-0.32993793
81	0xbd054b8d	-0.032542754
82	0xbd1846e1	-0.03717697
83	0xbd32ef8e	-0.04368549
84	0x3ddd002b	0.10791048
85	0xbacb2a07	-0.0015500196
86	0xbe00e10a	-0.12585846
87	0x3dfd0670	0.123547435
88	0xbe47bae8	-0.19504893
89	0xbe6c983e	-0.23104951
90	0xbcb2ff94	-0.021850385
91	0x3db66404	0.08905795
92	0xbe498564	-0.1967979
93	0xbce6cc05	-0.028173456
94	0x3c31d5e9	0.010854223
95	0x3e5daa90	0.21647096
96	0xbdd3b64b	-0.10337504
97	0xbd8e3d4a	-0.06945284
98	0xbd97a4c0	-0.074044704
99	0xbe245050	-0.16046262
100	0xbcf8de8e	-0.03037956
101	0x3d8a4c23	0.06752803
102	0xbe31f360	-0.17377996
103	0xbeb1e579	-0.34745386
104	0x3e9b5435	0.30337682
105	0x3bd3c5a4	0.0064627696
106	0xbb1b0ed6	-0.0023659966
107	0xbe397bac	-0.18113583
108	0xbe5cce1b	-0.21562998
109	0xbd40ccd9	-0.047070358
110	0x3dd6f920	0.104967356
111	0x3d1591b0	0.03651589
112	0x3e1d0ae8	0.15336192
113	0x3e27f641	0.16402532
114	0xbe1c47fa	-0.15261832
115	0x3e5ace36	0.21367726
116	0x3d8f2ccc	0.06990966
117	0xbdaabec8	-0.0833717
118	0xbd825513	-0.06363883
119	0x3c9553a8	0.018228367
120	0xbe4e0160	-0.20117712
121	0xbdfd48e6	-0.1236742
122	0xbd80db82	-0.06291868
123	0x3ea3af74	0.31969798
124	0xbe08a11f	-0.13342713
125	0x3d72053f	0.059087034
126	0x3dbbdad7	0.091726
127	0xbe2edfb4	-0.17077523
128	0xbdca3071	-0.09872521
129	0xbd658062	-0.05603064
130	0x3d872610	0.06599057
131	0xbe5ee6f7	-0.21767794
132	0xbe205f4a	-0.1566135
133	0x3da5f2a5	0.081029214
134	0x3dcfb521	0.101419695
135	0xbcc115a7	-0.023569895
136	0xbebfcd58	-0.37461352
137	0x3e3eb34f	0.18623088
138	0x3d2328e0	0.039833903
139	0xbde86cbc	-0.113488644
140	0xbe0002c4	-0.12501055
141	0xbe5dc29a	-0.21656266
142	0x3e7a4c58	0.24443185
143	0x3e4459d9	0.19174899
144	0x3dc36b2c	0.09541926
145	0xbd11e72f	-0.035620864
146	0x3dd7007a	0.10498138
147	0x3dcfb2d3	0.1014153
148	0x3de7bcdc	0.11315319
149	0x3db20de7	0.08694058
150	0xbe3a80d4	-0.18213207
151	0xbe7bd7eb	-0.24594085
152	0xbed2588b	-0.41083178
153	0x3e96fc1d	0.29489222
154	0xbd72e588	-0.05930093
155	0xbe7d3f74	-0.24731237
156	0x3df0191b	0.117235385
157	0x3e430668	0.19045413
158	0x3e5eb5b3	0.21749
159	0xbe052fc0	-0.13006496
160	0xbe96a8d8	-0.29425693
161	0x3e158c30	0.14604259
162	0x3e18a0b3	0.14905052
163	0xbcedd56a	-0.029032428
164	0x3e6fe251	0.23426177
165	0xbe3fb4a7	-0.18721257
166	0x3e6cfb4c	0.23142737
167	0xbcef1cdb	-0.029188564
168	0x3ed70345	0.41994682
169	0x3d338b13	0.043833803
170	0x3e346ec0	0.17620373
171	0x3e38ed7e	0.18059346
172	0xbeb5e60e	-0.3552708
173	0xbdffc29e	-0.12488292
174	0xbdaaa86e	-0.08332907
175	0x3e57fadc	0.21091789
176	0xbd50f814	-0.051017836
177	0x3d48998c	0.04897456
178	0xbdaff909	-0.085924216
179	0x3d8f60d8	0.07000893
180	0xbe39a2a1	-0.18128444
181	0x3e0858a7	0.13315068
182	0xbe2ce997	-0.16885982
183	0x3d073fc5	0.0330198
184	0xbd4f30b9	-0.050583575
185	0xbe7b34c3	-0.24531846
186	0xbe767834	-0.24069291
187	0xbe46fcb3	-0.19432335
188	0xbd65b894	-0.05608423
189	0x3dea5cab	0.11443456
190	0xbe050a2a	-0.12992159
191	0x3e09d3f9	0.13459767
192	0xbdfeec3c	-0.12447402
193	0x3e23061b	0.15920298
194	0x3dd6c7d1	0.10487331
195	0xbd88109e	-0.066437945
196	0xbd80b1cf	-0.06283914
197	0x3d70e2cd	0.058810044
198	0x3d2f90c2	0.04286266
199	0x3dc650b6	0.09683363
200	0x3f02a22a	0.5102869
201	0xbe1bbbb7	-0.15208326
202	0xbdd73d3d	-0.10509727
203	0xbebef213	-0.37294063
204	0xbec370b5	-0.38171926
205	0xbe62c3c5	-0.22144993
206	0x3de24c87	0.11049753
207	0x3e55c71d	0.20876737
208	0x3c28bb39	0.010298544
209	0x3e1ac59b	0.15114443
210	0x3dd52e1f	0.104091875
211	0xbd1e0291	-0.038576666
212	0x3e0a4e58	0.13506448
213	0xbc14248e	-0.009041918
214	0x3d6e54ce	0.058186345
215	0x3eb63269	0.35585335
216	0x3e724845	0.23660381
217	0x3ea0d477	0.31412098
218	0x3dfa04e9	0.12207968
219	0xbd245e7e	-0.040129177
220	0xbdb7d287	-0.08975702
221	0xbd4e96b5	-0.050436694
222	0x3e94f40f	0.29092452
223	0x3e9bc388	0.30422616
224	0xbe94fe01	-0.2910004
225	0x3bcf22df	0.0063212956
226	0xbc3c796d	-0.01150356
227	0x3d8b3de7	0.06798916
228	0x3d49bf14	0.049254492
229	0x3ed4871b	0.41509327
230	0xbd5eb135	-0.054368217
231	0xbd57f27b	-0.05272148
232	0x3df48976	0.11940281
233	0x3e85472b	0.2603086
234	0x3e090d73	0.13384037
235	0x3d4bd71c	0.04976569
236	0x3d467639	0.04845259
237	0x3da7d7f7	0.08195489
238	0xbe885a91	-0.26631597
239	0xbed18fa9	-0.40929917
240	0xbe8049a9	-0.25056198
241	0x3e72362b	0.23653476
242	0x3e8997be	0.26873583
243	0xbe7e71a7	-0.24848042
244	0x3e81d3a3	0.25356779
245	0xbd96d654	-0.073650986
246	0x3dd7c20b	0.10535058
247	0x3d6f23c6	0.058383726
248	0x3eaa1a8a	0.33223373
249	0xbe143c22	-0.14476064
250	0x3d38578c	0.045005366
251	0x3e205b34	0.15659791
252	0xbe22f0bb	-0.15912144
253	0x3e117ab4	0.14206964
254	0xbe10b5d0	-0.14131856
255	0xbe8be293	-0.273213

net.0.bias f4 [128]
0	0x3ea08584	0.31351864
1	0xbe8e8b38	-0.2784059
2	0xbda94819	-0.08265705
3	0xbe1b0730	-0.1513946
4	0x3e539a4e	0.20664331
5	0xbe6a8034	-0.22900468
6	0x3dc334f2	0.09531583
7	0x3e7f0cfa	0.24907294
8	0xbdb1eb3e	-0.08687447
9	0xbe30725c	-0.17231125
10	0x3e0433c6	0.12910375
11	0x3dff1f18	0.124571025
12	0xbc9ea9b4	-0.01936803
13	0x3e7ec8cf	0.2488129
14	0xbe075178	-0.13214672
15	0xbdb82872	-0.08992089
16	0xbd730ae6	-0.059336565
17	0xbd375610	-0.04475981
18	0xbe02b7e3	-0.1276546
19	0x3d326f24	0.043563023
20	0xbdc57d18	-0.09643
21	0x3e506952	0.20352677
22	0xbe380e4d	-0.17974205
23	0xbe6972ba	-0.22797671
24	0xbe896800	-0.26837158
25	0xbe2f5c06	-0.17124948
26	0xbd3f3f4a	-0.046691217
27	0x3c3a44be	0.0113689285
28	0xbc08ea6e	-0.008356674
29	0xbd58999b	-0.052880865
30	0xbe14dc63	-0.14537196
31	0x3cbf4ea3	0.023352927
32	0xbd4d3ed6	-0.050108753
33	0x3e2a5ab1	0.16636159
34	0xbe34e98f	-0.1766722
35	0xbeb7cf1e	-0.35900205
36	0xbbe1578a	-0.0068768905
37	0xbd942532	-0.07233657
38	0x3e92cd32	0.28672177
39	0xbd8b8ac5	-0.068135776
40	0xbe8778f9	-0.26459482
41	0x3d0f1944	0.034936205
42	0xbd85f049	-0.065399714
43	0xbe99ea6f	-0.3006167
44	0xbe8b01be	-0.27149767
45	0x3d153da8	0.036435753
46	0xbe0defda	-0.13861027
47	0x3d6fe8f9	0.05857179
48	0xbdc8e635	-0.098095335
49	0x3db7cbd6	0.089744255
50	0xb79cadb5	-1.8677538e-05
51	0xbe526401	-0.20545961
52	0x3e4c7cbb	0.19969456
53	0x3ea6fced	0.32614842
54	0x3dc9110d	0.09817705
55	0xbe84039f	-0.25784013
56	0x3de14946	0.11000304
57	0xbdada7cd	-0.08479271
58	0xbea83506	-0.32852954
59	0x3e74a2a8	0.23890173
60	0x3e0bded3	0.1365922
61	0x3e9a3a14	0.30122435
62	0x3e3aff85	0.18261535
63	0x3df0c278	0.11755842
64	0xbe50502c	-0.20343083
65	0xbe915c71	-0.2839084
66	0xbe0696f4	-0.13143522
67	0x3e0ab249	0.13544573
68	0xbd3d4ef3	-0.04621787
69	0xbd315c71	-0.04330105
70	0x3d5b5bf7	0.0535545
71	0x3e23e8d8	0.16006792
72	0x3ddb0473	0.10694208
73	0xbcfe74c9	-0.031061547
74	0xbecc5402	-0.39907843
75	0x3cec0bcf	0.028814225
76	0x3e60478b	0.21902291
77	0xbd3c2532	-0.04593391
78	0x3dbec233	0.09314384
79	0x3e07f5fa	0.13277426
80	0x3e232612	0.15932491
81	0xbdb201f0	-0.08691776
82	0xbd3aa69c	-0.045569047
83	0x3da6e75c	0.08149597
84	0x3cabc90d	0.020969892
85	0x3d92aa01	0.07161332
86	0x3d82700e	0.06369029
87	0xbe87f375	-0.2655293
88	0x3ea04135	0.3129975
89	0xbe438bd3	-0.19096307
90	0xbd71b7d9	-0.05901322
91	0x3e77c88a	0.24197593
92	0x3e50bcd6	0.20384535
93	0x3de986b1	0.114026435
94	0x3e1d89c6	0.15384588
95	0x3eabd570	0.33561277
96	0x3bd5f7a0	0.0065297633
97	0x3e5fbc47	0.21849166
98	0xbed1b9c5	-0.40962043
99	0x3e48f3fb	0.19624321
100	0xbdeca74c	-0.11555347
101	0xbdef8d71	-0.116969
102	0x3e81d325	0.25356403
103	0x3d7dad69	0.061932955
104	0xbd60c0c0	-0.05487132
105	0xbdb2fe13	-0.08739867
106	0x3d420357	0.047366466
107	0x3e166adc	0.14689201
108	0x3bddff77	0.0067748385
109	0x3b44ca40	0.0030027777
110	0x3e9f8c79	0.3116186
111	0x3bbf12ef	0.0058311145
112	0xbd78411c	-0.06060897
113	0x3e33eb87	0.17570315
114	0x3e110a9f	0.14164208
115	0xbe82b3bf	-0.2552776
116	0xbe17e20b	-0.14832322
117	0x3e9ac7d9	0.30230597
118	0x3e5eb329	0.21748032
119	0xbe587df0	-0.21141791
120	0x3e177739	0.14791574
121	0xbd59e092	-0.053192683
122	0x3d09957a	0.033589818
123	0x3e880f90	0.26574373
124	0xbcdd9cc5	-0.027052293
125	0xbe998dc6	-0.29990977
126	0xbe845b9e	-0.25851148
127	0x3e9e339e	0.30898756

net.2.weight f4 [128, 128]
0	0x3d8a1213	0.06741729
1	0x3da344fc	0.07972142
2	0x3d0339c0	0.032037497
3	0xbd256f25	-0.0403892
4	0xbce277d7	-0.027645035
5	0x3beefdbc	0.007293431
6	0xbdbc70e5	-0.092012204
7	0xbd54eb4e	-0.051982217
8	0xbda539b5	-0.08067647
9	0xbd9f8c72	-0.0779046
10	0xbdab45f8	-0.08362955
11	0x3cd10dfa	0.02551936
12	0xbdf29df3	-0.11846533
13	0x3cd42ca0	0.025900185
14	0xbd9140f0	-0.07092464
15	0x3d919d83	0.07110121
16	0xbcc13988	-0.023587003
17	0xbb0f1249	-0.0021830967
18	0xbe201f07	-0.15636836
19	0xbdef3e24	-0.11681774
20	0x3daf83ba	0.08570047
21	0xbd31514b	-0.043290418
22	0x3dad9da4	0.08477333
23	0x3da5287c	0.080643624
24	0x3d51fcfb	0.05126665
25	0x3dc173a6	0.09445886
26	0x3e4c6ad0	0.1996262
27	0x3db56bf7	0.08858483
28	0xbc4b2fb0	-0.012401506
29	0xbce60cf5	-0.02808235
30	0x3e20b783	0.15695004
31	0x3e027796	0.12740931
32	0x3d5ac077	0.053406205
33	0xbce5865c	-0.02801817
34	0xbcc75fd7	-0.024337692
35	0x3e0ffb4a	0.14060703
36	0x3cc249d9	0.023716854
37	0xbba0d0d7	-0.004907708
38	0xbd8194ba	-0.063271955
39	0xbdd88438	-0.10572094
40	0xbd054310	-0.03253466
41	0xbe4442ef	-0.19166158
42	0x3cfc6df9	0.030814158
43	0x3defe3a5	0.117133416
44	0x3e0abf81	0.13549615
45	0xbd58d7ac	-0.052940056
46	0x3e3844c6	0.17994985
47	0x3dfd9438	0.12381786
48	0xbe0b879e	-0.13625953
49	0x3be8338d	0.0070862235
50	0x3da13865	0.078720845
51	0x3e13dc5f	0.14439534
52	0xbc2b368a	-0.010450015
53	0xbd51baac	-0.051203415
54	0xbd343eb7	-0.044005122
55	0xbe35ee4a	-0.17766681
56	0x3b5b108e	0.0033426615
57	0xbd886b01	-0.066610344
58	0xbe005aa3	-0.12534575
59	0xbdba1cd3	-0.09087529
60	0x3dde724d	0.10861645
61	0xbd916f91	-0.07101358
62	0xbcfdb989	-0.03097226
63	0x3d5d30a1	0.054001454
64	0x3d9d2bb7	0.076743536
65	0xbd43a07a	-0.047760464
66	0xbd51d2f7	-0.051226582
67	0xbc978258	-0.01849477
68	0x3da839a5	0.0821412
69	0x3d8acb79	0.067770906
70	0x3d884995	0.0665466
71	0x3c0329cc	0.008005571
72	0xbd707cf1	-0.058712903
73	0x3d094ced	0.033520628
74	0x3cfa5474	0.030557849
75	0xbd8dbdfa	-0.06921001
76	0x3c9579aa	0.01824649
77	0xbbaab92a	-0.0052100616
78	0x3e02614b	0.12732427
79	0xbd272599	-0.04080734
80	0x3c8ed224	0.017434187
81	0x3daec825	0.08534268
82	0xbdaa4a04	-0.083148986
83	0xbda7c332	-0.081915274
84	0xbe010835	-0.12600787
85	0xbca175d8	-0.019709513
86	0xbd2fc107	-0.042908695
87	0x3e123f86	0.14282045
88	0xbc9b12a8	-0.018929794
89	0x3dd4c07a	0.103882745
90	0xbd8ef948	-0.069811404
91	0xbda88770	-0.08228958
92	0x3ca83b23	0.020536011
93	0xbd0f5b23	-0.034999024
94	0xbdad34fb	-0.08457371
95	0x3cf116e9	0.02942987
96	0xbd5eb76b	-0.05437414
97	0xbd9bba59	-0.07603902
98	0xbd211bba	-0.039333083
99	0x3da8e940	0.08247614
100	0x3dae396a	0.085070446
101	0xbdb347af	-0.08753907
102	0x3d8f2129	0.06988747
103	0x3d7bcb10	0.061472952
104	0xbcf2c3c7	-0.02963437
105	0x3d5dc0f7	0.054139104
106	0xbc424001	-0.01185608
107	0x3d722fe4	0.059127703
108	0x3dcb4f9a	0.09927292
109	0x3bce353c	0.006292967
110	0xbd848f5b	-0.064726554
111	0x3e244301	0.16041185
112	0xbdad7a84	-0.084706336
113	0x3baaee0f	0.005216367
114	0x3d1daa5e	0.038492553
115	0x3cdbb9d8	0.026822016
116	0xbe03e5fa	-0.12880698
117	0xbd7cb4c1	-0.061695818
118	0x3d2b52f0	0.041827142
119	0x3d79b48a	0.06096319
120	0x3df8e158	0.12152356
121	0x3e036977	0.128332
122	0x3daadf91	0.08343423
123	0xbc0109d9	-0.007875883
124	0x3df10102	0.1176777
125	0xbe0c352e	-0.13692161
126	0x3e0f91e6	0.140205
127	0x3d24975e	0.040183417
128	0x3db4fc7a	0.088372186
129	0x3e900faa	0.2813695
130	0xbdce41ec	-0.10071167
131	0x3cf4c2a3	0.029877966
132	0xbb47d882	-0.003049404
133	0x3c551712	0.013005989
134	0xbd12fbc8	-0.03588465
135	0xbd102e08	-0.03520015
136	0x3d9910e7	0.07473927
137	0x3d4a4f49	0.04939202
138	0x3e142888	0.14468586
139	0x3d857b74	0.065176874
140	0x3ce70054	0.028198399
141	0x3dd85f52	0.10565056
142	0x3dfab49e	0.12241481
143	0x3e2208e7	0.15823708
144	0xbdd47ec3	-0.103757404
145	0xbcfbf5f7	-0.030756934
146	0xbe16797b	-0.14694779
147	0xbd3ac9a4	-0.045602456
148	0x3e1179d9	0.14206637
149	0xbdebe607	-0.115184836
150	0x3d623bce	0.055232815
151	0x3e3a87b4	0.18215829
152	0x3e281090	0.16412568
153	0x3e65ce8d	0.22442074
154	0x3e0df5c9	0.13863291
155	0x3e1688d4	0.14700633
156	0x3c2c4956	0.0105155315
157	0xbcf2960d	-0.029612565
158	0x3d87f52f	0.06638562
159	0x3e3bcacb	0.18339078
160	0xbcb43e3a	-0.022002328
161	0x3cb62f3a	0.022239316
162	0x3e15fbf5	0.14646895
163	0x3c79a510	0.015237108
164	0x3d82dc9b	0.063897334
165	0x3cd47345	0.025933871
166	0xbd36777e	-0.04454755
167	0xbd504844	-0.050850168
168	0xbd70b013	-0.058761667
169	0x3d0d4501	0.034489635
170	0xbd929c60	-0.071587324
171	0x3d8f295e	0.06990312
172	0x3eba90c8	0.36438584
173	0x3c80e999	0.015736388
174	0x3e078793	0.13235311
175	0xbd1ed863	-0.03878058
176	0x3c31ed1e	0.010859756
177	0xbc302b05	-0.010752444
178	0xbdfe946c	-0.12430653
179	0x3d5ead74	0.054364637
180	0x3cb36c60	0.021902263
181	0xbd992f14	-0.074796826
182	0x3df4d460	0.1195457
183	0xbdf1273a	-0.1177506
184	0x3cb82e89	0.022483127
185	0x3c5b9bf1	0.013403879
186	0x3d8b1dfd	0.06792829
187	0xbd3d5799	-0.046226118
188	0x3da40caf	0.08010232
189	0x3d9d4111	0.07678426
190	0x3da666a7	0.08125048
191	0x3d212f48	0.03935173
192	0x3d7b453e	0.06134533
193	0x3c01b7a5	0.007917319
194	0xbcc1877f	-0.02362418
195	0x3d493911	0.04912669
196	0x3d2a1790	0.041526377
197	0xbe2cc151	-0.1687062
198	0x3d31d0b2	0.043411918
199	0xbcbf66de	-0.02336448
200	0xbc311acb	-0.010809611
201	0x3d84500e	0.06460582
202	0x3e0678fc	0.1313209
203	0xbd75ca6c	-0.060007498
204	0xbd29067a	-0.041265942
205	0x3d734ec2	0.05940128
206	0x3e410810	0.18850732
207	0x3ae0f471	0.0017162693
208	0x3dfb3598	0.122660816
209	0x3da0131c	0.07816145
210	0xbc8b8ea8	-0.017035797
211	0x3d6ee800	0.05832672
212	0xbd32a54c	-0.04361467
213	0x3b87b9b2	0.0041420097
214	0xbc7dca98	-0.015490197
215	0x3d45a6fd	0.048254956
216	0xbe1b3379	-0.15156354
217	0x3e0192ce	0.12653658
218	0xbd16d5b9	-0.036824916
219	0xbca72846	-0.020404946
220	0x3caef969	0.021359162
221	0xbde2a0d3	-0.11065831
222	0x3ceeacee	0.029135194
223	0x3cbd55ac	0.02311214
224	0xbbb693a4	-0.0055717994
225	0x3c977027	0.018486096
226	0x3db5d517	0.08878534
227	0x3b212f3d	0.0024594807
228	0xbcccffa0	-0.025024235
229	0xbe04ecbd	-0.12980933
230	0xbd084fe4	-0.033279315
231	0x3d20cb72	0.03925652
232	0x3c889cc6	0.016676318
233	0xbc2a5122	-0.01039532
234	0xbd230d92	-0.039807864
235	0x3cb604f6	0.022219162
236	0xbe06e9ff	-0.131752
237	0x3dfe9f62	0.124327436
238	0xbd550ad3	-0.052012276
239	0x3d1c00ac	0.03808658
240	0x3e04d0aa	0.12970224
241	0x3ca78a97	0.020451827
242	0x3d8bdcb5	0.06829206
243	0x3dc77283	0.09738638
244	0xbd5d8526	-0.05408206
245	0x3b64dd2b	0.0034921865
246	0xbdbdc63f	-0.09266328
247	0x3ddf1ed4	0.10894552
248	0x3df9c3a2	0.12195517
249	0x3dadc580	0.08484936
250	0x3dd4e724	0.10395649
251	0x3ca33821	0.019924225
252	0xbbf728a0	-0.0075426847
253	0xbd5f47cd	-0.054511834
254	0x3e0edad0	0.13950658
255	0x3d374bb2	0.044749923

net.2.bias f4 [128]
0	0x3c785fa7	0.015159524
1	0xbba46ef1	-0.005018108
2	0xbdb63f66	-0.08898811
3	0x3d460a46	0.04834964
4	0x3cc2c975	0.023777703
5	0xba57d88c	-0.0008233867
6	0x3cfb0f53	0.030646956
7	0x3c59a4bd	0.013283906
8	0x3dc4ee00	0.096157074
9	0x3c8789df	0.016545234
10	0xbe065d79	-0.13121594
11	0x3d82e5d1	0.0639149
12	0xbdb4c45d	-0.08826516
13	0x3cb0bb2f	0.021573631
14	0xba8030c0	-0.0009780154
15	0x3d4bf814	0.049797133
16	0x3c9d94a3	0.019235915
17	0x3dbf5ea0	0.0934422
18	0x3e3413a8	0.17585623
19	0xbbd37782	-0.0064534554
20	0xbc4c4b39	-0.012469106
21	0x3e35e200	0.17761993
22	0x3e1f3b84	0.15550047
23	0x3c8a6053	0.016891634
24	0xbd00da16	-0.031457983
25	0x3d842dda	0.06454058
26	0xbb3401df	-0.0027466936
27	0xbcf5aeb5	-0.029990533
28	0x3e3b42b2	0.18287161
29	0xbde4d1e2	-0.111728445
30	0x3d3c8656	0.04602655
31	0x3deb87f9	0.11500544
32	0x3cf75a09	0.0301943
33	0xbcceb097	-0.025230689
34	0xbe1c2b67	-0.15250932
35	0x3d07f2a3	0.03319038
36	0xbe34d546	-0.17659482
37	0x3dca992c	0.098924965
38	0x3c0630f0	0.008190379
39	0x3e341772	0.17587069
40	0x3e4c2a4f	0.19938014
41	0x3b3f4888	0.002918752
42	0x3e0400d4	0.12890941
43	0x3d9eb544	0.077494174
44	0xbd16bab8	-0.036799163
45	0xbd8a304e	-0.06747495
46	0xbcdee251	-0.027207525
47	0xbb83466a	-0.0040061967
48	0x3d0b6ef8	0.034041375
49	0x3dc0ee87	0.094204955
50	0x3dbeccb5	0.093163885
51	0x3dd730bb	0.105073415
52	0x3e21d608	0.15804303
53	0x3d8a8eb4	0.067655
54	0x3d771e59	0.060331676
55	0x3d83009d	0.06396601
56	0x3aca3838	0.0015428131
57	0x3dd06667	0.10175782
58	0x3d0cda15	0.034387667
59	0x3e74a7c3	0.23892121
60	0xbd9403c7	-0.07227283
61	0x3e19b10b	0.15008943
62	0xbd86fdb4	-0.06591359
63	0x3b2ca76f	0.0026344915
64	0x3e275070	0.16339278
65	0x3dc3f708	0.09568602
66	0xbc7de552	-0.015496569
67	0xbdc7620c	-0.09735498
68	0x3db616f8	0.088911
69	0x3d3875c2	0.045034178
70	0x3dc6902b	0.096954666
71	0x3e1774cb	0.14790647
72	0x3d84cd95	0.06484524
73	0x3e01cf91	0.12676837
74	0xbc5fd46d	-0.013661486
75	0x3da0f144	0.07858518
76	0x3ddd5904	0.10807994
77	0xbd0d301d	-0.034469713
78	0xbdc98dda	-0.09841509
79	0x3de44a90	0.11147034
80	0x3d8e0efb	0.06936451
81	0x3c76f3bd	0.01507276
82	0xbda32ec3	-0.079679035
83	0x3d3ff186	0.046861194
84	0xbd41cec2	-0.04731632
85	0xbde03ef4	-0.10949507
86	0x3d625ab3	0.05526228
87	0x3e02395c	0.12717193
88	0x3dbb7660	0.091534376
89	0x3e251515	0.16121323
90	0x3d24a802	0.040199287
91	0x3dacb790	0.08433449
92	0xbd917d49	-0.07103974
93	0xbc0dc323	-0.008652481
94	0xbd2f5809	-0.042808566
95	0x3d0ba010	0.034088194
96	0x3d9b0572	0.07569398
97	0xbe1fb7be	-0.15597436
98	0xbc1dbb59	-0.009627187
99	0xbe50f2da	-0.2040514
100	0x3ca384f1	0.019960852
101	0x3cdeb078	0.027183756
102	0x3b7f0eab	0.0038918655
103	0x3dc528be	0.096269116
104	0xbc49fca8	-0.012328304
105	0xbd8eaf7d	-0.069670655
106	0xbcc859d2	-0.024456892
107	0x3cab2439	0.020891296
108	0x3dadd9c1	0.08488799
109	0xbd1e8a2e	-0.038705997
110	0x3d2c7892	0.042107172
111	0x3db28856	0.0871741
112	0x3cb6f429	0.022333222
113	0xbca253ef	-0.019815413
114	0xbdaf7b2e	-0.085684165
115	0x3d884672	0.066540614
116	0x3cd9754d	0.026545191
117	0xbdec46a9	-0.11536915
118	0x3d2820ce	0.04104691
119	0xbd37a55f	-0.044835445
120	0x3d1b8a59	0.037973735
121	0x3dace942	0.08442928
122	0x3d72241e	0.059116475
123	0xbd0e5d92	-0.034757204
124	0x3d29ab08	0.041422874
125	0x3e1302d9	0.14356555
126	0xbb90c0b6	-0.004417504
127	0xbd1159a3	-0.035485875

net.5.weight f4 [4, 128]
0	0x3d474b68	0.048655897
1	0x3cc09901	0.023510458
2	0xbcc1de2f	-0.023665516
3	0xbd2a581c	-0.041587934
4	0xbda29e10	-0.07940304
5	0xbea1feb6	-0.31639642
6	0xbd8a272a	-0.06745751
7	0xbe97a6c4	-0.2961942
8	0x3d273b7d	0.040828217
9	0x3c3b9a3e	0.011450348
10	0xbc46206a	-0.012092689
11	0xbc2bdf4d	-0.010490251
12	0xbe2828ff	-0.16421889
13	0xbe1679df	-0.14694928
14	0x3d361a44	0.044458643
15	0x3bc13ae2	0.005896912
16	0xbebab0d6	-0.3646304
17	0x3db8a91c	0.0901663
18	0xbcb2e5c9	-0.021838086
19	0xbe02e6d2	-0.12783363
20	0xbcc6ec72	-0.024282668
21	0x3e142ed5	0.1447099
22	0xbe254a03	-0.16141514
23	0xbd265bd5	-0.04061492
24	0x3ce0d1c2	0.02744377
25	0xbda8ba30	-0.082386374
26	0xbab54575	-0.0013829904
27	0xbeb85900	-0.36005402
28	0x3dcdf6ed	0.10056863
29	0x3e1e8a13	0.15482359
30	0x3cd08fee	0.025459256
31	0xbe829697	-0.25505516
32	0x3d8dbed1	0.06921161
33	0xbe032bda	-0.12809697
34	0x3e3a0c21	0.1816869
35	0x3f0beffa	0.5466305
36	0xbd0aa020	-0.033844113
37	0x3ceb52f2	0.028726075
38	0xbe602f50	-0.21893048
39	0x3e2f716a	0.17133108
40	0xbeaee0dd	-0.34155932
41	0xbc966fa8	-0.018363789
42	0xbdda667f	-0.10664081
43	0xbe104f16	-0.14092669
44	0x3d6c616a	0.05771009
45	0x3d3e879a	0.04651604
46	0x3e1b0494	0.15138465
47	0xbacb53ac	-0.0015512607
48	0x3dc89523	0.097940706
49	0xbe24ca82	-0.16092876
50	0x3d3534d6	0.04423984
51	0xbe0c04eb	-0.13673751
52	0x3ccc235a	0.0249192
53	0x3eb78fc8	0.35851884
54	0x3de70b05	0.11281399
55	0xbdf02759	-0.11726255
56	0xbc053bb3	-0.008131909
57	0x3d3ef005	0.04661562
58	0xbd48f912	-0.049065657
59	0xbdb9fd0c	-0.09081468
60	0x3c83a10a	0.016068
61	0xbc21802d	-0.00985722
62	0x3d4d4eae	0.050123863
63	0xbc7a867d	-0.015290854
64	0x3d725bed	0.0591697
65	0xbd491c8d	-0.049099494
66	0xbcfc40f3	-0.030792689
67	0x3d8109c3	0.0630069
68	0x3d06e477	0.032932725
69	0xbd91561e	-0.07096504
70	0xbdc6afa5	-0.0970147
71	0xbcae7d4a	-0.021299977
72	0xbd27e6e6	-0.040991686
73	0xbac9db51	-0.0015400444
74	0xbdef51af	-0.11685502
75	0x3e0ed8ba	0.13949862
76	0xbe3d0490	-0.18458772
77	0x3d16cdc0	0.036817312
78	0x3ebac455	0.36477914
79	0xbe341f7c	-0.17590135
80	0xbba78a7f	-0.0051129456
81	0xbda56c70	-0.080773234
82	0xbe59bb5a	-0.21262875
83	0x3db78a7a	0.08961959
84	0x3e019518	0.12654531
85	0xbe56a298	-0.20960462
86	0xbe10eae0	-0.14152098
87	0xbe22930b	-0.15876405
88	0x3dd2bc63	0.10289838
89	0xbe655076	-0.22393975
90	0xbc21d7d1	-0.009878115
91	0xbda93bb8	-0.082633436
92	0x3cec47f5	0.028842906
93	0x3c83d0da	0.0160908
94	0x3d0632a3	0.032763135
95	0x3d4e8cba	0.050427176
96	0xbd69560b	-0.056966823
97	0x3da6eafa	0.08150287
98	0xbd45e1fb	-0.048311215
99	0x3c9a3aea	0.01882692
100	0x3db1ed75	0.086878695
101	0x3e3658cc	0.17807311
102	0xbd5f6bbb	-0.0545461
103	0xbd945139	-0.072420545
104	0xbd36b87a	-0.044609524
105	0x3e175b33	0.14780883
106	0x3d32464f	0.043524083
107	0xbdfee902	-0.124467865
108	0x3c8307ea	0.015994985
109	0x3d3d6836	0.04624196
110	0xbeaa98d2	-0.33319718
111	0x3d8e44bf	0.06946706
112	0xbea7c258	-0.3276546
113	0xbe453eb3	-0.19262199
114	0xbcf134ae	-0.029444065
115	0xbe0387f0	-0.12844825
116	0xbec23620	-0.3793192
117	0xbe066877	-0.13125788
118	0x3d24e40b	0.04025654
119	0xbcb74dee	-0.022376027
120	0xbdc1d0cc	-0.09463653
121	0xbba7ed9f	-0.005124762
122	0x3e1dc3db	0.15406744
123	0x3a9e7719	0.0012089937
124	0xbd7d45ff	-0.06183433
125	0x3dd8ce1b	0.105861865
126	0x3dbffc0f	0.09374248
127	0xbd9bac56	-0.0760123
128	0xbe1c6ea5	-0.15276583
129	0xbe80caef	-0.25154826
130	0xbe66c35c	-0.22535461
131	0x3db5db77	0.0887975
132	0xbcc67b4d	-0.024228716
133	0x3de0aa36	0.10969965
134	0xbd4bc26c	-0.049745962
135	0x3dafe723	0.08589008
136	0xbcc40083	-0.023926025
137	0xbe8eec59	-0.27914694
138	0xbe43c320	-0.19117403
139	0x3e003646	0.12520704
140	0xbe646d8c	-0.22307414
141	0xbe04aa80	-0.12955666
142	0xbea3583c	-0.31903255
143	0xbeb16cb3	-0.34653243
144	0x3de33bbb	0.11095377
145	0x3cde32a0	0.02712375
146	0x3e51f054	0.20501834
147	0x3df1a9c6	0.1179996
148	0x3e3c4c55	0.18388493
149	0xbcecdd7a	-0.028914202
150	0x3e214e6d	0.15752573
151	0xbce44845	-0.027866492
152	0xbe834c4d	-0.2564415
153	0x3e0a063d	0.13478942
154	0xbb8fe02b	-0.0043907366
155	0xbe2e2901	-0.17007829
156	0x3dc38dec	0.09548554
157	0xbe36d42f	-0.17854379
158	0xbe699c76	-0.22813591
159	0x3d9f7c96	0.07787435
160	0x3e517654	0.20455295
161	0xbd88311e	-0.06649993
162	0xbea3a9f3	-0.31965598
163	0x3d539614	0.051656798
164	0x3d004403	0.03131486
165	0x3c812b2f	0.015767662
166	0x3e9183fe	0.28421015
167	0x3e1a2dd5	0.15056546
168	0x3e057c5d	0.13035722
169	0xbe17d8dd	-0.1482882
170	0x3ddf656d	0.10908017
171	0x3e886a8e	0.26643795
172	0xbe073c69	-0.13206638
173	0xbed51431	-0.41616967
174	0x3d12caf4	0.035838082
175	0x3ced9a7c	0.029004328
176	0x3ce2f514	0.027704753
177	0x3da4a99a	0.080401614
178	0xbe8063df	-0.25076196
179	0x3dc69466	0.096962735
180	0x3d8daaf7	0.069173746
181	0x3e54814c	0.20752448
182	0x3e326c55	0.17424138
183	0x3c9d92e3	0.01923508
184	0xbe6f1e57	-0.23351417
185	0xbd173188	-0.03691247
186	0xbda81fd2	-0.08209194
187	0x3bdc8314	0.006729493
188	0xbe8dd6b7	-0.27702877
189	0x3e295d0d	0.16539402
190	0xbe1e0808	-0.15432751
191	0xbdfd1eaa	-0.12359364
192	0x3e0660be	0.13122842
193	0x3ddaa64c	0.1067625
194	0x3d28bc6f	0.04119533
195	0xbe935620	-0.28776646
196	0xbe6f6760	-0.23379278
197	0xbe087f97	-0.13329922
198	0x3e6d9673	0.23201923
199	0x3e61f16a	0.22064748
200	0xbd2a8fa0	-0.041640878
201	0xbe920716	-0.2852103
202	0xbebf6405	-0.37380996
203	0x3d496c77	0.049175706
204	0xbb9368a8	-0.00449856
205	0xbe61cfc2	-0.2205191
206	0xbdeafaba	-0.114736035
207	0x3e0725c7	0.13198005
208	0x3e147296	0.14496836
209	0x3c8809c4	0.01660622
210	0xbd081c78	-0.033230275
211	0x3e02d5f5	0.1277693
212	0x3de74183	0.11291792
213	0xbe381706	-0.17977533
214	0x3dabd584	0.08390334
215	0x3e1b29f7	0.15152727
216	0x3e2654c1	0.16243269
217	0x3e634629	0.22194733
218	0xbe7b6b94	-0.24552757
219	0x3e09814e	0.13428232
220	0xbe991d91	-0.2990537
221	0xbecebd62	-0.40378863
222	0xbea6bb2f	-0.32564685
223	0x3e3788d9	0.17923297
224	0xbcd0eb48	-0.025502816
225	0xba9ab772	-0.0011803939
226	0x3e219eeb	0.15783279
227	0xbe656ef4	-0.22405607
228	0xbdbebfb7	-0.093139105
229	0xbd77fe12	-0.060545035
230	0xbe38a1aa	-0.1803042
231	0x3c17ed7a	0.009272927
232	0xbed6f585	-0.41984192
233	0xbde0b8c0	-0.10972738
234	0xbc32c3f4	-0.010910977
235	0x3e15a367	0.14613114
236	0x3e762c06	0.24040231
237	0xbe9386bd	-0.28813735
238	0x3dcc46fb	0.09974476
239	0xbd12896e	-0.035775594
240	0x3dd8c087	0.10583597
241	0xbd86f80f	-0.06590282
242	0xbe83c280	-0.2573433
243	0xbd1665ad	-0.03671806
244	0x3db3824c	0.087650865
245	0xbcdc7f31	-0.026916118
246	0xbe5c2119	-0.21497001
247	0xbe82c8db	-0.25543866
248	0x3e38c05b	0.18042128
249	0xbd8b5108	-0.06802565
250	0x3d833243	0.06406071
251	0x3ad3c49a	0.0016156614
252	0xbc824c6c	-0.015905581
253	0xbc6dbf12	-0.014510887
254	0x3d5387e9	0.051643286
255	0xbc82e311	-0.015977414

net.5.bias f4 [4]
0	0xbad40c7c	-0.0016178037
1	0xbcaa1fce	-0.020767119
2	0x3c9b6042	0.018966798
3	0x3db08995	0.08619992

mean f4 [1, 16]
0	0x41e6432f	28.782804
1	0x413deec7	11.870795
2	0x41457ee8	12.343483
3	0x415e4ec4	13.89423
4	0x4182108e	16.258083
5	0x41a01284	20.00904
6	0x41d8bf6a	27.093464
7	0x42108c5a	36.137062
8	0x4231d474	44.457474
9	0x422bfb48	42.99539
10	0x4204b9ec	33.181564
11	0x41bbff7a	23.499744
12	0x4188011b	17.00054
13	0x41594898	13.580223
14	0x414146c6	12.079779
15	0x413f4f7b	11.956904

std f4 [1, 16]
0	0x414699f9	12.412591
1	0x411d6363	9.836764
2	0x411fc205	9.984868
3	0x4134e608	11.30616
4	0x415238ce	13.138868
5	0x41688d70	14.534531
6	0x4192d4f1	18.353975
7	0x41a16cbc	20.178093
8	0x41bb87c1	23.441286
9	0x41b7d889	22.98073
10	0x41ada7e4	21.706978
11	0x4197d0b7	18.976912
12	0x41637962	14.217134
13	0x4121ad38	10.10479
14	0x4100e8b4	8.056812
15	0x4119ce7b	9.61291
