controller_multilabel_fini_tour_pixel.pt (torch, 10833 bytes, 8 tensors)

net.0.weight f4 [32, 16]
0.43085 0.17243911 -0.21147251 -0.09584118 0.08079926 0.06725148 -0.73334056 0.07090342
1.0566971 -0.9455771 -0.20563099 0.005253428 -0.02571699 -0.0053081564 0.020077521 0.09754667
0.54537696 0.03234658 -0.0061642826 -0.031117681 0.07686567 0.4393169 -0.14317107 -0.425252
0.19484267 0.098915726 -0.08378877 0.030520223 -0.25787225 0.091519825 -0.3787968 0.21703817
0.3614884 0.065642774 -0.03571411 -0.015288847 -0.045064963 0.086158246 -0.33180514 -0.7626212
0.8641191 0.12716027 0.14411612 -0.9171141 -0.7681487 0.21103317 0.37751883 -0.3777987
-0.10283551 0.5071282 -0.05786111 0.10377725 -0.060643017 -0.22968416 -0.08110038 -0.40144524
-0.037413992 0.024429744 -0.5690466 0.22087799 -0.07607426 0.27904236 -0.6193941 0.050231863
0.14533831 0.09992479 -0.004050742 0.0916787 -0.2490401 -1.0440358 0.35495076 0.08047073
0.8162981 -0.101413056 -0.38414356 -0.2508684 -0.14172609 0.030865408 -0.0475535 0.20913374
-0.51714164 -0.0016206154 0.26327613 0.23295766 0.07907229 0.05601353 -0.18961398 0.39007086
0.33733532 -0.3018094 -0.1780076 -0.22999935 0.3387461 -0.20262411 0.06562503 0.05638098
-0.3202684 0.082652114 0.10134518 0.01289853 -0.33026484 0.396529 -0.10532894 -0.34100562
-0.035476044 0.22050625 -0.05978036 0.028584588 -0.19837642 0.038886085 0.53402144 0.033802748
-0.070171475 -0.47158536 -0.4912877 -0.08339003 0.22240348 -0.16336806 0.014388096 -0.016626036
0.07571818 -0.2640611 0.18203104 0.23081759 -0.15535441 -0.007820842 0.20149012 -0.30405128
-0.31255043 0.04496192 -0.013880766 -0.10009841 0.015083966 -0.107521206 -0.046048347 -0.4801119
0.15176068 0.0015340406 1.0822911 0.39817673 0.22092043 -0.6465827 -0.23333178 -0.031236859
-0.25123975 -0.12083286 0.049188238 0.022157801 0.024216006 0.045944743 1.0647789 0.11082644
-0.63051236 -0.19091094 0.32940057 -0.27521846 -0.0725163 -0.09709061 0.015839215 -0.033782076
0.59578604 0.047715604 -0.018106606 0.04779362 -0.051532675 -0.030469377 -0.20364857 -1.2057202
0.70200896 0.34608394 -0.09057395 -0.102630526 -0.3258894 0.24526058 -0.2759644 0.23539943
0.7775585 0.021744687 0.040979907 0.039116323 -0.03143243 -0.06990004 -0.17135473 -0.27918065
-0.23161533 -0.3569253 -0.26159135 -0.059260134 0.0076180864 0.014535819 0.08194437 0.0582058
0.33386227 0.10257764 0.049728524 -0.16282101 0.19239263 0.026450757 0.38390574 0.26552323
0.28731832 -0.55122346 0.5272376 -0.113053165 -0.038337298 0.022994217 -0.12726194 -0.61272794
-0.28949702 -0.106219694 0.4000841 0.7347952 0.009178732 0.13138129 -0.3510423 0.13172174
0.11420768 -0.31375882 -0.40486434 -0.061358094 -0.32063925 0.047061495 -0.043771364 0.11516579
0.90510654 -0.31233394 -0.045503646 0.23102145 -0.10241056 -0.7937915 0.029668162 0.16645741
0.3605832 -0.48620188 -0.63021946 -0.013199165 0.15732634 0.09477355 -0.060273904 0.08727834
0.24525122 -0.025942376 0.017297355 0.023855478 -0.089254394 -0.109140046 -0.9403048 0.19886562
0.603528 0.18162987 0.5592549 -1.2990619 -0.19692078 0.036178876 -0.02250706 0.02503285
00000000: 5f98 dc3e e193 303e 408c 58be 6148 c4bd
00000010: 157a a53d 25bb 893d 35bc 3bbf d035 913d
00000020: da41 873f 5711 72bf ee90 52be f324 ac3b
00000030: 70ac d2bc 0bf0 adbb 9d79 a43c 8cc6 c73d
00000040: d39d 0b3f d97d 043d c0fd c9bb 82ea febc
00000050: c06b 9d3d 25ee e03e 709b 12be a1ba d9be
00000060: d684 473e 5494 ca3d 7299 abbd 8c05 fa3c
00000070: d507 84be bf6e bb3d a7f1 c1be 413f 5e3e
00000080: 0215 b93e b86f 863d f548 12bd 127e 7abc
00000090: 0a96 38bd bc73 b03d 5de2 a9be 253b 43bf
000000a0: e936 5d3f 4d36 023e 2d93 133e fdc7 6abf
000000b0: 65a5 44bf 1419 583e 264a c13e d56e c1be
000000c0: 6d9b d2bd 27d3 013f c5ff 6cbd 2b89 d43d
000000d0: d064 78bd 5332 6bbe f517 a6bd 3b8a cdbe
000000e0: 6a3f 19bd e320 c83c 0aad 11bf d72d 623e
000000f0: d2cc 9bbd a4de 8e3e 9d90 1ebf edbf 4d3d
00000100: 91d3 143e 5ea5 cc3d 16bc 84bb 0bc2 bb3d
00000110: 5e04 7fbe f7a2 85bf 1bbc b53e d7cd a43d
00000120: eaf8 503f a6b1 cfbd 77ae c4be d371 80be
00000130: a520 11be 74d9 fc3c 75c7 42bd 2827 563e
00000140: 6563 04bf d46a d4ba 21cc 863e 748c 6e3e
00000150: a7f0 a13d 716e 653d 2b2a 42be 5eb7 c73e
00000160: 37b7 ac3e c386 9abe a047 36be f384 6bbe
00000170: 2170 ad3e b27c 4fbe 6a66 863d beef 663d
00000180: 38fa a3be 8345 a93d 108e cf3d 5b54 533c
00000190: 7918 a9be d905 cb3e b3b6 d7bd 4a98 aebe
000001a0: 544f 11bd 64cc 613e 40dc 74bd 3a2a ea3c
000001b0: 3023 4bbe 0447 1f3d a1b5 083f c074 0a3d
000001c0: 10b6 8fbd a373 f1be 108a fbbe 64c8 aabd
000001d0: bdbd 633e f549 27be 0cbc 6b3c 5333 88bc
000001e0: 2212 9b3d 0433 87be 5866 3a3e 725b 6c3e
000001f0: 3a15 1fbe fd22 00bc 6d53 4e3e 9cac 9bbe
00000200: 9c06 a0be fd29 383d 276c 63bc 6500 cdbd
00000210: bd22 773c 1434 dcbd 319d 3cbd 3ad1 f5be
00000220: 2767 1b3e dc11 c93a 8488 8a3f d2dd cb3e
00000230: f738 623e 7286 25bf 87ee 6ebe 71e4 ffbc
00000240: 7fa2 80be 3877 f7bd 9b79 493d 4784 b53c
00000250: a560 c63c 8e30 3c3d ad4a 883f f9f8 e23d
00000260: 4269 21bf 287e 43be 31a7 a83e 6fe9 8cbe
00000270: 6d83 94bd 71d7 c6bd 3ec1 813c 135f 0abd
00000280: 6f85 183f 7071 433d 4e54 94bc 3ec3 433d
00000290: ed13 53bd ea9a f9bc 4089 50be 0a55 9abf
000002a0: dcb6 333f ea31 b13e d67e b9bd f42f d2bd
000002b0: fada a6be 9725 7b3e 354b 8dbe 8c0c 713e
000002c0: 130e 473f ea21 b23c 8cda 273d 7038 203d
000002d0: 4bbf 00bd c127 8fbd 9d77 2fbe c4f0 8ebe
000002e0: 922c 6dbe eabe b6be 4def 85be c1ba 72bd
000002f0: 24a1 f93b a527 6e3c 73d2 a73d 3469 6e3d
00000300: ffef aa3e 3a14 d23d 23b0 4b3d 8dba 26be
00000310: 9302 453e 42af d83c 4b8f c43e a9f2 873e
00000320: 631b 933e fb1c 0dbf 0bf9 063f 6b88 e7bd
00000330: 9207 1dbd 5e5e bc3c f450 02be bddb 1cbf
00000340: f438 94be b689 d9bd d3d7 cc3e 8a1b 3c3f
00000350: 6462 163c d188 063e d1bb b3be 10e2 063e
00000360: b7e5 e93d ffa4 a0be 614a cfbe a052 7bbd
00000370: d42a a4be 8ec3 403d 9a49 33bd 0bdc eb3d
00000380: 10b5 673f 3cea 9fbe 0862 3abd e390 6c3e
00000390: a1bc d1bd eb35 4bbf a50a f33c d073 2a3e
000003a0: 5c9e b83e 74ef f8be 1056 21bf 5041 58bc
000003b0: 281a 213e a318 c23d c5e1 76bd fcbe b23d
000003c0: 2323 7b3e 1b85 d4bc 2fb3 8d3c 906c c33c
000003d0: 02cb b6bd d184 dfbd d1b7 70bf 6ea3 4b3e
000003e0: d080 1a3f 2efd 393e 542b 0f3f a947 a6bf
000003f0: 9aa5 49be 4d30 143d ba60 b8bc b111 cd3c

net.0.bias f4 [32]
0.1574497 0.51226085 -0.008800756 0.019420054 0.43246254 0.57183963 -0.25767615 0.56333655
-0.21992156 -0.15255623 0.21057795 0.5007942 0.5587751 -0.6272596 0.2926626 0.20090142
-0.72811407 -0.24632752 0.0030365435 0.25307152 -0.47168034 0.23312871 0.11856934 -0.07361909
-0.050719075 0.16432244 0.30022007 -0.21530443 -0.58824116 0.23629385 0.01584048 0.04956964
00000000: 7f3a 213e 8723 033f 0c31 10bc ce16 9f3c
00000010: bb6b dd3e 1564 123f 21ee 83be d336 103f
00000020: 1e33 61be b337 1cbe bfa1 573e 0c34 003f
00000030: e30b 0f3f 1694 20bf dfd7 953e 1ab9 4d3e
00000040: af65 3abf 483d 7cbe bf00 473b 9792 813e
00000050: 1680 f1be 4bb9 6e3e 7bd4 f23d 9bc5 96bd
00000060: cebe 4fbd 2444 283e 72b6 993e c478 5cbe
00000070: f996 16bf 04f7 713e e5c3 813c 8909 4b3d

net.2.weight f4 [32, 32]
-0.018701006 0.036050484 -0.54326445 -0.3910198 0.2888495 0.20770915 -0.108029366 0.2011577
-0.57744277 0.22712304 -0.65524703 0.10045956 -0.039778 0.2354321 0.062234093 -0.3084074
0.23374319 0.06721264 -0.5674806 0.390654 -0.3673759 0.22365847 0.18756992 -0.27891845
0.09876186 0.098899625 0.11109728 -0.42224678 -0.33129403 0.26627913 0.14187422 0.29712954
0.20540321 0.28402632 -0.2172951 0.12529896 -0.3238897 -0.27020955 0.4005599 0.083734296
0.034472954 -0.036545817 -0.108416654 -0.022504823 0.37511846 -0.41794914 0.015674066 -0.9545571
-0.16203324 0.023662651 0.10664407 0.4274999 0.14979567 -0.1600783 -0.0042593447 -0.002729845
-0.08625287 0.3930691 -0.2334156 -0.55117357 0.13051039 -1.2856777 0.34901756 -0.057144266
-0.32049662 0.18985625 -0.29383168 -0.1887312 0.3408636 -0.13639577 -0.21971756 0.21610841
-0.6312454 0.30323488 -0.43629304 -0.0013878867 0.0868716 0.12556079 -0.07117428 0.2009043
0.09736636 -0.082049325 -0.45117465 0.43327582 -0.114447005 0.21097408 0.14907934 0.010926999
0.39341924 -0.22385105 -0.11897969 0.17989801 -0.35247934 -0.28486457 -0.008879926 0.2676869
0.3392771 -0.32287452 0.083647214 -0.0737186 -0.080653094 0.45117933 0.06609487 0.021875195
0.21824926 -0.2469274 0.0075711855 -0.057449386 -0.12259647 -0.7430175 -0.15996762 0.01435133
0.22805835 0.35994887 -0.08109721 0.22505388 0.11608894 0.1906256 0.15462153 -0.23809272
0.08613894 -0.13593768 -0.18605708 0.1243805 -0.6132141 -0.106098406 0.13187735 -0.3253328
0.021068182 0.27171612 -0.18444702 -0.014401492 0.23103559 -0.24711074 0.08058381 0.12313233
0.11993635 0.009080418 -0.2823723 0.100796886 -0.009317255 0.27452275 -0.43208134 -0.09771234
0.17593142 -0.09812322 0.29269058 0.13368094 -0.68157536 0.25639105 -0.07146135 -0.2012593
0.15847507 -0.18439756 0.0694141 0.2699473 0.17943531 0.08783537 0.18358922 0.24625142
-0.18006314 -0.25741184 0.19161125 0.17653328 0.17764479 0.51285535 -0.13610028 0.21837981
-0.07898723 -0.15678813 0.10566498 -0.11973908 -0.0127965305 -0.6270895 -0.6273419 0.5023816
0.30299562 0.10905822 -0.0005369829 -0.11446741 -0.23305331 0.019643005 -0.027139045 -0.2774725
-0.05808502 -0.10309347 0.11678961 -0.36860496 -0.077938184 0.24380161 -0.24946202 0.0052029337
-0.4462428 0.10834983 0.1860622 0.02026537 0.33400264 0.33247155 -0.08288373 0.21372975
0.2953446 -0.1799494 -0.19825979 -0.046832766 -0.16016011 0.012151105 -0.7363494 0.61730677
0.34314317 0.47064626 -0.15321952 -0.080150366 -0.18559392 0.080998935 0.056794956 0.115155175
-0.09551617 -0.20885424 -0.13303287 -0.042807203 -0.16370107 0.07832883 -0.017122058 -0.08331725
-0.629738 -0.080022104 -0.63911253 -0.08841852 0.6430744 0.20024985 0.27113104 0.452752
0.070298925 -0.047959566 -0.3994753 0.09123116 -0.06551915 0.0026031132 -0.5989499 0.42858624
0.12045034 0.31000888 0.05138796 0.09716002 -0.27772862 0.32861096 0.24938601 0.06831631
0.2512695 -0.21852642 -0.034352288 0.2675256 -0.46590233 0.022013327 -0.3024972 0.06544357
00000000: da32 99bc aca9 133d 6113 0bbf bf33 c8be
00000010: 15e4 933e b5b1 543e 803e ddbd 49fc 4d3e
00000020: 4ad3 13bf f192 683e 45be 27bf bebd cd3d
00000030: 42ee 22bd 1d15 713e 2de9 7e3d 93e7 9dbe
00000040: 605a 6f3e c8a6 893d 6946 11bf cd03 c83e
00000050: b218 bcbe ba06 653e 5412 403e 66ce 8ebe
00000060: a843 ca3d e38b ca3d f986 e33d bb30 d8be
00000070: 5f9f a9be bd55 883e 7a47 113e 5d21 983e
00000080: 3855 523e e66b 913e 9b82 5ebe 5f4e 003e
00000090: dfd4 a5be e858 8abe 3016 cd3e e37c ab3d
000000a0: 8333 0d3d 11b1 15bd 8d09 debd 095c b8bc
000000b0: 870f c03e 6efd d5be e666 803c db5d 74bf
000000c0: 0bec 25be 2dd8 c13c 3568 da3d 44e1 da3e
000000d0: 0964 193e 91eb 23be f991 8bbb 33e7 32bb
000000e0: 58a5 b0bd 5a40 c93e 8004 6fbe b619 0dbf
000000f0: 84a4 053e 1691 a4bf 6eb2 b23e 1b10 6abd
00000100: 2218 a4be ad69 423e 1b71 96be c042 41be
00000110: ac85 ae3e 55ab 0bbe a4fd 60be 864b 5d3e
00000120: 4c99 21bf 9a41 9b3e cd61 dfbe c0e9 b5ba
00000130: bde9 b13d 0293 003e d2c3 91bd dbb9 4d3e
00000140: 0468 c73d 7a09 a8bd 5d00 e7be 54d6 dd3e
00000150: 3163 eabd 9709 583e 41a8 183e 2807 333c
00000160: 3f6e c93e 3639 65be a0ab f3bd 2f37 383e
00000170: 2c78 b4be c5d9 91be 1c7d 11bc 420e 893e
00000180: bab5 ad3e cf4f a5be 3b4f ab3d c7f9 96bd
00000190: 732d a5bd fa00 e73e bf5c 873d 9c33 b33c
000001a0: bc7c 5f3e 89da 7cbe b517 f83b 0c50 6bbd
000001b0: dc13 fbbd 6536 3ebf 8dce 23be d721 6b3c
000001c0: 2188 693e 384b b83e 4b16 a6bd 8674 663e
000001d0: 0ac0 ed3d 5b33 433e 1b55 1e3e 94ce 73be
000001e0: 9d69 b03d 3f33 0bbe bf85 3ebe 34bb fe3d
000001f0: 99fb 1cbf 1f4a d9bd db0a 073e 0592 a6be
00000200: 2e97 ac3c 601e 8b3e aedf 3cbe 3cf4 6bbc
00000210: 9894 6c3e 990a 7dbe 2009 a53d ce2c fc3d
00000220: 30a1 f53d 09c6 143c 1a93 90be 996e ce3d
00000230: 66a7 18bc 3f8e 8c3e c439 ddbe 681d c8bd
00000240: 5e27 343e d4f4 c8bd 8adb 953e a8e3 083e
00000250: b97b 2ebf b045 833e 545a 92bd eb16 4ebe
00000260: 4a47 223e b7d2 3cbe fb28 8e3d 8836 8a3e
00000270: e4bd 373e 08e3 b33d d0fe 3b3e 5529 7c3e
00000280: 7962 38be 7ccb 83be bd35 443e 24c5 343e
00000290: 84e8 353e 7d4a 033f df5d 0bbe f59e 5f3e
000002a0: 0fc4 a1bd 118d 20be e266 d83d c339 f5bd
000002b0: 8aa8 51bc f088 20bf 7b99 20bf 159c 003f
000002c0: 3e22 9b3e eb59 df3d 50c4 0cba e46d eabd
000002d0: 87a5 6ebe 5eea a03c b452 debc e010 8ebe
000002e0: 8fea 6dbd ab22 d3bd 642f ef3d cab9 bcbe
000002f0: 0e9e 9fbd 21a7 793e f972 7fbe 5f7d aa3b
00000300: f079 e4be 84e6 dd3d 1787 3e3e 9003 a63c
00000310: 6502 ab3e b639 aa3e f2be a9bd f9db 5a3e
00000320: 6837 973e a844 38be 9d04 4bbe b7d3 3fbd
00000330: 0301 24be 6e15 473c 6581 3cbf d107 1e3f
00000340: 76b0 af3e 8cf8 f03e 94e5 1cbe e025 a4bd
00000350: 550c 3ebe c5e2 a53d d4a1 683d 7ad6 eb3d
00000360: fb9d c3bd e3dd 55be c539 08be 9b56 2fbd
00000370: 41a1 27be de6a a03d 8f43 8cbc 3ca2 aabd
00000380: 8236 21bf a1e2 a3bd e19c 23bf c514 b5bd
00000390: 86a0 243f 4c0e 4d3e b0d1 8a3e 1ccf e73e
000003a0: e2f8 8f3d 4071 44bd 0788 ccbe 67d7 ba3d
000003b0: e72e 86bd fe98 2a3b c854 19bf a86f db3e
000003c0: abae f63d 7cb9 9e3e 2e7c 523d d5fb c63d
000003d0: 7232 8ebe b23f a83e 0c5f 7f3e 6ce9 8b3d
000003e0: 65a6 803e 64c5 5fbe fcb4 0cbd 1ef9 883e
000003f0: c08a eebe 4b55 b43c eae0 9abe 4707 863d

net.2.bias f4 [32]
-0.025628963 0.018220335 0.31687987 0.56771386 -0.5519026 0.36253282 0.3064794 0.16582158
0.49073 -0.076129034 0.29626545 0.12975088 0.046226628 0.30195576 0.49213707 0.23052068
0.09069316 0.3812335 0.23605047 0.5228164 0.41398457 0.1950728 0.25962967 0.02354956
0.2484793 0.09036101 0.27042004 0.09465252 0.18931332 0.3470221 0.4238469 0.35673198
00000000: d5f3 d1bc d042 953c 143e a23e b255 113f
00000010: 7d49 0dbf e79d b93e deea 9c3e 22cd 293e
00000020: f640 fb3e 8ae9 9bbd 1bb0 973e 6add 043e
00000030: 2258 3d3d f299 9a3e 64f9 fb3e 9d0d 6c3e
00000040: 56bd b93d 0a31 c33e 37b7 713e 4cd7 053f
00000050: c9f5 d33e 2ac1 473e 2eee 843e 02eb c03c
00000060: 5c71 7e3e 310f b93d 7f74 8a3e 2ed9 c13d
00000070: 5adb 413e e1ac b13e 7602 d93e 93a5 b63e

net.5.weight f4 [4, 32]
-0.022209162 -0.23445427 -0.049835127 0.114265256 -0.45409098 0.11485535 0.083933674 0.1898329
0.025547532 -0.4084647 0.060666203 0.29194832 -0.8531839 0.05937457 0.0796081 -0.024778072
-0.5633197 0.3239255 -0.39451048 -0.089397445 0.0543702 -0.66208684 -0.00031616 0.052044697
0.29398018 -0.14003627 -0.4421235 0.11415334 0.07100604 -0.112204894 -1.0988258 0.061730042
-0.0827496 0.9129725 0.017014373 -1.0827439 -0.5781899 -1.1140921 -1.0143771 -1.4220657
-0.45859176 0.3331734 -2.0395854 0.9765359 0.5676738 -1.41076 0.2989462 0.011083053
-0.117939726 -1.7587503 -0.0016761945 -1.0362868 -1.4280511 0.17258012 0.629808 -1.4749258
0.6309309 0.15220298 0.24126452 -1.846657 -1.5242354 -0.39617467 0.18011996 0.43531683
0.107603125 -0.6434961 0.08580717 -0.11468145 0.47700942 -0.14659812 -0.18939666 -0.011797566
-0.5897841 -1.0339187 0.05293441 -0.25015327 0.19692549 -0.7463334 -1.4861094 -1.1308746
-1.2369455 -0.034446515 0.77419347 -0.095069095 -0.044271883 0.270532 -0.6119688 -0.013196548
0.62786245 0.11980971 0.82206905 0.039439294 -0.034001507 -1.6644794 0.6444079 0.6146871
-1.6285912 0.90890855 -1.30967 -0.11516049 0.5370674 -0.08254225 -0.06581673 -0.1556084
0.0023921018 0.23284572 0.08531723 -0.29632276 0.18404408 0.19564638 0.22903337 0.049315777
0.7204469 -0.4356999 -1.3470045 -0.9497854 0.0027279619 0.064975165 -0.32048622 -0.048454545
0.54252064 -1.106256 0.65635437 -0.0742832 -0.124958575 0.371696 0.60458404 -1.2594054
00000000: fdef b5bc c814 70be eb1f 4cbd e703 ea3d
00000010: 9d7e e8be 4839 eb3d 6be5 ab3d 8e63 423e
00000020: 0f49 d13c 4922 d1be 207d 783d 407a 953e
00000030: 436a 5abf c032 733d 9209 a33d 62fb cabc
00000040: b835 10bf 90d9 a53e 47fd c9be 0216 b7bd
00000050: 49b3 5e3d 867e 29bf 47c2 a5b9 d22c 553d
00000060: 9284 963e ab65 0fbe 035e e2be 3ac9 e93d
00000070: 9d6b 913d aecb e5bd 53a6 8cbf a4d8 7c3d
00000080: 9f78 a9bd 91b8 693f ba61 8b3c 5a97 8abf
00000090: 4104 14bf 929a 8ebf 1cd7 81bf 4006 b6bf
000000a0: 8acc eabe b495 aa3e 9188 02c0 42fe 793f
000000b0: 1253 113f c993 b4bf 7a0f 993e b295 353c
000000c0: 628a f1bd bb1e e1bf c1b3 dbba 0ca5 84bf
000000d0: 61ca b6bf d8b8 303e 193b 213f 5eca bcbf
000000e0: b084 213f 19db 1b3e 0c0e 773e 425f ecbf
000000f0: 251a c3bf 68d7 cabe 5e71 383e d9e1 de3e
00000100: 075f dc3d 29bc 24bf abbb af3d 1cde eabd
00000110: 943a f43e d11d 16be 33f1 41be 944a 41bc
00000120: 17fc 16bf 7357 84bf c0d1 583d 1714 80be
00000130: d6a6 493e b50f 3fbf d538 bebf 80c0 90bf
00000140: 3b54 9ebf ca17 0dbd 8b31 463f 96b3 c2bd
00000150: 6f56 35bd 2c83 8a3e fda9 1cbf 5636 58bc
00000160: 98bb 203f cb5e f53d 1e73 523f 198b 213d
00000170: 2a45 0bbd a90d d5bf ebf7 243f 225c 1d3f
00000180: ad75 d0bf 3bae 683f 44a3 a7bf 43d9 ebbd
00000190: 407d 093f e90b a9bd ecca 86bd cf57 1fbe
000001a0: cfc4 1c3b 1c6f 6e3e cdba ae3d 9eb7 97be
000001b0: 0d76 3c3e 8657 483e b987 6a3e 57ff 493d
000001c0: 356f 383f 0f14 dfbe a56a acbf 2325 73bf
000001d0: 9bc7 323b b311 853d c516 a4be 4678 46bd
000001e0: a2e2 0a3f cc99 8dbf d706 283f ca21 98bd
000001f0: 48ea ffbd f04e be3e 05c6 1a3f 3234 a1bf

net.5.bias f4 [4]
0.12830554 0.66907454 -0.106834956 0.06796266
00000000: 8762 033e 7848 2b3f 49cc dabd 0230 8b3d

mean f4 [1, 16]
24.105698 9.142141 9.372539 10.698484 13.6465435 18.323204 24.288658 30.864353
35.56463 30.95264 24.359116 18.477438 13.783761 10.733775 9.37658 9.154045
00000000: 78d8 c041 3646 1241 ebf5 1541 fe2c 2b41
00000010: 3e58 5a41 ec95 9241 2c4f c241 32ea f641
00000020: 2e42 0e42 029f f741 78df c241 cbd1 9341
00000030: 498a 5c41 8bbd 2b41 7906 1641 f876 1241

std f4 [1, 16]
10.028028 5.112257 5.0131392 7.4322524 11.382553 15.305622 17.830542 19.14791
20.531004 19.12769 17.749224 15.492272 11.705909 7.6113844 5.0422363 5.167482
00000000: cd72 2041 9c97 a340 a36b a040 03d5 ed40
00000010: f01e 3641 d4e3 7441 f3a4 8e41 eb2e 9941
00000020: 7f3f a441 8205 9941 69fe 8d41 59e0 7741
00000030: 674b 3b41 7690 f340 005a a140 035c a540
