controller_multilabel.pt (torch, 10833 bytes, 8 tensors)

net.0.weight f4 [32, 16]
00000000: 0842 96be fb25 813d f858 0d3e 035f 4c3e
00000010: fecf 4c3e 8de0 7f3e 49dd 763f b07f 64bd
00000020: 0241 583f 7265 503f 62f0 003e dd4c adbd
00000030: c923 d73e 824c 3b3e 04a1 6b3e de12 2c3e
00000040: 6083 a3bd 05cd a6bf 7559 b6bc cab0 183d
00000050: 0d1a 133e 53db 343f 9bd3 6cbd c43c b0bd
00000060: e010 a3bc aefb efbd 3018 863d 340e 343c
00000070: bdd7 83bd 95ce 33bc 9e86 90be 1741 eabe
00000080: 4573 1ebf affc debd 91ff c9be adb5 e3bc
00000090: 7a4b 9bbd 65aa 7a3d 2d85 0f3c 82a9 6dbe
000000a0: 2603 05be cc0f 5dbb 1ed9 a4bc b537 f0bd
000000b0: 718c 1a3e 54ef 183e 7990 a5bb ba7c 14be
000000c0: 4ab5 f53e 7b94 533e 2058 8cbe 909c 80be
000000d0: 023a 393d 4520 e8bc 418b 853e d64c 47bf
000000e0: 0be0 e5be a7e6 503e fda6 0cbc 8492 173e
000000f0: 85da 09bd e435 dc3d 7bb3 e33d 86f4 60bc
00000100: 9373 913e 0552 24be e6a3 2d3d f193 a43a
00000110: ec44 853c c8e6 43bc b855 913e b49b be3e
00000120: 3391 223f 081e 583e 674e 223e f038 2b3e
00000130: cdde 91bd 4630 ae3d 6ae3 e1bd 8202 a5bf
00000140: 8654 c53d a3e7 9cbe a9c9 963e 2d81 693d
00000150: f201 db3e c617 1e3f 789a 9ebd 41f0 9a3c
00000160: 0022 afbc 6b1f cb3c b4bb 753d 0a1e 24be
00000170: a68e ea3c f4a5 a23d 0bb9 88be c280 60bf
00000180: 8eb4 a0be c086 373c eb44 eb3c b735 93bd
00000190: efb7 b43c 23d7 633c 00be d03e 9165 17bf
000001a0: cbee 21be d706 4ebe 5c26 043f 3284 a93e
000001b0: ff79 17bc f91d 943e 1c62 573e 46a7 ae3d
000001c0: 2237 953e f56b eabd f114 d4be d8c5 43bc
000001d0: 1e26 043e ce07 013e d439 c23d 3f9f 2d3e
000001e0: f561 13bf a045 c23e fe8a 243f acdb 4e3e
000001f0: f7b9 83be e9d1 f03c b8fd 513e 25f8 d1be
00000200: 886b 0bbf ce88 3a3d c6b2 623d 27b0 98bd
00000210: 1e82 133e f5cc 52be 9aec 89be 700d b13d
00000220: 8d0c b7bd 5b06 68be 4c2f 02be 6a56 c6bc
00000230: e3e3 4d3e 3b86 98be 2dd1 de3d 1ade 9ebe
00000240: a3a2 19bd 30cc 51bf 9b66 a5be 6b37 bd3d
00000250: 4c92 8d3e d937 acbd 54ad 7ebd 11ae e63d
00000260: 74af 2abb 2984 0d3c f6e7 1cbc 0fed 4fbc
00000270: fccf d9bd e8a5 fa3e 3076 693d dfdd 923e
00000280: 09a2 773f aaf3 d7bd 7ceb c5bd 642f a9bd
00000290: 5e4e 063e 6043 3db9 b652 f8bd 7659 f8be
000002a0: 6ab9 803c 40db c3be 7587 dbbd 8049 22be
000002b0: 8448 03be dc3c 96be 71c6 ac3e cd0f 763e
000002c0: 1884 c1be 03f1 d23c 3720 8e3c 976e 5e3e
000002d0: db18 09be 72e4 e63d cc61 ed3e 1057 f33d
000002e0: 947f c7be ea7b 9e3f 4fc3 6abe 0b7d 8ebe
000002f0: bc69 353c 1c4a 50be bc35 3f3d 1d6d 413e
00000300: 9675 af3e 8a6e 343e 7627 213e 2ae2 d33e
00000310: 12bb 99bd 8352 57be 7127 83be 925e fdbd
00000320: bc52 c1be 0c84 60be 8d78 9ebe 12cb d1be
00000330: 0b78 50be 5fe4 bfbe e329 b1be 4806 f4be
00000340: f136 393e 39fc ebbe b0f6 983c 547b c83d
00000350: 6b7c b43d 8a89 993d 0fce 15bf 4911 b03e
00000360: 2102 2c3f 880c 373d 55cb 643e 8a78 f3bd
00000370: 5991 2bbf fb90 ecbe 4a7a 243f 5f06 b33d
00000380: f886 403f 9de1 a9bd c6b6 41be 55ff 14bc
00000390: c33a c3bd 8ef7 92be 804b a93d 528d 203e
000003a0: 7fe9 5abd c44f 9a3d 126f 16be 5cbe 13bf
000003b0: 339e b5be f33a edbe 551d 0ebf ead2 abbd
000003c0: 73c6 0ebe 3a07 313d ddc4 16bd 5153 603d
000003d0: 274f 543d b2e8 923d 44ef debd bd60 08be
000003e0: 9417 063d 2761 a6be 09fa 213f aa9c 1d3f
000003f0: 7245 5fbc b493 58be 0be5 04bf 144a 9cbd
-0.29347253 0.06306072 0.1380347 0.19958119 0.20001218 0.24988003 0.96431404 -0.055785835
0.84474194 0.81404793 0.12591699 -0.08461926 0.4201949 0.18290904 0.23010641 0.16804072
-0.07984042 -1.3031317 -0.022259453 0.037277974 0.14365406 0.7064716 -0.05781899 -0.0860534
-0.019905508 -0.11717926 0.06547582 0.010989714 -0.06437633 -0.010974546 -0.28227705 -0.45752785
-0.6189464 -0.10888039 -0.39452794 -0.02779659 -0.075827554 0.061197657 0.008759779 -0.23209193
-0.12989482 -0.003373134 -0.02012306 -0.11729375 0.15092637 0.14935046 -0.005052623 -0.14500704
0.47989875 0.2066211 -0.27410984 -0.25119448 0.045221336 -0.0283357 0.26082805 -0.7785162
-0.44897494 0.20400487 -0.008584735 0.14801985 -0.033655662 0.10752466 0.111182176 -0.013730174
0.2840849 -0.16046913 0.042392634 0.0012556297 0.016268216 -0.011956878 0.2838571 0.37228167
0.63502806 0.21105206 0.1585022 0.16720939 -0.07122574 0.08505301 -0.11029704 -1.289139
0.09635262 -0.30645475 0.2945073 0.057007957 0.42774922 0.61755025 -0.07744306 0.01891339
-0.021378517 0.024795255 0.05999346 -0.16027084 0.028632473 0.07941809 -0.26703677 -0.8769647
-0.31387752 0.0112015605 0.028719386 -0.0718798 0.022060363 0.013906273 0.40769958 -0.59139353
-0.15813749 -0.20119797 0.5162103 0.3310867 -0.009245395 0.28929117 0.2103352 0.085279986
0.29143625 -0.114463724 -0.41422227 -0.011949025 0.12905166 0.12600634 0.09483686 0.16955279
-0.57571346 0.37943745 0.64274585 0.20200986 -0.25727817 0.029396968 0.20506942 -0.41009632
-0.54460955 0.045540623 0.055346273 -0.074554734 0.14405105 -0.20585997 -0.26938325 0.08645141
-0.08937941 -0.22658674 -0.12713355 -0.024211127 0.20106463 -0.2978991 0.10879741 -0.31028825
-0.037508618 -0.8195219 -0.32304844 0.09239086 0.27650678 -0.084090896 -0.062177017 0.11263669
-0.002604452 0.0086374665 -0.009576788 -0.0126907965 -0.10635373 0.489547 0.056997478 0.286849
0.9673162 -0.10544522 -0.09664056 -0.08260992 0.13115832 -0.00018049544 -0.12125151 -0.48505753
0.015713412 -0.38253212 -0.10719196 -0.1584835 -0.12820631 -0.29343307 0.3374515 0.24029465
-0.37796092 0.025749689 0.017349346 0.21721874 -0.13388388 0.11274041 0.46363676 0.1188184
-0.38964522 1.2381566 -0.22926067 -0.27829775 0.011072572 -0.2034077 0.046682104 0.1888928
0.34269398 0.17620292 0.1573771 0.41383487 -0.07506384 -0.2102757 -0.2561603 -0.123715535
-0.37758434 -0.21925372 -0.30951348 -0.40975243 -0.20358293 -0.3747892 -0.3460227 -0.47661042
0.18087365 -0.46090868 0.018672317 0.09789148 0.08812793 0.074969366 -0.58517545 0.34388188
0.6719075 0.044689685 0.2234319 -0.118882254 -0.6701866 -0.4620436 0.642491 0.087414496
0.75205946 -0.082949854 -0.18917379 -0.009094079 -0.09532692 -0.28704494 0.082663536 0.1567891
-0.053445335 0.07534745 -0.14690807 -0.5771234 -0.3547226 -0.46334037 -0.5551351 -0.08389838
-0.1394289 0.043219782 -0.036808837 0.054766957 0.051833298 0.07173289 -0.1088548 -0.13318153
0.03273733 -0.32495996 0.6327215 0.61567175 -0.013627397 -0.21150094 -0.5191199 -0.07631317

net.0.bias f4 [32]
00000000: c2de 1ebe 328c 303e e7ae 313f fb7d 093e
00000010: d09c 243e b356 19be d3a9 b03b 0d6f a9be
00000020: f236 1f3f 07fa 1d3c 4293 b13e c6bf 183d
00000030: 85bc 70bc ae77 d3bd 53ef cb3d 51ab ad3d
00000040: f439 f9be 25b6 72bd 3c76 c0be 0363 b0be
00000050: 9961 703d c977 473f d699 863e ebdb 7b3e
00000060: 69e2 c9be 7eef 693e 5864 8fbe c0a3 df3d
00000070: a34b 34bf d411 5c3f 1765 fcbb faaf edbd
-0.15514663 0.1724098 0.69407505 0.13426964 0.16075444 -0.1497448 0.0053913384 -0.33092538
0.62193215 0.009642131 0.3468266 0.037292264 -0.014693384 -0.103255615 0.09957757 0.08479942
-0.48677027 -0.059255738 -0.37590206 -0.3445054 0.058686826 0.7791715 0.26289243 0.24595611
-0.3943055 0.22845265 -0.28006244 0.10919905 -0.7042791 0.85964704 -0.0077024805 -0.116058305

net.2.weight f4 [32, 32]
00000000: e0f2 7dbd 606b a2be c66a 023e dc98 843e
00000010: 0690 2fbe 274d dd3c 4fe5 bebc b824 82bd
00000020: 82c1 bb3a 86d3 ed3e a9f0 173d 6460 57bd
00000030: fdec b8bd 60ca 473e 4e71 403e 5f93 8c3e
00000040: cb8c 5dbe 96ce 06be e165 35be 25e2 e3be
00000050: 18a5 cdbe 6d0b 6c3e 5587 06bf aba5 ccbe
00000060: cd07 97be ac7e cb3e e658 0fbe 6083 63bf
00000070: 007d 3fbf 3f18 9a3e 2c38 99be 4ec4 a13e
00000080: b710 803e 2cff f2bd 8da7 a6bf 0cc5 403e
00000090: 6f6b 64be fc99 dc3d 0885 4dbe 0835 683b
000000a0: c9af 5dbf 13b0 9dbe ebd6 2c3f 87d5 33bd
000000b0: 7b5a 49be 5eb4 613d 0d5c e33e b9ba 8abc
000000c0: ad12 ec3e 49b0 073d ab62 8b3e 5d98 2bbd
000000d0: 12ba 47bd 7c13 5bbf 6ffb 47be 7b4c 1a3f
000000e0: c10f 153e cff3 dabd 78e2 8abb b286 033e
000000f0: e3a5 53be e4bc c6bc b7f1 353e 56ef 6f3e
00000100: efef 29bf b395 9fbb 1aaf a63d 1113 fb3d
00000110: 6a32 73be d2aa e13d 624a e3bc cd66 86be
00000120: 86a4 883e 1abf 953e 66c8 ac3a fa4a 02be
00000130: e40c a0bd 3143 7fbe 18cb 8a3e e95d 403e
00000140: 6bc7 60bd 600c 4dbe 4a69 b0bd f253 90be
00000150: 51fa 00be 242e 893e beed 26bf 3f69 63bd
00000160: ea00 6abf 4544 c8bb 6195 d1bd 8b30 fbbe
00000170: 371c e6be 19e6 173e 53fe 99be 0682 613e
00000180: 369b 8dbe 0320 893e e7c7 c7be 0bfe 3a3e
00000190: 77b6 ad3e b46f 363e 55e2 87be 5a22 8dbe
000001a0: 79f5 56be cccd d5bc 56f0 f33d 8af2 cabe
000001b0: 223c d63e 77c4 a1be 2ca9 d13d ad30 dcbe
000001c0: b85b cdbe 0766 943e d695 e2bb f777 39be
000001d0: 50a3 b13e b9e2 973e d78e 943c 7eb0 e4be
000001e0: 7458 f4bd 37cf 6abe b5e6 cdbd 203c 873e
000001f0: 74a4 3bbd 243a aabc 5193 033e 4023 023d
00000200: 4e6b bd3d 8ee7 6ebe afa3 883e 2812 5e3e
00000210: 7d23 91be 2b42 90bf dcf1 8abd 128f f53d
00000220: 71e5 273e 5836 513e 9454 553d 4a57 173e
00000230: 3fe1 d7be d06b dd3e 04e9 fe3d 9ec0 db3d
00000240: 13fe c33d c1f0 cd3b 2852 b9be 400a 36bf
00000250: 7f75 60bd 6e72 4b3e 1533 793d 7a42 f43d
00000260: 5287 e9bd 0660 873d 568b 483e 102d a33e
00000270: 2c2a 16be 02f8 63bc 257e 32be 8443 6e3d
00000280: 4fa9 0e3f d100 713e fcb6 5f3d aaee 503d
00000290: 2aac 7abe 8051 f13d ab10 1a3d 530a d93e
000002a0: 818b 99be bb02 8dbe 0342 753d a4b8 75bf
000002b0: 9d64 db3e 6a96 90be acbe 3dbe ac4a c5be
000002c0: 32d8 10bf 4f38 e13d eb1a cf3e 66a2 93be
000002d0: 3aa5 c53d 2b0c 76bd f9ad bc3e e472 9ebd
000002e0: e1a2 5fbd b809 40be 374a a43d b3ae 773e
000002f0: 54b3 1c3f e7d4 113e eb1a abbc 50bf f7bc
00000300: 5721 dc3e f52f ab3d 2559 3fbe a5e7 96be
00000310: ea53 02bd 0bc2 0b3e 285f 4e3e 424c a8be
00000320: cd20 2f3e e52a 2bbd 144b 34bd 4ac3 44bf
00000330: 1131 043f 7700 88be 625c 49be 44ff 0abf
00000340: 3e01 f5be a64b 8e3e 813f 8b3e 2bac 903e
00000350: 09ac 8abc 61a4 fdbd 6094 1abf f0e3 afb9
00000360: e04e 52bd 945f 913d c2e3 48bd 3ac8 6cbe
00000370: 01af 45be d39c 373e ac77 febc aebd 4ebe
00000380: cd94 d33e 4c6a d3bf c206 203e 61aa e03e
00000390: 9ca9 583d b881 72be be0a 00be 8ffa 45be
000003a0: 5832 da3d 45c0 3b3e cb4f a53d b8c2 09bf
000003b0: a182 4bbd 773d ba3e 2d88 dc3c fe13 dc3e
000003c0: fff7 13be 53f7 df3c 416c 4bbe c135 18bf
000003d0: 3ced bdbe ced5 983d 3adb 27bf 9750 5a3d
000003e0: 635e 77be 99a6 803e 51eb 88be ef49 89be
000003f0: 0c87 20bf ebf0 563d 8802 90be 66f5 063e
-0.0619992 -0.31722546 0.12736043 0.25897872 -0.17144784 0.027014328 -0.023302702 -0.0635466
0.0014324638 0.46450442 0.037094746 -0.05258216 -0.09029577 0.19510794 0.18793222 0.27456185
-0.2163574 -0.13164744 -0.17714645 -0.44508472 -0.4016502 0.23051234 -0.5255025 -0.39970145
-0.2949814 0.3974508 -0.13998756 -0.8887234 -0.7480011 0.30096623 -0.29925668 0.3159508
0.25012752 -0.118650764 -1.3019882 0.18825167 -0.22306608 0.10771558 -0.20070279 0.0035432
-0.8659635 -0.30798396 0.6751544 -0.043904807 -0.19663422 0.055103652 0.44406167 -0.01693474
0.46107998 0.033127103 0.27223715 -0.04189335 -0.048761435 -0.85576606 -0.19529508 0.6027295
0.14556791 -0.10691034 -0.004238423 0.12844351 -0.2066875 -0.024259992 0.17767988 0.23431143
-0.66381735 -0.0048701405 0.08138867 0.12259496 -0.237497 0.110189095 -0.02774543 -0.26250306
0.2668802 0.2924736 0.0013182282 -0.12723914 -0.07814959 -0.24927975 0.27108073 0.18785824
-0.05487768 -0.20024252 -0.08613832 -0.28189045 -0.12595488 0.26793015 -0.65206516 -0.055520292
-0.91407645 -0.006111654 -0.1023357 -0.49060473 -0.449434 0.14833869 -0.30076846 0.22022256
-0.2765748 0.26782236 -0.390197 0.18260972 0.33928272 0.17816049 -0.26539865 -0.2756527
-0.20992078 -0.026099108 0.11911075 -0.39638168 0.41842753 -0.31595203 0.10237345 -0.43005887
-0.40109038 0.2898409 -0.0069148345 -0.18112169 0.3469491 0.29665163 0.018134518 -0.44665903
-0.119309336 -0.22930609 -0.100537695 0.2641306 -0.04581113 -0.020779677 0.12849165 0.0317719
0.09248982 -0.23330519 0.2668738 0.21686614 -0.28347388 -1.1270193 -0.06784412 0.11990179
0.16396119 0.20430887 0.052082613 0.14779392 -0.42164037 0.43246317 0.12446788 0.10730098
0.09569945 0.0062848036 -0.36195493 -0.7110939 -0.054799553 0.1986787 0.06083973 0.11926742
-0.114027634 0.06610112 0.19584402 0.31870317 -0.14664525 -0.01391411 -0.17430933 0.058169857
0.55727094 0.23535468 0.054617867 0.051008858 -0.24479738 0.11783123 0.037613552 0.4239069
-0.29989246 -0.27541146 0.059877407 -0.95984864 0.428502 -0.28239757 -0.18529767 -0.38533533
-0.5657989 0.10997068 0.40450224 -0.28834838 0.09650655 -0.060070198 0.3685148 -0.077367574
-0.054598693 -0.18753707 0.08021968 0.24187736 0.61211133 0.14241372 -0.020886859 -0.030242592
0.42994186 0.083587565 -0.1868635 -0.29473606 -0.031818308 0.1364824 0.20153487 -0.3287068
0.17102356 -0.041788954 -0.044016913 -0.7686049 0.5163737 -0.26562855 -0.19664147 -0.54295754
-0.4785251 0.2779209 0.27196887 0.28256354 -0.016927736 -0.123848684 -0.6038265 -0.00033548428
-0.051344752 0.07098308 -0.04904533 -0.23123255 -0.1930504 0.17930917 -0.031062923 -0.20189545
0.41324463 -1.6516814 0.15627578 0.4387999 0.052896127 -0.23682296 -0.12504098 -0.19333862
0.106541336 0.18335064 0.0807186 -0.5381274 -0.049685124 0.3637502 0.026920402 0.42984003
-0.14450072 0.027339613 -0.19865514 -0.5945702 -0.37095058 0.07462655 -0.6556889 0.053299513
-0.241571 0.25127104 -0.26742032 -0.2681422 -0.62706065 0.05247585 -0.2812693 0.1317955

net.2.bias f4 [32]
00000000: 8f88 b73e 4e26 9ebf a731 663e 55f4 cd3c
00000010: 5cfd 53be 285e 88be f545 153d cc1c 873e
00000020: 2d20 bc3e 6594 243f bd03 883e a108 f9bd
00000030: 8598 e2bb ae60 35be 86b5 51bd b45f c2be
00000040: 2844 fc3d e0fd 4e3e baa4 2abd de28 b53e
00000050: 9cdc c53e 4dc6 f33d 7f91 57be 02ec 3a3c
00000060: 6927 063e 7438 42be d327 82bd d099 41be
00000070: aa1a d3bc 3d82 e93d f6fb f13d 4657 433e
0.35846373 -1.235544 0.22479878 0.02514092 -0.20702118 -0.26634336 0.03644367 0.26389158
0.36743298 0.6428893 0.26565352 -0.12159849 -0.0069151544 -0.17712662 -0.051198505 -0.3796364
0.12317687 0.20214033 -0.041661 0.35382742 0.38644874 0.11903057 -0.21051596 0.011408808
0.13100971 -0.18966848 -0.06355252 -0.18906331 -0.02576955 0.11401794 0.11815636 0.19076261

net.5.weight f4 [4, 32]
00000000: 5ad2 a83d df98 3140 d4d9 67bd e80d 2dbf
00000010: 8ff6 003f 3643 e1be fe38 82bf 3c2d 80be
00000020: 056c 3cbf d036 a3be 627a bd3e 5b3c 523d
00000030: bc82 a23c 4830 363e 23d8 e0be ca77 42bb
00000040: a127 02bf 0aeb 27bf 4b90 1ebf 622e c7be
00000050: 3744 cbbe 77c2 c5be 8c89 9fbe 9316 fc3b
00000060: 0fe3 27bd 04f2 b73d 6cbb 9a3d db57 a93d
00000070: 2fcf 663f b526 bd3c f63b 10bf 5f6d 4f3e
00000080: 3ba1 853e 31f5 1dbf 2ed6 643e 0b94 823d
00000090: 129d 3c3f b398 583e 110b 813e 4637 013f
000000a0: 1828 da3e 6f52 7f3e 1d51 113e ad5e acbf
000000b0: 6357 cabf d1bf 8dbf c149 433f 01ab ddbf
000000c0: 1e3e 453f 5ce1 f33e 2552 153f e84c 0e3e
000000d0: cba5 c73e d2cb 8b3e 087c dd3d 4081 efbf
000000e0: cf65 2cbe 4bc7 33bf 2882 e4bf f87e dcbf
000000f0: d859 c23e ef7b 43bf 90a1 bc3e 7fe9 1fbf
00000100: 51ad babf b47a b6be db27 75bf 80b7 2f3f
00000110: 40e7 e0be f409 253e 44e1 fb3e 480d 03c0
00000120: acdf 503f a916 f03d ba49 853d 2d2d 633c
00000130: 780b c7bc da3b 87be d2ab 993e c44f 093c
00000140: aaa0 883e cfc6 38bf 5e21 f83e f390 6e3f
00000150: 9ddb d9bf 7b17 c93f aa7e 75bf a4f5 9abb
00000160: 23a4 c53e f441 87be 1ed0 7c3c 3f47 ecbd
00000170: dae8 0abf 6884 133e f97c 213f cd04 57bf
00000180: 7393 af3e 3707 3abf 0cde 6f3f e8a0 36bf
00000190: eeae 263f e68b b2bf 9a4b 33bf 00d8 323f
000001a0: 4af5 64bf e1df 90bf d5d3 a0bf 08f2 173c
000001b0: 373e 8a3c 0280 183e 4d15 613e 2593 0f3d
000001c0: 813f febe 2e40 6b3f 597d 31be 84f9 25bf
000001d0: 0078 a33f 875c c23e 8db5 e73e f028 c9bc
000001e0: eea0 77bf fe7b 383e 605a 973c db73 05bd
000001f0: 757b ebbe 8676 37bf c3a3 f13e 108a 0abd
0.082432464 2.7749555 -0.05660422 -0.67599344 0.5037622 -0.4399659 -1.0173643 -0.2503451
-0.73602325 -0.31877756 0.37007433 0.05132709 0.01983773 0.17791855 -0.439149 -0.002967345
-0.5084172 -0.65593016 -0.61938924 -0.38902575 -0.3970048 -0.38624927 -0.31159627 0.0076931207
-0.040988024 0.08981708 0.07555279 0.0826871 0.9015989 0.023089746 -0.56341493 0.20256566
0.26099572 -0.6170226 0.22347328 0.06375893 0.7367717 0.21152 0.25203755 0.50474966
0.42608714 0.2493379 0.14191099 -1.3466393 -1.5807918 -1.1074163 0.76284415 -1.7317811
0.7704791 0.47632873 0.5832847 0.13896525 0.38993677 0.2730394 0.10814673 -1.8711319
-0.16835712 -0.7022597 -1.785222 -1.7226248 0.3795917 -0.7636098 0.36842012 -0.6246566
-1.4584142 -0.3564049 -0.9576394 0.68639374 -0.4392643 0.16117078 0.49195302 -2.0476856
0.81591296 0.11723072 0.06508203 0.013865751 -0.02429746 -0.2641285 0.300139 0.008380834
0.26685077 -0.7217836 0.48462957 0.93189925 -1.7020146 1.5710291 -0.958964 -0.0047289897
0.3860179 -0.26417506 0.015430478 -0.115370266 -0.54261553 0.14405978 0.6308132 -0.839917
0.34292182 -0.7266726 0.9369819 -0.71339273 0.6511067 -1.3948944 -0.70037234 0.6986084
-0.8943678 -1.1318322 -1.2564646 0.009274013 0.01687537 0.14892581 0.21980782 0.035052437
-0.49657825 0.91894805 -0.17332973 -0.64833856 1.2770996 0.37961218 0.452557 -0.024555653
-0.96729934 0.1801605 0.018475711 -0.03258119 -0.45992628 -0.7166523 0.47195253 -0.033823073

net.5.bias f4 [4]
00000000: 1b66 9a3e 11f3 8c3b 7016 11be d486 cbbd
0.30156025 0.0043014367 -0.14168715 -0.09937826

mean f4 [1, 16]
00000000: 9d61 0542 9fa6 3b41 07f2 4941 0a63 6c41
00000010: f3cf 8f41 e2b4 b541 59b3 e541 b6b4 0a42
00000020: bc5d 1442 f6f2 0842 db1f db41 a368 aa41
00000030: 7ae3 8641 2350 6141 4ac9 4941 eede 3d41
33.345325 11.728179 12.621589 14.774179 17.976538 22.713322 28.712572 34.676476
37.091537 34.237267 27.390554 21.301092 16.861073 14.082065 12.611643 11.866926

std f4 [1, 16]
00000000: 348d 6441 e841 2641 d45f 3841 93c2 6841
00000010: 7ffb 8941 4047 9e41 e17a b141 9a0b be41
00000020: cfcd c041 1479 bc41 e07e a841 9a05 9341
00000030: 1164 7d41 2084 5941 009b 4441 6259 2d41
14.284473 10.39109 11.523396 14.547503 17.2478 19.78479 22.185 23.755665
24.100492 23.55912 21.06195 18.377735 15.83693 13.594757 12.287842 10.834322
