controller_multilabel_test.pt (torch, 25937 bytes, 8 tensors)

net.0.weight f4 [64, 16]
00000000: 5373 babe 0ea8 91bc 2c2c ba3c 9f39 473e
00000010: b394 9cbd fdcc 9d3e 0e44 813e ed08 9abe
00000020: 22da 5fbd 0da0 bfbd cb37 95be 7aef 2c3e
00000030: 592f 263e f70d 5d3d 83f0 f3bd 78e3 14be
00000040: ee42 913e b703 813e d20c 843e f887 683e
00000050: b477 e2bd 49ec 9f3e 89db 0f3e 5d56 6abe
00000060: ab40 3e3c 3959 73bd 291d 793d 4c72 683c
00000070: 82fb 333d e226 743e 2839 f13d 3464 ed3d
00000080: 45ac c9bd 2d2a 853d 8098 c73c 5edd 33be
00000090: d785 bf3d f82b 3ebe b8d8 193e ddb2 98be
000000a0: 58e7 23be 0d28 c93e cee8 2a3e 3698 943e
000000b0: 3088 263e 8a55 923d b82c 6dbe d673 90bc
000000c0: e1f3 92be a6a9 f53d 8674 333e d38b 223e
000000d0: 2eb7 05be 3027 f1bd bb1b b73d 6df4 82be
000000e0: af64 ba3e e411 513e 2380 5e3e b778 b33e
000000f0: 1fe1 493e 342b 853e d8fe 503d 962e 1d3e
00000100: b88b 183b fdd1 1eba 8add b03a 2bd0 903d
00000110: c30f 1a3e 4597 c63e f23e ec3d b687 2f3e
00000120: 8137 f83d 1c3d c13e c4ac 58bd 88d1 133e
00000130: 1982 9fba df01 d43d 8409 1abe 40f6 a0be
00000140: 6dd7 a53d 3b14 84be 81d6 2cbd 2a7c 733d
00000150: 9ed6 923e 8215 6c3e 7c10 6c3e 03b5 04be
00000160: af0e 12be 8eba d3be c527 56be 5b4c f6bd
00000170: cd8f 843d 9a3b 49be a369 92be 79f0 5bbd
00000180: 049f 923e 85c9 8bbc 9dba 193d 2827 88be
00000190: 1b68 29be a068 3abe 7bac abbe 325c fe3c
000001a0: 2067 a13e 0bdb 0cbe 93d6 24be 33f3 bcbd
000001b0: 1ec4 95bc 5041 0e3e 13ff eabd fe87 12be
000001c0: f450 a13e 2a8e 70bd 09d0 243c 8374 47be
000001d0: 1515 413e d05b 9b3e f9d5 51be 01e4 88bd
000001e0: e57c 3dbe 1a9d c3be 0224 833e 223b a1bd
000001f0: 7707 5e3e ae7c 16be f038 273e 85cd 783b
00000200: c911 a53e 9890 023e b7c9 553e 0100 aebd
00000210: e173 debd c022 4b3e 9d3d dfbd 5ef3 fd3d
00000220: ff09 7abe fb18 acbd 4a61 633e 593e 3cbe
00000230: 0123 f63d fedb 893e 730f 4cbd c381 fc3d
00000240: 3c14 cc3e 6100 86bd 9694 d8bd eb4c b93d
00000250: 5fc8 e2bd 2f21 6b3e 549e 943e db3a 86be
00000260: 1c9a acbe b287 07be d62f 20bc a31c 8a3c
00000270: 81dc efbc c223 b13d 2b00 40bc 887a 4f3e
00000280: aac5 6cbd 3af8 1ebe 4447 37be 2739 9dbe
00000290: b007 613e 46af 25bd 232d 7b3e c2c3 1b3e
000002a0: da59 7e3e 45d0 ab3e 4a6a c8bd b285 3e3e
000002b0: 830c 5b3e 2a69 593e ecf2 9e3d 3972 2b3e
000002c0: 1048 96bd 543a ab3d d5b8 ff3d aaa1 96be
000002d0: 09a9 91bd fbf0 413d f56d d3bd 15ff 7c3e
000002e0: 9b33 e23e 392d aabd 6b95 85be 3d06 7dbe
000002f0: 3f6c 99be 6eb8 eebd a00a b3bd 8399 d3bd
00000300: ed31 ae3c 0026 923e 6251 74bc 3617 bbbe
00000310: 4d7f 553d 7a0f 7cbe b88c 8f3d b609 3c3e
00000320: 4905 1a3e 26e1 143d e6ae 2dbe 6086 60bd
00000330: b084 a33d 2fbb 3f3c 823b 843c ef68 22bd
00000340: 24ad 993e 2af7 00be 2a94 a1be 73a0 1abe
00000350: 57d9 07bf 88fe ddbe 7560 583e e79f aa3d
00000360: 130d 453d 9050 e7bd 3354 c1bc 855c cf3d
00000370: 2627 06bd 0426 d43d 9168 6e3e 6d9a 893d
00000380: d433 fcbd c8c5 873e f7d9 cabe ca82 2bbe
00000390: a402 193e 0311 583e ca18 bcbc f4e7 033e
000003a0: 03dc bdbe cc74 e3bd 9fec 253e 8a3a 2b3d
000003b0: f8ec 58bb 1ef9 b53c f109 c43d 0487 cc3d
000003c0: d4c0 6fbe a27e 253e 6c44 f73d aeed 493e
000003d0: 1040 133e 051e 0f3e 9987 a83e f2cc b13e
000003e0: 75a9 3a3e 9632 a13e e07c 7c3e 8c78 953e
000003f0: 04f6 e93d d4fc 41be 3e40 853e 1f18 383e
-0.3641611 -0.01778033 0.02272614 0.19455574 -0.076455496 0.30820456 0.25247234 -0.30084935
-0.054651387 -0.09356699 -0.2914413 0.16888228 0.16228999 0.053968396 -0.11911108 -0.14539897
0.28371376 0.25198147 0.2579103 0.22708118 -0.11057988 0.3123496 0.1404859 -0.22884507
0.011612098 -0.05941126 0.060818825 0.014187407 0.04394103 0.23842958 0.1177848 0.11591378
-0.09847311 0.06502185 0.02436471 -0.17564914 0.093517 -0.1857146 0.15024078 -0.29823962
-0.1600622 0.3928837 0.1669037 0.29022378 0.16262889 0.071452215 -0.2316159 -0.01763336
-0.2870169 0.119952485 0.17524919 0.15873651 -0.13058159 -0.117750525 0.08940836 -0.25577107
0.3640494 0.20416981 0.21728568 0.35053036 0.19714783 0.26009524 0.051024288 0.15349802
0.0023276638 -0.00060585124 0.0013493758 0.07070955 0.15045075 0.38787284 0.11535443 0.17141613
0.121199615 0.37741935 -0.052899137 0.14435399 -0.001216951 0.103519194 -0.15042692 -0.31437874
0.0809773 -0.25796685 -0.042196754 0.059444584 0.28679365 0.2305508 0.23053163 -0.12959675
-0.14263414 -0.41353267 -0.20913608 -0.120262824 0.0647274 -0.19651642 -0.2859622 -0.05369613
0.28636944 -0.017063865 0.037531484 -0.26592374 -0.1654362 -0.18203974 -0.3353003 0.031049822
0.3152399 -0.13755433 -0.16097479 -0.09226074 -0.018281993 0.13892102 -0.11474433 -0.1430969
0.31507075 -0.05872933 0.010059365 -0.1947804 0.18855698 0.30343485 -0.2049178 -0.06684113
-0.18504675 -0.38205796 0.2561341 -0.07872607 0.21682535 -0.14695999 0.16330314 0.0037964296
0.32240131 0.1275047 0.2087773 -0.084960945 -0.10861946 0.19837475 -0.10900424 0.12399934
-0.24417876 -0.08403202 0.22205082 -0.18383159 0.12018395 0.26925653 -0.04981942 0.123294376
0.39859188 -0.06543041 -0.105752155 0.09047874 -0.11073374 0.22961877 0.29027045 -0.26216778
-0.33711326 -0.13235357 -0.00977703 0.016859358 -0.02927995 0.086493984 -0.01171879 0.20261586
-0.057805695 -0.15524378 -0.1789828 -0.30707666 0.21975589 -0.040450357 0.24528937 0.15211394
0.24838963 0.33557335 -0.09785898 0.18605688 0.21391492 0.21231523 0.077611774 0.16742791
-0.073379636 0.083607346 0.12486426 -0.29420215 -0.07112319 0.047348958 -0.10323707 0.24706681
0.44179997 -0.08309407 -0.2609056 -0.24709411 -0.29965398 -0.11656271 -0.08742261 -0.103320144
0.02126404 0.28544617 -0.014911981 -0.36541146 0.052123357 -0.24615279 0.07009262 0.1836308
0.15041079 0.03634753 -0.1696125 -0.05481565 0.079842925 0.011702343 0.016141657 -0.039650854
0.30014908 -0.12594286 -0.31558353 -0.15100269 -0.5306601 -0.43358254 0.21130545 0.0833128
0.04810817 -0.11294663 -0.02359972 0.101250686 -0.03275218 0.103588134 0.23282076 0.067189075
-0.12314573 0.26518083 -0.3961942 -0.16749111 0.14942414 0.2110024 -0.02296104 0.12881452
-0.37081918 -0.111062616 0.16203545 0.041803874 -0.0033100229 0.022213515 0.09572209 0.0998669
-0.23413402 0.16161588 0.12073597 0.19719574 0.14379907 0.13976295 0.32915953 0.34726673
0.18228705 0.31483907 0.24657011 0.29193532 0.11423877 -0.18944103 0.26025575 0.17977951

net.0.bias f4 [64]
00000000: f311 42be 9b37 753e caa3 8c3e 5a1e 8a3e
00000010: 95cc c6bd 99ba fbbd c6b1 bebc 7bd6 c63e
00000020: 6dbc 38bc 4c0c 153e ce53 2e3a 3e5e aa3d
00000030: 0ade 853e 3ddd ab3c 4c39 a33e 892d ce3d
00000040: ea1b be3c 3055 cc3d 3b0b 20bd 45ae 5fbe
00000050: 9d8d 0cbd 6ecc d73d b4c7 2d3e a80d 993c
00000060: c005 773d 16a3 43be 6520 0fbe c74b 51be
00000070: ba0a 843e 693b 55ba 185e 783e d90f 40be
00000080: 5b12 2ebe 4112 813e 9806 ca3d 08e2 c03d
00000090: a828 6e3e 48bb 0ebe ba7a b1bd 70e1 373e
000000a0: 2c9a f2bc da74 de3d 677d 263d 0d9e 24be
000000b0: b553 88bd 8d70 563e e05c 97bd 0448 8c3d
000000c0: de88 97bd 9b59 c7bc d711 903e 2422 3a3d
000000d0: b3f6 d33e f6f2 81bd 4d0b 47bd d390 833e
000000e0: 510d eebd 3fe9 8f3e 6c69 c4be af4f 7b3c
000000f0: 7678 973d 8305 8c3e ce27 783d a4e5 b3bc
-0.1895216 0.23946993 0.2746871 0.2697628 -0.0970699 -0.1229145 -0.023278128 0.3883551
-0.011275393 0.14555472 0.0006650061 0.083187565 0.26145965 0.020979518 0.31879652 0.10067279
0.02320667 0.09977186 -0.03907321 -0.21843822 -0.03431474 0.10537039 0.16970712 0.01868327
0.060308218 -0.19105181 -0.13977201 -0.20439063 0.25789434 -0.0008134158 0.24254644 -0.18756045
-0.1699919 0.2520924 0.09864539 0.09418112 0.23257697 -0.1393863 -0.08665986 0.17957091
-0.02961453 0.108621314 0.040646937 -0.16075917 -0.06656591 0.20941372 -0.073907614 0.068496734
-0.07399152 -0.02433472 0.2813861 0.045442715 0.41399154 -0.06345169 -0.04859476 0.2569643
-0.11623634 0.2810764 -0.3836168 0.015338822 0.07396023 0.27347955 0.060584836 -0.021960087

net.2.weight f4 [64, 64]
00000000: d612 1f3e 4528 f2bd 45d2 a83c a495 133e
00000010: f41d 7fbd 6ea2 8ebd ccee 893d dcf2 85bd
00000020: cb04 21be 8596 85bd cf04 84bd f951 643e
00000030: 3dde cf3d 73c8 58be 2ca6 eb3d 7371 e23d
00000040: ecfe 17be ad71 963b 0362 d93b 55ad 8f3d
00000050: 86e7 53bd 4536 b53d f9d8 1ebe 21a1 64be
00000060: e7a4 4a3d d42c ea3d d71c 04be f212 aabc
00000070: c0af 133e 4063 08be d298 183e 9d8f a5bd
00000080: 2e79 cfbd 4ffc 6e3d e59e 8dbb 3207 bd3c
00000090: d8f7 983d 9d36 d03d 1f9a 4d3d e544 193d
000000a0: 8cc6 ee3d d7b8 c23d e2e7 e0bc e4a7 2b3d
000000b0: a3d8 c43d 43f7 a4bd 2b19 843d 2fcb c73d
000000c0: 3bf3 d0bd 235f 913d fe7b a33d 9e0f 283e
000000d0: e499 5abd 13b4 793d f106 da3d efd7 073e
000000e0: da21 9d3d 0e8f 113e 8980 833c 59ec c13c
000000f0: 70e4 753d e37a 18bd f401 93bd eee3 083e
00000100: 6ccb 81bd d274 7ebd 1563 4b3e d8a6 f63d
00000110: 48b5 453d 761e 8dba 6fd8 b03c 92e9 a6bc
00000120: 2a97 ea3d e651 233e 3037 81bb 7fe6 033d
00000130: ea37 4abe 4698 a0bd ffad a6bd 0680 ae3c
00000140: 203f 003e a64e 5f3d b64d a93d 7dd4 c9bc
00000150: 0d70 ff3d 60d5 5bbc 74b5 013e a284 1ebe
00000160: 6d0a 90bd 1bef 48bd b0af 853d a624 edbb
00000170: 0ffa d3bd e597 493d 55ce 1bbd d212 023e
00000180: 0d58 413d 3a3d e43d 7e78 483e 5812 99bd
00000190: 97f2 29bd 620c 693e 7be8 fabc 4c2e 823e
000001a0: 477e 413b d24b 4b3d 1299 1d3e 69b0 95bd
000001b0: 9bda dfbc 9427 143e 09ff ac3d ee8c b73c
000001c0: 3091 80bd dc5c 66be dd0c 393e ab48 0ebe
000001d0: 2e1c 4f3d ffa2 cbbd db0e d0bd 5e67 473e
000001e0: a64b 05be dfbf 2e3c e8ab 043e 9ad6 ea3d
000001f0: 7756 383d 9af7 7bbd 64cd 973d d731 a9bd
00000200: 1697 0cbd 0ed1 4abd 79b6 eb3c 1aea eebc
00000210: ff2c 143e 4627 253e 3ffa 103e 9cfd 243e
00000220: 3bbc c9bd 9dd6 aabd a86f 043e a068 32bd
00000230: 2cfa 8bbd 37a2 753e 93e6 debc ced8 8c3d
00000240: 2348 f63d fe4b d7bd 8da5 86bd 8542 cb3d
00000250: 2f32 26bd 45c2 71bd 0b28 6f3e 44b1 223e
00000260: 6b08 e3bd ea77 243d a4b2 06be b8d7 d33d
00000270: 31a6 19bc 23e9 823d 3b59 6abd b829 c2bc
00000280: 67a6 2e3e be4a a63d 14fa 63bd 2a3e 8ebd
00000290: d5fd 83bd 061f 81bd ab0e eb3d 3e4c 033e
000002a0: 3b5c 483d 6fa4 d53d 6ef2 213e f430 7fbc
000002b0: 5c20 f0bd 402f 5a3d 15f7 adbd 0cce d7bc
000002c0: b63c 553e 7a5c 0ebd 3c1c d5bc fbe8 10bc
000002d0: afc9 fc3d 8dcb 403e 7f51 903d 16b0 94bd
000002e0: 4c75 123e 6437 b93a 79cd 02bd dd88 81bd
000002f0: 530f 163e e579 6d3d ecc0 3cbe ec92 88bd
00000300: aeda 2cbe e966 503e e1f9 8e3d c89c d9bc
00000310: b28d ebbd 5099 14be 3222 65bc 8fce b33c
00000320: fe73 1f3c 683c 583d 7911 d5bd 21af bd3d
00000330: 9a63 e83a 78f6 b3bd c6b6 03be ff90 92be
00000340: 5ffa e6bd 62a3 b43d 0d6e 53bc a48f dbbd
00000350: f413 d9bd 0c97 99bd a7e5 ebbd fb53 3cbc
00000360: f1fd 16bd 46a5 923b 1436 1d3e f6ed 573e
00000370: 6208 6fbc 3893 b73d 01cf e9bc 9db1 563e
00000380: fcbb 8f3d a151 cc3d 47d4 1ebd c873 85bd
00000390: 094a fabd 7122 67be 3eca db3d 1cea bc3d
000003a0: 7812 13be 9966 f0bb f436 40be 76bb 28be
000003b0: 2d54 b33d 8c84 ab3c 9882 94be 399b 033e
000003c0: 24f8 043d 5b8f fdbd 21cc 13be 0677 fe3d
000003d0: 2846 e33b e8ce 84be 59fc 78ba 9732 7cbd
000003e0: e5e2 163e 33ef 033d d027 2d3d 12cd 563e
000003f0: d701 643e adb1 8e3d 8d50 bd3d 6273 3ebe
0.15534529 -0.11824087 0.020608077 0.14412552 -0.062284425 -0.06964575 0.06735 -0.065404624
-0.15724485 -0.0652285 -0.0644623 0.22296895 0.101498105 -0.21170215 0.11506304 0.11056795
-0.14843339 0.004591188 0.0066339984 0.07015482 -0.05173447 0.08848242 -0.15512456 -0.22327091
0.04947367 0.114343315 -0.12901627 -0.020760987 0.14422512 -0.13319111 0.14902046 -0.08084033
-0.10130535 0.05834609 -0.00432192 0.02307472 0.074691474 0.10166667 0.05019581 0.03741922
0.116589636 0.09507912 -0.02745432 0.04190816 0.09611633 -0.08054974 0.06450113 0.09755551
-0.102026425 0.07098224 0.07982634 0.16412207 -0.053369418 0.060962748 0.10645855 0.13265966
0.07672472 0.14214727 0.016052501 0.02367227 0.060032308 -0.03722657 -0.07178107 0.13368198
-0.06337628 -0.062123127 0.19862016 0.12043542 0.048268586 -0.0010766524 0.021587579 -0.020375047
0.114546135 0.1594921 -0.0039433464 0.03220224 -0.19747892 -0.07841544 -0.08138656 0.02130128
0.1252408 0.054518364 0.08266775 -0.024637455 0.12472544 -0.013417572 0.12666875 -0.15480283
-0.070332386 -0.049056154 0.0652765 -0.007237035 -0.10350429 0.049217124 -0.03803857 0.12702492
0.047203112 0.111444905 0.19577214 -0.07474202 -0.041491117 0.2275863 -0.030628433 0.25425947
0.002952473 0.049632855 0.15390423 -0.07309038 -0.027325919 0.14468223 0.084470816 0.022406068
-0.06277692 -0.2249636 0.18071313 -0.13894908 0.050563984 -0.099431984 -0.101590835 0.19473025
-0.13017139 0.010665863 0.12956202 0.11466713 0.045004334 -0.061515428 0.07412222 -0.08261459
-0.034323774 -0.049515776 0.028773533 -0.029164363 0.1447029 0.16128263 0.14157961 0.1611237
-0.09850355 -0.083417155 0.12933218 -0.04355681 -0.06834826 0.23987661 -0.027209556 0.0687729
0.12025478 -0.10512541 -0.06574545 0.09924797 -0.040575203 -0.05902316 0.23355119 0.15887934
-0.1108559 0.04015342 -0.13154083 0.103438795 -0.009378002 0.063921236 -0.057214003 -0.023701534
0.17055665 0.08119725 -0.055658415 -0.069454506 -0.06444899 -0.063047454 0.11477407 0.12822053
0.048916083 0.10431754 0.15815136 -0.015575636 -0.11724922 0.053267717 -0.08494393 -0.026343368
0.2082394 -0.03475616 -0.02601444 -0.008844609 0.123431556 0.18827648 0.07046794 -0.07260148
0.14302558 0.0014130888 -0.031934235 -0.06324933 0.14654283 0.057977576 -0.18432969 -0.06668648
-0.16880295 0.20351757 0.06981254 -0.026564017 -0.115016356 -0.14511609 -0.013985204 0.02194908
0.009732245 0.052791983 -0.10403723 0.09261919 0.0017729879 -0.087872446 -0.12862691 -0.28626248
-0.11278223 0.08820225 -0.012904656 -0.10720757 -0.10599509 -0.07499513 -0.11518412 -0.011494632
-0.03686327 0.0044752685 0.1535266 0.21086869 -0.014589401 0.089636266 -0.02854109 0.20966192
0.07018277 0.09976507 -0.038776662 -0.06516224 -0.12221152 -0.22571732 0.10731934 0.0922434
-0.14362514 -0.0073364493 -0.18770963 -0.1647776 0.0875629 0.020937227 -0.29005885 0.12852181
0.032463208 -0.123808585 -0.14433338 0.12425046 0.0069358535 -0.25939107 -0.0009498052 -0.061571684
0.14734991 0.03221054 0.042274296 0.20976666 0.22266327 0.06967483 0.092438795 -0.18598703

net.2.bias f4 [64]
00000000: 3df3 45bd 3323 113e cfe2 4c3d 62d9 f43c
00000010: caac b13d 8ed9 ea3d 9b2b 3d3d 63d9 f2bd
00000020: 3353 dd3c a24b 28bd 8f3a 2fbd 77c2 343d
00000030: bc2b 363c 0fd7 c83d 9e2b 9fbd 7612 353e
00000040: 5d01 bfbc 63ff 3a3b 7eba d53d e409 62bc
00000050: f700 d03d 1ee5 cb3d f7f5 503d cc33 1abe
00000060: 55df aabd 7f58 683d 4a90 d4bb a6f7 fa3d
00000070: 51df f03d 7947 8c3c ac1f 9cbd d880 bb3c
00000080: 5753 ef3c b7de 843d 4f73 bcbc 7bf7 cb3d
00000090: 5b41 d23d 5d1b 92bd f754 3c3e f134 593d
000000a0: d983 3f3e 2de5 6ebd 7f4e 293d 401c bb3d
000000b0: 99c1 05bc 8bd0 ec3d 1932 12bd b870 983d
000000c0: d9ea 6dbd ef18 5abd c369 8cbc 1e65 04be
000000d0: 57c6 d6b9 eef2 a13d aa40 c13d 173a d33d
000000e0: 81b7 c33d 0723 aabc d32c 32bb 6d8f babd
000000f0: aa7c bfbb 6140 2d3e 8eaa 243d fba1 063e
-0.048327673 0.14173584 0.05002099 0.029888812 0.08675535 0.114672765 0.046184164 -0.118578695
0.027017212 -0.041087754 -0.042780455 0.04413077 0.0111188255 0.09806644 -0.07771991 0.17682824
-0.02331608 0.002853357 0.10435961 -0.013796303 0.10156434 0.0995581 0.05101582 -0.15058821
-0.083433785 0.05672502 -0.006486927 0.122542664 0.11761344 0.017123925 -0.076232284 0.022888586
0.029214544 0.06487792 -0.023004202 0.099593125 0.10266372 -0.071341254 0.18391787 0.053029004
0.1870264 -0.058324028 0.041334625 0.09136248 -0.008163833 0.11563214 -0.035692308 0.074433744
-0.058085296 -0.053246435 -0.017140275 -0.12929198 -0.00040965035 0.07907663 0.09436162 0.10313814
0.09556485 -0.020768655 -0.0027187362 -0.091093875 -0.0058437185 0.1691909 0.040201716 0.13147728

net.5.weight f4 [4, 64]
00000000: 1e46 563e 4247 193d 4753 7ebe 06e5 4bbe
00000010: 1569 01bd 290b 3dbe e453 7d3c df7a 99bc
00000020: 419b 183e 0c41 d23d 0f86 0d3d a060 53bd
00000030: 50fa 36be f646 cfbc 3746 923d 704b babd
00000040: b503 c63d 6b7b 89bd 244a 253e 03eb 373e
00000050: 51e2 19be 80c0 6cbe 36e5 373d 2b08 c4bc
00000060: d77f f73b 9894 11bd 286c 003d 3a07 64be
00000070: 5016 12be 2844 0d3e 04f7 19be a9b2 b1be
00000080: 52cb a03c 9205 b53c 3bf2 c1bc 8197 9fbc
00000090: 9619 3ebe 0d43 183d cde3 25be 4dbf 863d
000000a0: be28 8dbe 64ce 1d3e c02b 0a3e 0d41 94bd
000000b0: 07c7 b8be 3c9b d23d 158d efbd cfa6 65bd
000000c0: 4e70 8c3c 75bf b0bd 182e d73d 9b38 b73d
000000d0: 7915 d738 f3df 4abd 4b2f 8bbe 0a9c 193d
000000e0: 644c 7abe d531 b43d b479 90be 2acf 573d
000000f0: 9348 1a3b 0611 82be 2c27 c63d aad4 b3ba
00000100: 7b4a aa3d 87ce 52bd 1828 6abe 6c93 713e
00000110: 57ea 9bbe a448 5c3e 0345 dbbe 5628 74bd
00000120: 264a 9e3d f12e 223e 2d16 40be d45a ae3d
00000130: a927 26bd d26f cabe df00 6dbe 4d28 cebb
00000140: 8613 13be 42fa 24bd d2cd c9be c11e 51be
00000150: 240c 4a3e 7271 723e 5af3 afbe d612 283d
00000160: b0d9 66be 1047 473d 2ab5 9bbe 91cc bc3b
00000170: 3fd6 823e 94c7 97be 64cb 643e 1da3 41bd
00000180: ed6a 353d 4aca 1fbe 15c8 553e f0d4 91be
00000190: 4ca1 a53e da46 55be 4819 e8bc 7289 9dbe
000001a0: 1619 883e 3a8a c3be eda4 3c3c 5133 55be
000001b0: 9ef3 7abe ce00 24be 1011 92be a447 3a3d
000001c0: fd5a 933d 1c13 343d 7551 c73d 74fd 4a3d
000001d0: 417c 40b9 a18e 103e 9b6a 1b3e eea2 473e
000001e0: ae6c 473e 662f 7dbd e22b 333e 3744 9abe
000001f0: 43e3 7f3e 05e3 0abd 5129 dabe ebb5 533e
00000200: d102 8dbd 6bf4 89be d115 c43d 2399 ed3d
00000210: ac80 3bbe 27ab 3ebe 6ca6 3a3d c962 cebe
00000220: b2a5 1b3e 7eaf b83d 6765 a7be 1852 843e
00000230: bdb8 82be 55a8 ddbd 02e9 3abe e3a1 6c3e
00000240: f4f9 923d 193a cdbe f3b5 edbd cf2b de3d
00000250: f07a c1bd f304 89be 1f1c 20be d06c 6e3e
00000260: 3248 0c3e ae89 863e 3942 a83d f158 7d3e
00000270: 3761 273e bedc 2e3d 791b 3e3e 96ff e13b
00000280: e730 9dbe 2b6d 2dbe 932a a13c cd07 54be
00000290: 26ec a6ba b07e 2e3e 318c 8bbe 70ff 0dbe
000002a0: fdc0 9f3e 5cac ccbd 8884 163e a215 b03d
000002b0: 58ed 483d 4d65 6fbe edd3 12be e8e2 903e
000002c0: 434d 4f3e df5b 9a3e 1a34 563e cc25 ecbd
000002d0: b994 6f36 5235 59be 3bad ff3e c8bf 673e
000002e0: 19f2 0e3e af3a 343e a481 19bc fe81 39be
000002f0: a12e bc3c 3727 b7bd 18b5 02bd 1568 283e
00000300: 46f0 78be d70d 803e f72e 1b3e e22f 7cbe
00000310: 8460 e73c c757 9f3e 8bbc 473e 2dcf 983e
00000320: 822a a5be 9947 b2be b388 8f3d 92f6 84be
00000330: a90a 823e a774 62bc 4942 dcbd 421e 52be
00000340: be21 85be 484a 0d3e 7981 04be 82db a7bd
00000350: 5b33 a03e 5400 823e c6dd ecbd 1ce6 26be
00000360: 4869 13be 1ead 90be 9af3 6ebd 573d 0bbc
00000370: a643 643e cda3 13be b6c2 9abe 43cf f03c
00000380: e91a fc3d 7fea 423e 91e8 973d e5fc 2ebd
00000390: e1f9 e83d a29d 6dbe 809f 143e e653 133b
000003a0: da2c 71be 2de8 31be aee7 6abe 58ec 13be
000003b0: 2b62 a83e 6485 c93d bd5b 853d e1e6 6bbe
000003c0: 4336 68be e0e7 91be d04e 9fbe 82de 83bc
000003d0: a5a5 b3b6 898c 9c3d fd30 d1be d93f 9fbe
000003e0: b032 633e f1c7 b7bd 6419 353e 429c d73c
000003f0: 9733 9b3d 2f7f b93d 5d37 20bd 4ff3 133e
0.20925185 0.037421472 -0.24836455 -0.19911584 -0.031594355 -0.18461289 0.015461896 -0.018735347
0.14902975 0.10266313 0.034551676 -0.05160582 -0.17868924 -0.025302391 0.07142299 -0.0909642
0.09668676 -0.06712993 0.16141564 0.17960744 -0.15027739 -0.23120308 0.044896327 -0.023929676
0.0075530815 -0.0355421 0.031353146 -0.22268382 -0.14266324 0.13795531 -0.15035635 -0.3470662
0.0196282 0.022097383 -0.023675075 -0.019481422 -0.18564448 0.03717332 -0.1620018 0.065794565
-0.27570146 0.15410763 0.13493252 -0.0723897 -0.36089346 0.10283515 -0.11696831 -0.056067284
0.017143395 -0.086302675 0.105068386 0.089463435 0.000102559985 -0.04952998 -0.2718452 0.037502326
-0.24443203 0.08798567 -0.28217852 0.0526878 0.0023541793 -0.25403613 0.0967544 -0.0013719995
0.08314987 -0.05146649 -0.22866857 0.23591393 -0.30452225 0.21512085 -0.4282609 -0.05960878
0.077289864 0.15838219 -0.1875846 0.08513418 -0.040565167 -0.39538437 -0.23144864 -0.0062914253
-0.14362916 -0.040277727 -0.3941484 -0.20421888 0.19731194 0.23676088 -0.3436535 0.04103359
-0.22543979 0.048651755 -0.30411655 0.005761691 0.25554082 -0.29644454 0.22343212 -0.047274698
0.044291425 -0.15604511 0.20877106 -0.2848277 0.32349622 -0.20827809 -0.028332368 -0.30768925
0.2658164 -0.38191396 0.011513931 -0.20820357 -0.24506995 -0.16015932 -0.28528643 0.045478478
0.07195089 0.043963537 0.097323336 0.049558118 -0.00018356835 0.14116909 0.15177386 0.19495746
0.19475052 -0.06181278 0.17497209 -0.3013017 0.24989037 -0.03390791 -0.42609647 0.20674865
-0.06885303 -0.2694429 0.09574474 0.11601474 -0.18310803 -0.18619977 0.04556887 -0.40309742
0.15199926 0.090178475 -0.3269455 0.25843883 -0.2553157 -0.108231224 -0.18252948 0.2310863
0.07176581 -0.40083387 -0.1160697 0.108481996 -0.094472766 -0.26761588 -0.15635727 0.23283696
0.13699415 0.26276916 0.08215756 0.2474096 0.16345678 0.042690985 0.18565167 0.0068969233
-0.30701372 -0.16936176 0.019673621 -0.20706101 -0.0012735173 0.17040515 -0.27255395 -0.13866973
0.31201926 -0.099938124 0.14698994 0.08597876 0.049054474 -0.23378487 -0.14338656 0.28298116
0.20244317 0.30148217 0.20918313 -0.11530647 3.5700343e-06 -0.21211746 0.49936852 0.22631752
0.1395954 0.17600511 -0.009369288 -0.18115994 0.022971453 -0.089430265 -0.031910986 0.16445954
-0.24310407 0.2501056 0.15154634 -0.24627641 0.028244264 0.31121656 0.19505517 0.29845563
-0.32258993 -0.3482025 0.07008495 -0.25969368 0.25398758 -0.013821757 -0.107548304 -0.20519355
-0.26002306 0.13797867 -0.12940015 -0.08196165 0.3128918 0.25390875 -0.115657374 -0.16298717
-0.1439563 -0.28257078 -0.058337785 -0.008498511 0.22291431 -0.14417954 -0.30226678 0.029395705
0.1230982 0.19034766 0.074174054 -0.042721648 0.113757856 -0.23204663 0.1451397 0.0022480427
-0.23552266 -0.17373724 -0.22939941 -0.14445627 0.32887396 0.09839895 0.06511638 -0.23037292
-0.22676949 -0.2849722 -0.31114817 -0.01609731 -5.3538993e-06 0.076439925 -0.40857688 -0.311034
0.22187304 -0.08973683 0.17685467 0.026319627 0.07578199 0.090574615 -0.0391153 0.14448284

net.5.bias f4 [4]
00000000: 1954 d0bd 6b29 983c a297 993d c1bb ef3d
-0.1017229 0.018574437 0.07499625 0.11705733

mean f4 [1, 16]
00000000: 7daf 0542 0634 4641 ca8f 5241 c75c 6441
00000010: a0ac 8341 f6ab a741 faf9 e041 d61d 0f42
00000020: c1fc 2342 0843 1842 366a ec41 ece0 bf41
00000030: 3e78 9741 8f1f 7241 c3b1 4941 dd01 3e41
33.421375 12.387701 13.160105 14.272651 16.45929 20.958965 28.122059 35.779137
40.99683 38.06546 29.55186 23.984825 18.933712 15.132705 12.605899 11.875455

std f4 [1, 16]
00000000: e5bb 6341 e208 3841 67c1 4a41 8e0a 4d41
00000010: 99ea 5e41 003e 8541 76b5 9d41 8e77 a841
00000020: c38c bf41 ea6a bb41 982e a641 f075 a041
00000030: 7d4b 8d41 96d3 6341 dc38 1c41 2650 0241
14.233373 11.502169 12.672217 12.815077 13.932275 16.655273 19.713604 21.058376
23.943731 23.427204 20.77275 20.057587 17.66186 14.239157 9.763882 8.1445675
