controller_multilabel_15e_128_G.pt (torch, 80721 bytes, 8 tensors)

net.0.weight f4 [128, 16]
000000 27 17 08 be e3 5e 62 3e ba a6 28 bd 80 c0 27 3e
       -0.13290082 0.22106509 -0.041174628 0.16382027
000010 10 d9 95 be 55 1c 9f bd bf b9 b0 be f0 08 64 3e
       -0.29267168 -0.07769076 -0.34516713 0.22269034
000020 77 0d ff 3c 7f 42 a0 3e dc 17 2d 3e 57 be 57 bd
       0.03113435 0.31300732 0.16903633 -0.052671757
000030 04 91 13 be 85 80 85 3e 4f 46 01 be 65 ec b9 3e
       -0.14410788 0.26074615 -0.12624477 0.36313167
000040 83 30 9b be 8f c4 0a 3e b6 43 43 be b1 d3 26 3e
       -0.3031045 0.13551544 -0.19068798 0.16291691
000050 81 bd b2 be 8c a7 cc be 56 4f d1 bd fc 1d 5d be
       -0.34910205 -0.39971578 -0.1022021 -0.2159347
000060 47 b7 8d 3d f3 9b d7 3d 80 76 07 be 3d fb da bd
       0.06919723 0.10527792 -0.13228798 -0.10692451
000070 60 24 a7 bd 53 e0 62 be ed 7a f0 3d c7 0d 93 bd
       -0.08161235 -0.22155885 0.11742196 -0.07180362
000080 31 0d 5a be ab c6 64 be 7e 16 ab be 2a 1a cd 3b
       -0.21294095 -0.22341411 -0.33415598 0.0062592225
000090 79 77 55 3e 2c 43 46 3e be 44 ac 3e ee ce e0 3d
       0.20846356 0.19361562 0.33646196 0.10976969
0000a0 1a f0 f3 3d ec f8 e4 3c 81 87 55 be 30 4c b8 bd
       0.1191103 0.027950726 -0.20852472 -0.089989066
0000b0 95 39 32 3d 49 e9 75 3d a2 e9 37 3e 30 9a ef bd
       0.043511946 0.06003693 0.17960218 -0.11699331
0000c0 39 28 9f 3e 1e 0e 50 be df 28 6a 3e d8 39 63 3e
       0.31085375 -0.20317885 0.22867154 0.22190034
0000d0 82 87 ba 3d c4 65 48 3d 46 df 69 3d b6 3a e4 bd
       0.09107877 0.048925176 0.057097696 -0.11144011
0000e0 cb b2 93 be 10 c2 a1 bd 36 b4 2b be 07 cd 1a be
       -0.28847346 -0.078983426 -0.16767964 -0.15117274
0000f0 1e d7 30 be a5 28 42 be ac dc a0 bd 95 61 3a 3e
       -0.1726956 -0.18960817 -0.0785459 0.18201287
000100 a1 b0 83 be dc 5c c8 be 30 80 c5 3d f7 5f 44 3d
       -0.25720695 -0.39133346 0.096435905 0.04794308
000110 5e f5 2f 3e 6b 2d 7b be 37 cf 04 3c 71 94 93 bd
       0.17183444 -0.24529044 0.0081060445 -0.07206047
000120 6b 33 a8 3e 75 da c2 3e 40 d5 7a 3c 4e f9 61 be
       0.3285173 0.38057294 0.015309632 -0.22067758
000130 0b 67 34 3e 70 aa ba 3c 5d ed 73 3e e5 5c 15 3d
       0.17617433 0.022786349 0.23821016 0.036465544
000140 fa 4e bb bb f4 d7 f3 3d 10 4a bc be bf 69 b9 be
       -0.005716202 0.11906424 -0.36775255 -0.3621349
000150 14 b9 d4 3d 3d cd 1e 3e b8 51 bd 3e 62 a5 89 3e
       0.10386863 0.1550798 0.3697641 0.2688399
000160 a4 45 b5 bb 50 8e d3 be 46 f6 81 be 25 54 4f bd
       -0.0055319835 -0.41319513 -0.25383204 -0.050617356
000170 9f 49 59 be 29 ff ea 3b 27 31 2b 3e 7a 3f 05 be
       -0.2121949 0.0071715307 0.16717969 -0.13012496
000180 50 a1 bf 3d 07 95 14 3c c2 37 a4 3d 99 35 2e be
       0.0935694 0.009068734 0.080184475 -0.17012633
000190 7d b4 de 3d ac 73 4c 3d a2 a5 b5 be 5e 6a 81 3e
       0.10874269 0.049915 -0.3547793 0.25276464
0001a0 d6 cd 62 be 12 fb 31 be 24 24 af 3e 98 21 4d be
       -0.22148833 -0.17380932 0.3420726 -0.20032346
0001b0 36 8f 61 3d 4c 80 0f be 3f 2e 15 be fe 3d 3a 3e
       0.055068217 -0.14013785 -0.14568423 0.1818771
0001c0 01 91 81 3e 57 6d 51 be 1a bb 3f 3e 72 62 97 3d
       0.25305942 -0.20451866 0.18723717 0.07391824
0001d0 2f 64 ce 3d bb 9f 97 3d 43 da 7c 3e d8 86 41 3e
       0.10077702 0.07403513 0.24692635 0.18899095
0001e0 ba 9e 66 3e 75 e5 bf 3e c3 78 41 3e a2 fc 10 3e
       0.22521487 0.3747975 0.18893723 0.14158872
0001f0 9e 42 e0 3d fc 17 f2 bd 55 e0 c7 bd 57 3c 2d 3e
       0.10950206 -0.11820981 -0.09759585 0.16917549
000200 58 fa 3f 3d 0a 74 82 3e 6e fe 94 3e c0 14 36 3e
       0.046869606 0.25479156 0.29100364 0.17781353
000210 18 48 9a bd b7 d6 17 3e d5 b0 c0 3d ad 38 e4 3c
       -0.07533282 0.14828001 0.09408728 0.027859056
000220 fb 84 ff 3d ab ee b1 3b 8f 98 70 bd 45 bc 5b 3e
       0.12476536 0.0054300628 -0.05873924 0.21458538
000230 e0 66 f0 3d 57 6b 3f be 8c ef c5 bc 0c 1b c2 3d
       0.11738372 -0.1869329 -0.024162076 0.09477815
000240 a2 3b b3 3e dc 8b 36 3e bd 6b 01 bd e3 25 48 be
       0.35006434 0.1782679 -0.031596888 -0.19545703
000250 a2 51 4d 3e 85 8e cd 3d 4c 25 ec 3d 1f 59 54 be
       0.20050672 0.10036949 0.11530551 -0.20737122
000260 4a 0d ff bd ef 03 a1 3d ca 9d c2 be 37 6b b5 3d
       -0.124537066 0.078620784 -0.38011009 0.0885834
000270 91 7a 2b bd 80 62 86 3b 25 9e b7 3c 73 f5 4b 3d
       -0.041864935 0.0041010976 0.022414276 0.049794625
000280 97 46 02 be bf db 33 bd 07 eb be 3d b6 1f d3 3d
       -0.1272224 -0.043910738 0.09322172 0.10308783
000290 04 e2 92 bd 03 a6 e8 bd 19 c5 39 be 78 15 6f be
       -0.07172015 -0.11359789 -0.18141593 -0.23348033
0002a0 e7 42 1d 3e 1b b5 b2 3e 64 11 84 3e 88 4e 1e 3d
       0.15357552 0.34903798 0.25794518 0.038649112
0002b0 37 7e e0 3d 33 bd 7f be d3 06 09 bd 1c 0f 47 bd
       0.109615736 -0.24974518 -0.033453774 -0.048598394
0002c0 75 f4 68 3e b3 44 3a 3e f1 67 9a be f9 0f 74 bd
       0.22749503 0.18190269 -0.30157426 -0.059585545
0002d0 5c ea 53 3e f6 57 b6 bd bb a6 02 3e 8d ba 92 bc
       0.2069487 -0.08903496 0.12758915 -0.01791122
0002e0 13 ae ab be 90 b8 0f 3d 47 b1 a1 3d 28 de 01 3e
       -0.33531246 0.035088122 0.07895141 0.12682402
0002f0 91 83 0d be eb fe e4 bb d7 97 12 3e 45 a0 bc bd
       -0.1381972 -0.0069883964 0.14315735 -0.092102565
000300 58 65 36 be dc 6d 8a be 1a e2 d5 bd d2 39 a9 be
       -0.17812097 -0.2703694 -0.10443516 -0.33051926
000310 6c 04 38 3e 26 d2 56 3d 06 68 5a 3e 93 33 a5 3e
       0.17970437 0.052446507 0.21328744 0.3226591
000320 05 cb ce 3d 34 9b 5b 3d 90 38 9b 3d 6a 20 07 3e
       0.10097317 0.05361481 0.07579148 0.13195959
000330 6c e6 f7 3d b0 df e2 3c 6c b8 2f be 93 7e 75 3d
       0.12104496 0.027694553 -0.17160195 0.059935164
000340 b6 10 ad 3e 3d 67 be 3d 27 f7 a5 3d e4 38 87 3d
       0.33801812 0.09297035 0.08103781 0.06602648
000350 0d 4c 3c 3e 62 af 8f 3e b0 7c 60 be f3 6a ff bc
       0.18388386 0.28063494 -0.21922565 -0.031178927
000360 eb ac 7d bd e6 6e b5 bd 85 90 8d be 6e 9c 0d be
       -0.061932486 -0.08859043 -0.27649322 -0.13829204
000370 21 d3 2b be d2 e3 a9 bc 86 6a c5 bc d4 54 2b 3d
       -0.16779758 -0.020738516 -0.024098646 0.041828945
000380 66 15 5c 3e fd e3 19 be 58 99 26 3e 65 67 88 bd
       0.21492538 -0.15028377 0.16269433 -0.06660346
000390 28 38 30 be ab 1e be bc ba 7e 8b bd 62 af b5 be
       -0.17208922 -0.023207983 -0.068112805 -0.3548537
0003a0 76 4e 8d be 89 a8 8f 3d 83 a5 45 be 1a 16 ef 3d
       -0.27598923 0.070145674 -0.19301419 0.116741374
0003b0 60 18 a5 bd 72 1c 28 be 52 13 37 be 34 e1 15 be
       -0.0806129 -0.16417101 -0.17878464 -0.1463669
0003c0 12 c8 c1 be 41 9a 62 bd 4a 56 2c 3e 44 da 08 3e
       -0.37847954 -0.05532289 0.16829792 0.13364512
0003d0 c1 3d 00 3e e8 1e 2d bb 10 17 83 3e f8 04 2d be
       0.12523557 -0.0026416127 0.25603533 -0.16896427
0003e0 d3 e0 f0 bd 3b 17 75 be 51 9f 81 3e 89 0a b3 3b
       -0.11761632 -0.23934643 0.2531686 0.0054639024
0003f0 2c 70 46 bd cc f1 a8 3b 56 bc 38 3e 75 53 cc 3d
       -0.04844682 0.0051557776 0.18040594 0.09976856

net.0.bias f4 [128]
000000 b4 6f 4a 3d 14 53 22 be 44 34 be bd aa 28 2d be
       0.049422935 -0.15852004 -0.092873126 -0.16910043
000010 31 e0 60 3e b7 cb 06 be 8e 55 95 3d 2b 3f 24 bc
       0.21960522 -0.13163649 0.07291709 -0.010024826
000020 39 00 ce be c3 fd 75 3e 06 ac 8e 3e f7 70 85 3e
       -0.40234545 0.24022584 0.27865618 0.26062748
000030 3d d6 0b 3e 39 36 3e 3e cd 6c 75 be 34 a2 b6 be
       0.13655944 0.18575372 -0.23967285 -0.35670626
000040 10 3b 36 be 9f 71 13 be 6b 6b 23 be a9 de 37 be
       -0.17795968 -0.14398812 -0.15958945 -0.17956032
000050 de 92 3e bd d6 ac 5b be ed 7e 0a 3c 96 2d 13 3e
       -0.046526782 -0.2145265 0.008453113 0.14372858
000060 41 27 08 3e e7 eb 50 bd 83 2a 2b be b5 99 c3 bd
       0.13296224 -0.051006224 -0.16715436 -0.09550802
000070 49 c3 00 be 48 3e 00 be 31 e7 55 3e 7d db 9a 3d
       -0.12574495 -0.12523758 0.20888974 0.07561395
000080 69 b2 22 be 53 66 8a be ac 60 96 3d 3f 99 4b 3c
       -0.1588837 -0.27031192 0.073426574 0.012426673
000090 44 18 84 bd 37 07 13 3e cb c5 89 be e8 4c d4 3d
       -0.06449941 0.14358221 -0.26908717 0.10366231
0000a0 69 68 60 3e 02 5e d5 bc bf fa 81 be 3f 7b 57 3d
       0.2191483 -0.026045803 -0.25386617 0.05260777
0000b0 24 d3 a2 3b 5e be 52 3e dc 8f 7f 3e 56 b2 59 be
       0.0049690176 0.20580432 0.24957222 -0.21259436
0000c0 e3 20 b6 3e 53 10 1a 3d f2 34 4b be c0 94 e5 3d
       0.35571966 0.037613224 -0.19844416 0.112100124
0000d0 67 b5 33 be f1 d0 49 3e 43 0a 2c bd 68 93 13 be
       -0.17549668 0.19708611 -0.042001974 -0.144117
0000e0 fc 59 a7 be 67 e0 38 be 57 6d ba bd 0a 56 4d 3c
       -0.3268584 -0.18054353 -0.09102886 0.01253272
0000f0 e3 59 e5 3d 1d 28 f8 bd 7b f0 20 be b3 43 80 3e
       0.11198785 -0.12117026 -0.15716736 0.2505165
000100 8e 68 8a 3e d6 99 99 be 4a b5 cd 3d cb 09 7f bd
       0.27032894 -0.3000018 0.10044344 -0.0622652
000110 89 9b e8 bd f2 cd be bc ed 5a 7b 3e 0b 32 90 3c
       -0.11357791 -0.023291562 0.24546404 0.017601987
000120 09 43 a8 3d b7 94 01 3e 5c 8f a3 3e 8f da 3f be
       0.08215911 0.12654386 0.31945312 -0.18735717
000130 cf 81 90 3e e4 16 66 3e 34 c1 aa bd 76 78 25 3d
       0.28224036 0.2246967 -0.08337632 0.040398084
000140 44 61 8c be ea 8a 14 3e 4f ba 02 3d 76 17 6a 3e
       -0.27417958 0.14506117 0.03191596 0.22860512
000150 5a a1 87 3e c9 17 d3 bd 77 7e 05 3d 38 c6 ff 3c
       0.2649029 -0.10307271 0.03259131 0.031222448
000160 7a 5f 89 be 13 6d 30 bd 2a 44 9d 3d 81 cd fe 3d
       -0.26830655 -0.04307277 0.07679017 0.124415405
000170 49 9f 67 bd fb 83 a1 bd 5e 0d 98 3d 27 22 81 be
       -0.05654839 -0.078865014 0.074244246 -0.2522137
000180 c3 38 87 3d a6 35 b1 3e 10 4b 8d 3e 18 2d 49 be
       0.06602623 0.34611243 0.2759633 -0.19646108
000190 ad 66 b4 bd 06 40 f5 bc 9e 3a cd 3d 34 ec 61 3e
       -0.08808646 -0.029937755 0.10020946 0.2206276
0001a0 fe 27 0e 3e f6 78 8a 3d bd 2b 41 3c 8e 66 12 be
       0.13882443 0.06761353 0.011790213 -0.14296934
0001b0 af 74 10 3e 34 7d a2 3d c4 c4 89 be 1e 9d 87 3e
       0.14107011 0.07934037 -0.26907933 0.26487058
0001c0 4c 36 3e 3e 41 1e 71 3e b6 69 09 3d 69 34 24 3e
       0.185754 0.23546697 0.03354808 0.16035618
0001d0 6b 06 a2 bd 6b b0 9a 3d 31 14 d2 bd 41 f8 70 be
       -0.079113804 0.0755318 -0.102577575 -0.23532201
0001e0 94 52 88 be 4d af 62 bd 6d 30 3a be db 16 03 bc
       -0.26625502 -0.05534296 -0.18182535 -0.008001055
0001f0 03 d5 03 be 45 a8 0d be d7 62 8b bd 7e 99 03 be
       -0.12874226 -0.13833721 -0.068059616 -0.12851521

net.2.weight f4 [128, 128]
000000 ce 64 f6 3d 5e 80 a5 3d eb 51 3f bc c6 08 c4 bd
       0.12030946 0.08081125 -0.011677246 -0.09571986
000010 3c 36 9e 3c 35 46 a2 bd ab 0d df 3c 54 b9 83 3d
       0.01931297 -0.07923547 0.027228197 0.06431833
000020 0c b1 e6 3d c3 b7 be bd 94 79 de bc 98 0f 54 bd
       0.11264238 -0.093123935 -0.027157582 -0.051772684
000030 22 66 a1 3d 13 c1 06 3d c4 01 f5 3c 38 57 4d be
       0.078808084 0.032898974 0.029908068 -0.20052803
000040 cb 91 1f bd 47 e3 03 3d 59 4b 49 be ca 8d 95 be
       -0.0389574 0.03219917 -0.19657649 -0.2920974
000050 d7 d2 f9 3d 0b b0 cd 3d 6b 5f b7 bc 8c 75 5c 3c
       0.12198418 0.10043343 -0.022384366 0.01345576
000060 2d 29 06 be 3e 64 37 3b 87 6d e8 3c a4 d7 87 3d
       -0.13101645 0.0027983333 0.02837254 0.06632927
000070 62 03 b1 3d 32 fd 4e b9 79 6c 06 bc fd 23 9c bd
       0.08643223 -0.00019740014 -0.008204573 -0.07624052
000080 27 49 99 bd e9 53 d8 3d 55 0f 14 bd 23 52 10 bc
       -0.07484656 0.105628796 -0.036147434 -0.008808645
000090 a6 ea 0e be d9 13 81 3d 51 0b b2 bd ae c7 9b be
       -0.13956699 0.06302614 -0.08693565 -0.3042578
0000a0 c4 40 5b 3d 49 d2 22 be df f2 83 bd a7 3e a1 bc
       0.053528562 -0.1590053 -0.06442808 -0.019683195
0000b0 ad f6 da bc 50 78 0f 3d d5 bd d8 bc fa 14 0f 3b
       -0.026728952 0.03502685 -0.026457706 0.0021832571
0000c0 72 fe 34 3d 17 9a c7 bd fa 10 c3 3d 47 7f fa 3d
       0.04418797 -0.09746187 0.095247224 0.122313075
0000d0 7b 4e d4 bd df 08 00 3e 3a ab d4 3d 82 4e 04 3e
       -0.103665315 0.12503384 0.103842214 0.12920573
0000e0 80 bc 95 3d e1 fc 16 be 9a 09 9e bd 19 06 4e 3b
       0.07311344 -0.14744903 -0.07716675 0.003143674
0000f0 7f 33 fa 3b 2b 86 54 bc 69 e1 ac bd 5a 58 b1 3c
       0.0076355333 -0.012971441 -0.08441431 0.021648575
000100 84 e5 0e bb f8 47 6b bc 43 5f 8b bd 4d bd 01 be
       -0.0021804282 -0.01436042 -0.06805279 -0.12669869
000110 4e 26 ab 3c 2c b4 cf 3c 53 ba 9d 3d e6 e2 21 be
       0.020892289 0.025354467 0.07701554 -0.15809211
000120 b4 9b 21 be 34 bd 46 bb 9a 99 7e 3d 3b 4b 98 3c
       -0.15782052 -0.0030325176 0.062158205 0.01859056
000130 7c 46 39 3d ff 81 dc 3d 83 aa cc 3d a2 55 f2 3d
       0.045233235 0.10766982 0.0999346 0.118327394
000140 b9 ea 4b bd f7 73 20 3e b3 76 dd 3d 87 f1 28 3e
       -0.049784396 0.15669237 0.10813656 0.16498385
000150 b4 cd be 3d a9 fd d4 3b c3 bc 62 bd 32 07 08 be
       0.093165785 0.006499965 -0.0553558 -0.13283995
000160 4c c5 21 3c 93 b0 09 be ab d6 93 bd 32 5e e7 bc
       0.009873699 -0.13446264 -0.07218679 -0.028243158
000170 5b 01 42 bd b9 7e d8 bc c0 29 b8 3c 3a 2e 06 3e
       -0.047364574 -0.026427614 0.022480845 0.13103572
000180 88 da b1 3d 52 04 83 3d a8 6a 77 3c 5f b6 17 bc
       0.0868426 0.063973084 0.015101112 -0.009259789
000190 47 fd ed 3d bb a5 18 3d 66 dc aa 3d e2 15 6d 3d
       0.116205744 0.037267428 0.08342819 0.057882197
0001a0 d4 30 da 3d bb cd eb bb 2a 05 f2 3d e6 86 a5 3c
       0.106538445 -0.007196156 0.11817391 0.020205926
0001b0 b9 e3 0b bd 5a 88 08 bd f4 26 8a bc c4 9a b8 3d
       -0.03415272 -0.03333316 -0.016864277 0.09013894
0001c0 96 06 c3 bd 24 42 df bd 37 8b c3 bd 56 ab 07 3d
       -0.095227405 -0.10901287 -0.095480375 0.033122383
0001d0 51 10 48 be 3f 6a 09 3d a3 0d c6 bd 2d d8 0b 3d
       -0.19537474 0.03354859 -0.0967057 0.03414171
0001e0 da b3 83 be 4d 06 2d 3c 11 bb 3c bd 61 4f 21 bd
       -0.25723153 0.010560584 -0.046076838 -0.039382342
0001f0 ff da b9 3d 8c 85 c9 bd 77 4d 2f 3d d2 e7 d8 bc
       0.09074973 -0.09839925 0.042798486 -0.026477728
000200 87 01 0f 3e 23 b1 b0 3b 95 c3 c5 3d c5 96 02 bd
       0.13965426 0.00539221 0.09656445 -0.031882066
000210 65 f5 d4 3d a3 cb 30 bd 9b 4e 57 bc 10 f5 a1 3d
       0.10398368 -0.043162953 -0.0131413 0.0790807
000220 84 25 01 3e ba f0 09 be 0a 20 9f 3d f5 be 4e bd
       0.12611967 -0.13470736 0.07769783 -0.05047508
000230 6c ba 68 ba a4 ee a2 bd 9a 65 3a bc b7 e3 6e be
       -0.00088778767 -0.07955673 -0.011376763 -0.23329054
000240 8e 22 09 3d 11 7a c0 bd 8b ee 03 be 83 47 47 be
       0.03348022 -0.09398282 -0.12883966 -0.19460873
000250 12 38 9e ba e0 1b 60 3d 4d 3b 9b 3d 8d 51 94 bd
       -0.0012071154 0.054714084 0.0757967 -0.07242117
000260 91 2e d6 3b 32 fc 40 3d 74 6f 23 3d 0f dc 6e bd
       0.006536313 0.047115512 0.03990121 -0.058315333
000270 ae 7f 1d 3d f9 28 96 bd 25 46 09 3e 1d 7d 22 be
       0.038451843 -0.07332034 0.13405664 -0.1586804
000280 03 49 54 3c aa 90 cb 3d 6b 3c 67 bc 39 d9 a2 3d
       0.0129568605 0.09939702 -0.014113526 0.07951588
000290 6e 16 8a bc 43 59 05 3e 4f 6a d2 bd 99 62 31 be
       -0.016856398 0.13022332 -0.10274183 -0.17322768
0002a0 73 84 0a bc 67 1d f1 bd 6c 86 29 be 6b 57 50 3c
       -0.00845443 -0.11773186 -0.16555184 0.012716155
0002b0 00 1a 0c be 3d ea f1 3c 00 1f 05 3d 0e 3e 5f bd
       -0.13681793 0.029530639 0.032500267 -0.05450254
0002c0 eb ee fa 3d 57 7c d2 bc 1a c7 89 bc dc 6d 06 3e
       0.12252601 -0.025694055 -0.016818572 0.13127846
0002d0 3f 61 2d bd 77 00 1d 3e c0 d3 bf 3c 59 17 94 3d
       -0.04232907 0.15332209 0.0234164 0.07231016
0002e0 c4 70 9f bc f5 2e 2c bd 7f bb 84 3c f6 9d 9a 3a
       -0.01946295 -0.04203697 0.016202686 0.0011796344
0002f0 6a 6b c8 3c 43 46 16 bd be dc 9e bd d2 6e a7 ba
       0.024465282 -0.0366881 -0.07756947 -0.0012774116
000300 f3 d7 a4 3d c3 4e 8b 3c b8 ab 5a 3d 74 49 ac 3c
       0.080490015 0.01700533 0.05338642 0.021031119
000310 3e 3f dd bd ad ae 98 bd c4 28 d3 3d ce e1 23 be
       -0.10803078 -0.07455192 0.1031051 -0.16004106
000320 3f 03 33 be c3 21 81 3d 15 19 92 3d 06 e8 c0 bd
       -0.17481707 0.06305268 0.0713369 -0.09419255
000330 51 aa 1a 3e fc bb 24 bd da fa 55 3d 22 91 10 3e
       0.15104033 -0.04021834 0.052241184 0.14117864
000340 50 ee 2d bd 76 5c 10 3c 1f bc 4c 3b af 82 b5 3d
       -0.0424636 0.008811107 0.0031240059 0.088628165
000350 4a e2 c7 3d 40 01 c5 3c 99 5a b5 3d 08 d0 3a bc
       0.09759958 0.024048448 0.08855171 -0.011402138
000360 ed 8e 98 bd ef ad ac bd d5 ba b4 bc 81 aa 0e 3e
       -0.07449136 -0.08431613 -0.022061745 0.1393223
000370 10 9e 1e 3e 9f 99 86 bd 5e 9e 95 3d 37 39 a3 3d
       0.15489984 -0.0657227 0.07305597 0.07969897
000380 70 cb a3 3d 82 6d 4c 3d 94 d0 80 3d 4b 3b 4e bd
       0.07997787 0.049909122 0.06289783 -0.050349515
000390 f7 07 c2 3d 41 10 e5 3d 87 69 bb 3d 35 f8 98 3d
       0.094741754 0.11184741 0.09150987 0.07469217
0003a0 bd c8 ac 3d aa 42 99 bd 81 9c 4f 3d 01 4c 3d bd
       0.08436725 -0.07483418 0.050686363 -0.04621506
0003b0 bd 0c 40 3d 2c 00 c2 bd f6 43 f8 bd c8 47 7a 3d
       0.04688715 -0.09472689 -0.121223375 0.061103612
0003c0 32 01 49 3c 5f 2b 99 bd f3 ef ed bd fe 66 39 bd
       0.012268351 -0.074789755 -0.11618032 -0.045264237
0003d0 13 b9 0b be 28 a4 fa 3d e8 60 22 bd bb 3a 7a bb
       -0.13644819 0.122383416 -0.0396432 -0.0038181979
0003e0 8e fa 26 be 2f 01 b2 bd a0 7b d3 bc e9 4b 7e bd
       -0.16306517 -0.08691632 -0.025815785 -0.062084112
0003f0 82 a7 80 3d 05 71 1c bd 91 75 63 3d dd d4 b9 bd
       0.062819496 -0.03819372 0.055532042 -0.090738036

net.2.bias f4 [128]
000000 2e 9d 27 3e de af f0 3d 59 e8 c3 3d 0a 25 8c 3e
       0.16368553 0.11752294 0.09565801 0.2737201
000010 7f 22 fa 3d 7d 4b d4 3d f1 84 f9 bc f7 0a 2e b8
       0.12213611 0.10365961 -0.0304589 -4.1495045e-05
000020 3b 1e 46 3d ed 40 9d 3b d2 b3 ca 3d 63 e7 f7 bc
       0.048368674 0.0047989995 0.09897579 -0.030261701
000030 a0 a9 0c 3d d8 b0 fe 3d 37 d3 35 3e 1e 56 97 3c
       0.034341455 0.12436074 0.17756353 0.018473681
000040 0f 5c 21 3e ce 5b 68 3d 64 32 14 3d 1f e1 29 3e
       0.15757774 0.056728177 0.03618087 0.16589783
000050 29 bd eb 3c d2 ec 4d 3e e3 bd 16 bc 3c 41 89 3d
       0.028776722 0.20109871 -0.009200546 0.067018956
000060 70 09 48 bd 84 86 d4 3d 75 d5 04 3d 9b 38 4b bd
       -0.048837125 0.10377219 0.03243013 -0.04961453
000070 1b 8d 49 3d f1 27 b0 bc f7 7d bb 3d be 51 c0 3b
       0.049206834 -0.02150342 0.09154885 0.0058691194
000080 35 e0 ab 3d cc 21 bc b7 0c 9a 45 3d 54 dc c0 3d
       0.083923735 -2.2427084e-05 0.048242614 0.09417024
000090 bf 5d ad 3d 66 ed bb 3d c0 d3 02 3d 2e f5 10 3e
       0.08465146 0.091761395 0.03194022 0.14156029
0000a0 02 f9 27 bd 6b 72 b1 bc 50 dd 21 3e 22 f5 37 3e
       -0.041008957 -0.021661004 0.1580708 0.17964604
0000b0 a0 cc 7f bd 84 7b 89 3d 47 2d df 3d bf 63 0a 3e
       -0.062451005 0.06713012 0.10897308 0.13514613
0000c0 12 06 a2 bc 0e 57 fb 3d e0 16 f1 3d 82 fe 22 3e
       -0.019778285 0.12272464 0.11771941 0.159174
0000d0 5f 4a 23 3d bb 03 ad 3d 66 93 ed 3d 4d 80 a9 3d
       0.039865848 0.08447977 0.1160038 0.082764246
0000e0 04 43 31 bd 7c c8 b2 3d f1 c3 e3 3d e5 f9 b3 3d
       -0.0432768 0.087296456 0.11121357 0.08787898
0000f0 d5 b1 06 3e 61 41 00 3e 49 10 be 3c 5f 04 ae 3d
       0.13153775 0.1252494 0.023201125 0.084969275
000100 2e 6f 26 3d 99 e1 91 bc 2a d1 9c 3d 14 d1 38 bb
       0.040633373 -0.017807769 0.076570824 -0.0028200792
000110 3b 97 f6 3d 54 d8 89 3c ff d7 03 3e a2 22 bf 3d
       0.12040564 0.016826786 0.12875365 0.093327776
000120 92 0f 94 3d 41 f8 db bc 53 11 2c 3d 8f a0 22 3e
       0.07229532 -0.026851775 0.04200871 0.1588156
000130 6e 73 90 3d d2 ee ca 3b a6 8e d9 3d 71 79 70 bc
       0.070532665 0.0061930204 0.10622911 -0.014677391
000140 ec 74 b8 3d d4 e1 25 3d df 00 25 3e a4 b7 7d 3d
       0.09006676 0.04049857 0.16113614 0.06194271
000150 87 97 e0 bb 41 95 1c 3e ea c1 32 bc 9e 1c af 3d
       -0.006854001 0.15291311 -0.0109104905 0.0855038
000160 49 8f 1b bd d0 5b 05 3e 9a 3d c2 3d bd bf 17 3e
       -0.037978444 0.13023305 0.09484406 0.14819236
000170 a4 21 25 3e af 28 91 3d f0 c4 e4 3d 4f 21 a0 3d
       0.16126114 0.07087838 0.11170375 0.07818853
000180 fe 98 ff 3d b8 92 14 3e bb 01 9c 3d 0b 73 e8 3c
       0.12480353 0.14509094 0.076175176 0.02837517
000190 99 19 c4 3d 97 ee be 3d f5 9e ce 3c 7b c1 d0 3d
       0.09575195 0.09322851 0.025222281 0.101931535
0001a0 da 9e cf 3d 92 3e ea 3d db 7c 5a 3d d9 ae 82 3d
       0.101377204 0.114377156 0.053341728 0.06381006
0001b0 e2 2a 7f 3b 29 b7 8c bc fd f1 46 3c d3 38 12 3e
       0.0038935472 -0.017177181 0.012142655 0.14279489
0001c0 1c 16 0f 3e fc 0d 2c 3e ac 86 30 bc 09 9d 68 3d
       0.13973278 0.1680221 -0.010774296 0.056790385
0001d0 5e 46 ab 3c 37 a1 12 3d e8 a4 2b 3e 85 14 fb 3d
       0.020907577 0.035798278 0.16762125 0.12259773
0001e0 03 2e fd 3c a0 67 1c 3d 44 18 01 3e 58 c5 1b b8
       0.03090573 0.038184762 0.12606913 -3.713867e-05
0001f0 bd 31 b8 bc c3 cc cb 3d 37 93 04 3e cb 82 ac 3b
       -0.022484655 0.099511646 0.12946783 0.005264615

net.5.weight f4 [4, 128]
000000 07 04 bc 3d e6 bc e7 3c 8a 89 44 3c 52 bd 50 bc
       0.09180456 0.028288316 0.0119956825 -0.01274045
000010 4a 6b d5 3c 65 b9 c9 3c 3d 8f ed 3d 26 5e 5e b3
       0.026052136 0.024624536 0.11599586 -5.177403e-08
000020 32 0d af bd 95 a2 61 3c b4 c3 35 ba b7 f9 d3 bd
       -0.08547439 0.013771673 -0.0006933764 -0.10350364
000030 04 7b e7 bd a4 3e 12 bd c8 00 a5 bd 2a c4 19 3e
       -0.1130276 -0.03570427 -0.0805679 0.15016237
000040 6a e3 66 3c 8d ca 5b bd 3c de df bd 4c 8b 9a be
       0.014092306 -0.053659964 -0.1093106 -0.301844
000050 0a 36 47 3b 2f 63 ab 3c 66 77 96 3c ff 47 62 be
       0.00303972 0.020921318 0.01836748 -0.22097777
000060 61 90 ba bd 92 0c b9 be 19 a0 0c 3e 9e 81 43 bd
       -0.09109569 -0.36142403 0.13732947 -0.047731034
000070 56 18 62 be b1 3e 8c be 1f ff 7f 3d 85 64 2d bd
       -0.22079596 -0.2739158 0.06249916 -0.04233219
000080 87 2c 2c 3d 4f 27 2d 39 8b d5 65 3d 4f 51 cf bd
       0.042034652 0.00016513209 0.056111854 -0.1012293
000090 42 a0 23 3c 0e a9 16 3d 21 e4 d2 bd 3d b9 aa be
       0.009986939 0.036782317 -0.102974184 -0.3334445
0000a0 81 5c 16 3d 79 3f 91 bc d3 a3 35 3d 77 8f 27 3d
       0.036709312 -0.017730461 0.044345688 0.040908303
0000b0 e1 96 a0 bd 9a 33 c3 bb 4f 14 00 3d 24 27 8b 3d
       -0.07841278 -0.005957079 0.031269368 0.06794575
0000c0 ce ea 10 3d bf 49 a5 3c 75 a5 25 bd 92 2d a5 3e
       0.035380177 0.020176766 -0.040440995 0.3226133
0000d0 d7 9c be bb be 06 34 3d af d5 de bc e9 32 bf bd
       -0.0058170366 0.043951742 -0.027201502 -0.09335882
0000e0 9e b6 aa bd b5 cc b0 3c 1e 9f b8 3d 41 38 a3 3e
       -0.08335613 0.021581987 0.09014724 0.31878856
0000f0 ff 41 23 3d b6 13 57 3d 76 1b 0a 3d f7 f4 84 bd
       0.03985786 0.052509032 0.033717595 -0.06492036
000100 fd 64 94 bc 36 33 79 bd ec 51 8a 3e 50 5c f1 bd
       -0.018114561 -0.060839854 0.27015626 -0.11785185
000110 b0 fe 85 bd d0 84 17 3d 2e 74 a3 bd 5a 09 38 be
       -0.065427184 0.036991894 -0.07981144 -0.17972317
000120 b7 f9 62 be 85 93 a7 bd 49 b1 89 bd 8a 5e 90 be
       -0.22165571 -0.08182434 -0.067232676 -0.28197128
000130 3f 54 c7 bd 2f 19 ff 3d 1a cf 71 3c 1f 11 ef bc
       -0.097328655 0.12455975 0.0147588495 -0.029182969
000140 ae d9 77 3d 1e bc 0f 3e f1 a2 94 be 42 3a aa 3c
       0.06051033 0.14036605 -0.29030564 0.020779733
000150 e9 fa d4 bd 6b 64 5b 3d bf 42 75 3c 6c d6 2f be
       -0.1039942 0.053562563 0.014969527 -0.17171639
000160 c6 bf 27 be 5b 23 8d bb 8f c8 65 3d a3 42 55 be
       -0.1638175 -0.004307193 0.05609947 -0.20826201
000170 d7 0e 3c bd c5 a0 1d 3c 40 1a 1e be dd 62 da bd
       -0.04591259 0.00962085 -0.15439701 -0.10663388
000180 c7 ce ae 3d e7 c3 03 be 08 42 55 be c1 12 58 3d
       0.085355334 -0.128677 -0.2082597 0.05275226
000190 de d2 a0 3d 02 3f 6b be 71 8f 70 be b1 f5 18 be
       0.0785272 -0.22973254 -0.23492219 -0.14937474
0001a0 82 a8 e6 ba b1 98 02 3d 02 23 ed 3c 9b ee cd 3d
       -0.0017597827 0.0318839 0.028947357 0.10055276
0001b0 94 03 eb bc 3d 53 c5 bd 0d 2d 4b 3d 57 e2 28 bc
       -0.02868823 -0.09635017 0.04960351 -0.01030787
0001c0 d6 5b be bb 2d dd b7 3d 96 58 05 3d 38 09 b4 bd
       -0.0058092875 0.08977733 0.032555185 -0.08790821
0001d0 b7 f2 2f bc 00 4e 02 be ae d6 f2 bc 44 c6 96 3d
       -0.01073902 -0.12725067 -0.029643383 0.07362035
0001e0 63 69 9b 3d 24 26 8c bd ab 6e 44 be c4 13 04 b9
       0.0758846 -0.06843212 -0.19182841 -0.00012595864
0001f0 13 d9 30 bc 56 24 00 bc df 2d 81 be d3 86 23 3d
       -0.010793942 -0.007821163 -0.2523031 0.0399235
000200 93 56 81 be 99 b0 8a be c1 32 5e 3b 0b dd aa 3c
       -0.25261363 -0.27087858 0.0033904763 0.020857355
000210 dd 5e 2e be 1f fe aa be 9f 76 33 be 06 bf d6 37
       -0.17028375 -0.33397004 -0.17525719 2.559974e-05
000220 b5 7f f5 3e b0 d6 22 be 8b ab a3 be 82 6c c2 3d
       0.47948995 -0.1590221 -0.31966814 0.094933525
000230 9e aa c5 bd 26 0b 26 be c4 80 41 3d 68 12 78 be
       -0.09651683 -0.1621519 0.04724194 -0.24225771
000240 93 83 45 be 99 6e c5 3d c1 5c 36 3e b2 3d 55 3d
       -0.19288473 0.096402355 0.1780882 0.05206079
000250 3f de 9f bd 33 46 c4 bd 98 eb 5b be 54 fe 8d 3d
       -0.07806062 -0.09583702 -0.2147659 0.06933275
000260 23 0d 39 3e 3d f3 8c 3d 64 cd 7f be f9 d9 4c be
       0.18071418 0.068823315 -0.24980694 -0.20005025
000270 cc d4 3f 3d 63 8b 90 bd 39 1d 9c be 37 fd 82 3e
       0.0468338 -0.07057836 -0.30491045 0.25583813
000280 47 fc 7a be 8e ed ab b3 3d e2 38 be c9 7a 18 3e
       -0.24510299 -8.006019e-08 -0.18055053 0.14890589
000290 c1 0d 77 be 5f 76 6b 3c d5 c2 7f be a7 fa b6 3d
       -0.2412634 0.014371484 -0.24976666 0.08934527
0002a0 52 c3 24 3e 0f 67 be be a1 f9 d5 be 45 1f 85 bd
       0.16090134 -0.37188002 -0.41792014 -0.06500105
0002b0 a4 d8 59 be 46 89 2c 3e 0f b6 a2 3c c6 a1 7a 3e
       -0.21274048 0.1684924 0.019862203 0.24475774
0002c0 62 89 95 be 80 06 12 be a8 42 2c 3d 22 bb 8c 3d
       -0.29206377 -0.14260292 0.042055756 0.0687163
0002d0 33 72 e8 3d 04 e3 95 be 62 d6 89 bd d0 cf 3a be
       0.11349907 -0.29274762 -0.067303434 -0.18243337
0002e0 d5 00 1e be 81 e5 a2 be 46 47 fc 3d 5a 1c 16 3e
       -0.15430005 -0.31815723 0.12318282 0.14659253
0002f0 74 5e 96 be d3 9b 8c be 83 40 bf bc 34 e7 b7 3d
       -0.29368937 -0.27462634 -0.023346191 0.08979645
000300 e2 8b 7d be 63 1f 36 3e 85 2b 52 3e 65 4e 27 3e
       -0.24760392 0.1778541 0.20524414 0.16338499
000310 da 0d 1b be 51 60 e8 3d 96 f7 38 bd 5b 76 93 3d
       -0.15142003 0.11346496 -0.04515799 0.07200309
000320 10 93 f3 3b d7 ca 2f be e3 43 15 be b8 74 0c be
       0.0074333027 -0.17167221 -0.14576678 -0.137164
000330 67 48 37 3d 54 04 1e 3e 0b 05 60 be c2 f3 89 bc
       0.044746783 0.15431339 -0.21876924 -0.016839866
000340 3c 12 c3 bd 4f 7a fa bd 5d 27 98 3b c3 71 df bd
       -0.09524962 -0.1223036 0.0046433643 -0.1091037
000350 e2 4d a7 bc c4 f7 60 be 65 1a 11 bb 20 26 31 bd
       -0.02042288 -0.21969515 -0.0022140977 -0.04324925
000360 d0 32 bc 3e c3 1a bb be 2c 22 45 3e 1d 23 b2 bc
       0.36757517 -0.36543855 0.19251317 -0.021745259
000370 1d ae 19 3d 78 0b a9 bd 0b 75 b8 3c 4c d2 c3 3d
       0.037519563 -0.082541406 0.022516748 0.09561595
000380 c0 51 16 be 73 c3 b1 bd 72 3f 98 bd 02 25 a9 bd
       -0.14679623 -0.08679857 -0.07433976 -0.08259012
000390 bc 6b 75 be 4c a8 d0 3d 6a b3 96 3d 86 d2 0e 3e
       -0.23966879 0.1018835 0.07358439 0.13947496
0003a0 94 f0 0b 3d ce b4 31 3e f5 55 54 be 89 66 6f bd
       0.03416498 0.17354128 -0.20735915 -0.058447395
0003b0 5d ab 14 be 43 02 06 3e 11 97 b8 be 30 bc 0a 3d
       -0.14518495 0.130868 -0.36052755 0.033870876
0003c0 d9 79 42 be 11 e7 7b be 6b 7d 39 be b0 b1 01 3e
       -0.18991794 -0.24599864 -0.1811425 0.12665439
0003d0 c2 12 4d 3e 24 9f eb bb de fb 9e 3c 09 8b b7 be
       0.20026687 -0.007190602 0.019407209 -0.35848263
0003e0 ea aa 12 3e b4 c3 fe 3c 58 d1 9d 3d 39 fa c4 37
       0.14323011 0.031099178 0.07705945 2.348154e-05
0003f0 b1 69 02 3e c5 d5 31 be ac 3f aa 3c a3 86 1a be
       0.1273563 -0.17366703 0.020782314 -0.15090422

net.5.bias f4 [4]
000000 7d 3a 67 3d c0 c8 12 bb b6 35 98 3c 9d 45 ab bc
       0.056452263 -0.0022397488 0.018580299 -0.020907218

mean f4 [1, 16]
000000 c0 1c c1 41 a4 52 16 41 49 80 18 41 05 47 2f 41
       24.139038 9.395176 9.53132 10.954839
000010 2f 13 64 41 9c 50 99 41 03 d5 c7 41 54 b0 fe 41
       14.2546835 19.16436 24.97901 31.836098
000020 04 b3 0d 42 b5 ac ef 41 98 ff bd 41 c1 9a 8d 41
       35.42482 29.95933 23.749802 17.700563
000030 ac 7f 52 41 83 c1 27 41 4d 6f 13 41 1a 3a 0e 41
       13.15617 10.484744 9.214673 8.889185

std f4 [1, 16]
000000 73 1e 1f 41 9e 2b b7 40 bb bf a5 40 52 f8 fe 40
       9.944934 5.7240744 5.1796546 7.9678125
000010 a5 25 47 41 0a f5 81 41 8a 35 90 41 4b 8a 9d 41
       12.446691 16.244648 18.026142 19.692526
000020 9a cf a2 41 db ec 93 41 95 61 8c 41 2f f4 68 41
       20.351368 18.490652 17.547647 14.559615
000030 43 9a 25 41 de 5d e2 40 7c 9e 9a 40 d3 8f 8c 40
       10.350162 7.0739584 4.831846 4.3925567
