controller_multilabel_Ok.pt (torch, 80721 bytes, 8 tensors)

net.0.weight f4 [128, 16]
000000 93 ba a9 bd b9 18 a6 bc 79 2a 3a 3e 8f 8d 6c bd
       -0.08287539 -0.02027546 0.18180265 -0.05775219
000010 ee da 7a 3d b3 eb aa be e8 73 37 bd 5a 8f b1 3d
       0.061243944 -0.3338295 -0.04478827 0.0866992
000020 68 f3 4d 3e fe e2 94 bc 62 ac 96 3d 36 5b fc be
       0.20112383 -0.018174645 0.07357098 -0.49288338
000030 69 41 27 be 3d 60 25 3d 90 42 ba 3d 60 90 81 bc
       -0.16333546 0.040374983 0.09094727 -0.015815914
000040 be d2 fa 3d 2b 17 c1 bb 6c f6 38 3e bb 52 49 be
       0.12247227 -0.0058926544 0.18062752 -0.19660465
000050 53 d4 56 3d ff 5d c4 bc 0f 93 93 3d 8c ea 05 be
       0.052448582 -0.023970602 0.072057836 -0.13077754
000060 3e 2a d5 bc 41 28 fa bd ee f5 be 3d ed 8f ae bd
       -0.02602112 -0.12214709 0.09324251 -0.085235454
000070 71 5b 7d 3d a7 85 a5 bd 5e 6c 1b 3d f4 aa a4 b8
       0.061854783 -0.08082133 0.037945144 -7.851972e-05
000080 78 7b ab 3d 71 03 5d 3d 5c 97 5a 3d 84 7a c3 be
       0.08373159 0.05395836 0.053367004 -0.3817941
000090 1f 6f b0 3d 20 6b 32 bf 19 91 8c 3e d0 e1 29 3e
       0.08614945 -0.6969471 0.2745445 0.16590047
0000a0 92 ef e1 3e 9f a1 de be 2a 5a 8c bd ac 34 06 3b
       0.4412809 -0.43482682 -0.06853135 0.0020478172
0000b0 93 44 14 be bd 80 38 bd 04 1b a7 3c a8 bf 84 3c
       -0.14479284 -0.04504465 0.020398624 0.01620467
0000c0 4f 47 83 bd e3 aa 24 3e d8 e6 29 3e 89 28 9e 3d
       -0.064100854 0.16080813 0.16591966 0.07722575
0000d0 a4 50 11 3c 2f 6c cf be 1f 15 eb bd 12 8c 76 bd
       0.008869324 -0.40512225 -0.11478638 -0.060192175
0000e0 cc 2a cf be 20 8f ba bc 4e 5e 00 be 5c 5a da bd
       -0.4046234 -0.022773325 -0.12535974 -0.10661766
0000f0 41 76 4e 3e 76 34 22 3d 5d 4a 85 be 7b c2 d4 bc
       0.20162298 0.039600812 -0.26033297 -0.025971642
000100 ec 62 e8 bd 2e 8d 74 3d 9a ea a9 bc 51 29 92 3d
       -0.11346993 0.059704952 -0.02074175 0.07136787
000110 d9 93 dc bd f8 a8 3a be 7f c5 2b be cd 22 9f bd
       -0.10770387 -0.18228519 -0.16774558 -0.077703096
000120 09 34 34 3e 00 a1 eb 3d 41 bf 2d 3e b6 07 54 3c
       0.17597975 0.11505318 0.16967489 0.012941292
000130 0f 25 b5 be d5 1a 8e be 1d 9d 26 3e 8e 79 9f bd
       -0.35379836 -0.27754846 0.16270871 -0.077868566
000140 a9 70 ad bd 35 be d6 bc d4 02 80 3d 4e 50 50 3e
       -0.08468754 -0.026213745 0.062505394 0.20343134
000150 18 6d b0 bb c8 df bf bd fd 69 96 3c e8 5c 61 be
       -0.0053840987 -0.09368855 0.018361086 -0.22008097
000160 66 fb cd 3e 02 56 ca 3d 85 6e 87 3e 95 5c 80 3d
       0.40230864 0.09879686 0.26451507 0.062676586
000170 e3 fd 8b 3e 8f b5 db be 4e f6 9b be 81 cb 89 3d
       0.27342138 -0.42911956 -0.30461353 0.067282684
000180 9d 4f b9 3e ea b5 71 be e1 d3 9e bd 90 02 8a 3e
       0.36193553 -0.23604551 -0.077552564 0.2695508
000190 91 b8 bc bc 22 90 17 be 8e 42 80 3d 78 a2 61 bd
       -0.023037227 -0.14801076 0.06262694 -0.055086583
0001a0 7b d2 14 3d d7 84 73 3e 17 c0 83 be c6 f8 d5 be
       0.036333542 0.23781143 -0.2573249 -0.41791362
0001b0 3a 1e 3f be 36 8d ac 3e 24 d0 35 3e a9 06 7e be
       -0.18663874 0.33701485 0.1775518 -0.24807228
0001c0 72 58 19 bb b1 1f 45 3e ef ea a6 3e 12 9d 3c be
       -0.0023398665 0.1925037 0.32601115 -0.18419293
0001d0 86 66 37 bd ac 34 23 3e 85 35 ff 3d 5c b2 d3 be
       -0.04477551 0.15938061 0.1246138 -0.41347015
0001e0 8c 1b 29 bd 5c ec a9 bd fc 5b 09 3e 01 b4 ab 3c
       -0.041286036 -0.08297035 0.13413996 0.020959856
0001f0 e9 7c 8e bd a0 0f 48 be f4 d6 f6 be be 98 60 be
       -0.069574185 -0.1953721 -0.4821087 -0.21933267
000200 7f 4f a7 be 7a 75 05 3d 05 49 72 3c dd e2 e1 3d
       -0.32677838 0.032582738 0.014787917 0.11029599
000210 1e 19 88 be 4f 92 9e 3d bc dc 9c be 44 83 89 3e
       -0.26581663 0.0774275 -0.30637157 0.2685796
000220 0a a0 a7 3e fc b5 42 3e 64 ac cf bd 5a c1 f6 bd
       0.32739288 0.19014734 -0.10140303 -0.12048598
000230 6d de 3f 3e 23 f5 b2 3d 40 fe cd bd 82 0d 1c 3c
       0.18737192 0.08738162 -0.1005826 0.009524705
000240 38 2a cb bc 09 64 08 bc 0e 63 c7 3d 4d 37 01 3e
       -0.024800405 -0.0083246315 0.0973569 0.12618752
000250 ad f2 ba bd b2 a0 9d bd 73 e4 8f 3e d2 b4 66 be
       -0.09128318 -0.07696666 0.2810398 -0.22529915
000260 1a a3 5a 3e 55 ac 01 3e d8 f2 bf 3c d9 a4 92 3e
       0.21351281 0.12663396 0.023431227 0.28641394
000270 f8 4a ab bd 2a e0 d5 3d d2 90 c7 3d da 5e 1c 3e
       -0.083639085 0.104431465 0.09744419 0.15270558
000280 10 b7 8f 3e 25 9d 68 be 12 fe 75 be a4 63 a4 3d
       0.28069353 -0.22716196 -0.24022701 0.080268174
000290 94 6b 84 bd 3b 2f 6f be 1e a2 83 bd 92 9c af be
       -0.064658314 -0.2335786 -0.06427406 -0.3429914
0002a0 c4 10 83 be fd 18 3a 3e f9 c2 c0 3d ec eb 82 bb
       -0.2559873 0.18173595 0.09412188 -0.0039954092
0002b0 a7 fd 38 be 56 99 0c 3e 36 8d de 3d ed a3 f4 bd
       -0.1806551 0.13730368 0.108667776 -0.11945329
0002c0 74 42 09 be 16 8f a1 be 38 cb 76 3e 91 50 bc 3d
       -0.13404256 -0.31554478 0.2410096 0.09195054
0002d0 f1 83 36 bd 47 9b 9e 3d 19 80 90 3d e9 97 cb 3d
       -0.044559423 0.077444606 0.07055683 0.09941084
0002e0 eb f7 7a bb 48 ee fd bc 73 21 e7 3d 04 88 a4 bd
       -0.0038294743 -0.03099741 0.11285677 -0.080337554
0002f0 7f d9 d5 3d 4a 52 b4 bd 63 84 24 be 88 9a 98 be
       0.10441875 -0.08804758 -0.16066127 -0.29805398
000300 55 14 e5 bd 77 81 17 3d 80 0e 8c bd de e1 20 3d
       -0.11185519 0.0369887 -0.06838703 0.039277904
000310 0b fd 9a bd 7c e9 bf bc 54 ca 4a bd c8 3b 05 bd
       -0.07567795 -0.023426764 -0.04950936 -0.032527715
000320 bf 6f fa be 2b a2 78 3d 94 41 4a 3f a4 32 43 3e
       -0.4891338 0.06070153 0.79006314 0.19062287
000330 02 04 52 3e af e7 bb be c1 ce 6c 3d 5b ba b8 3d
       0.20509341 -0.36700198 0.057814363 0.090199195
000340 2d 13 8e be 24 0a 3c 3d 43 01 07 3c 49 b2 a5 3d
       -0.27749005 0.04590811 0.008240047 0.08090646
000350 c7 a6 d4 bd 61 f5 45 be 56 6b d0 3d ff 7e 30 3e
       -0.10383373 -0.19331886 0.10176723 0.17235945
000360 63 83 8d 3d 00 6a b6 3e c0 4d 8a be f8 28 63 be
       0.06909826 0.35627747 -0.27012444 -0.22183597
000370 46 84 e2 bd 40 54 b8 3d 8c 13 b3 3d d9 68 0c 3e
       -0.110603854 0.090004444 0.08743963 0.13711871
000380 48 5c 0e 3e aa 93 fb bd 63 1c ba 3d 09 c8 81 3e
       0.1390239 -0.12284024 0.090874456 0.25347927
000390 74 b6 3c 3d 8f 22 94 be de 20 29 be 40 90 5e be
       0.04607244 -0.28932616 -0.16516444 -0.21734715
0003a0 ec cd 1e be f6 18 1a 3d 7a 6b 08 be d4 ab c1 3d
       -0.1550824 0.03762146 -0.13322249 0.09456602
0003b0 a9 f4 11 3b 5d cf b3 3d 5a 0d d5 be be 40 13 be
       0.0022271073 0.08779786 -0.4161175 -0.14380166
0003c0 73 69 82 bd 1e ef c5 bd 62 71 4e 3d 41 74 5c 3e
       -0.06367769 -0.096647486 0.0504011 0.21528722
0003d0 c6 94 55 be df 2c c1 be b7 5c 96 3d 6f 4e ff 3d
       -0.20857534 -0.37729546 0.07341903 0.12466132
0003e0 65 a3 98 3e 05 55 17 3f 94 a6 5c 3e 80 7a 01 3e
       0.2981216 0.59114105 0.2154792 0.12644386
0003f0 5a 53 ad bb 82 bc 87 3e 56 d2 76 bd 86 9c d2 3d
       -0.0052894773 0.26511008 -0.060259186 0.10283761

net.0.bias f4 [128]
000000 9a b0 27 3e 6d 1f d2 3d 57 c3 e9 bd 03 f6 b7 be
       0.16375962 0.102599 -0.11414211 -0.3592988
000010 e1 26 89 bd 40 53 00 bd c2 b3 7e be c4 38 f7 bc
       -0.06696869 -0.031329393 -0.2487326 -0.030178435
000020 e6 e5 88 3e 92 a6 68 3e 36 9c 37 be 09 bc 10 3e
       0.267379 0.22719792 -0.17930683 0.1413423
000030 42 88 74 3b d8 d9 de 3d fe fa 89 be c2 a3 ab be
       0.0037312661 0.10881394 -0.26949304 -0.33523375
000040 9b f1 16 3d 6f 01 19 3d aa 2d 0d be 90 c7 50 be
       0.036851507 0.037354883 -0.1378695 -0.20388627
000050 19 0d 83 be 04 d7 6b 3e 37 b7 b9 bd 11 bd 11 bd
       -0.2559593 0.2303124 -0.090681486 -0.0355807
000060 42 79 81 be 5e a0 ed 3c 44 80 c4 3c 92 f2 c7 bc
       -0.25287825 0.029007133 0.023986943 -0.024407659
000070 e4 d7 5c be 5f 21 7a be 67 58 aa be cd 43 1f be
       -0.2156673 -0.24426793 -0.3327057 -0.15553208
000080 e2 0a 95 bd 9f 32 a6 be 88 24 0b 3d 47 8b eb bd
       -0.07277466 -0.32460496 0.033970386 -0.115011744
000090 30 5f d1 be 43 87 e9 bb 09 2c 75 3e 87 74 67 be
       -0.40892935 -0.00712672 0.2394258 -0.22603045
0000a0 ba f8 4c bd 36 59 ff bd 87 a2 63 3e 43 02 9a be
       -0.05004189 -0.124681875 0.22229968 -0.3007985
0000b0 f1 59 87 3e be 4c 7e 3c 48 3a cc be 2a cc 6c be
       0.26435807 0.015521226 -0.39888215 -0.23124757
0000c0 72 ae c4 3d ae aa 62 be 03 7d 71 3d 50 77 8b bc
       0.09603585 -0.22135422 0.05895711 -0.017024666
0000d0 c4 1a 02 3d 89 37 36 bb 75 86 b2 be 87 88 32 3e
       0.031763807 -0.0027804098 -0.34868208 0.17434894
0000e0 de 47 58 be 02 cd 5e be 96 f4 b2 bc be 1a c7 be
       -0.21121165 -0.21757892 -0.021845143 -0.3888759
0000f0 48 26 13 be 28 df 93 be a2 61 b2 be 08 be 4a be
       -0.14370072 -0.28881192 -0.34840113 -0.19799054
000100 90 4d 8a 3e 72 c9 78 3a 84 25 d8 3c 2b fa d5 bd
       0.270123 0.0009490467 0.026385076 -0.104481064
000110 95 06 fe 3d 28 d2 0c 3e de 86 8c bd 44 93 c0 be
       0.12403599 0.13752043 -0.068616614 -0.37612355
000120 91 70 ad 3d a1 5f ec be fe bc 7f 3e dd ef 24 bd
       0.08468736 -0.4616671 0.24974439 -0.040267814
000130 a5 1d 5a be 2b 82 9f 3e 05 bc 1d be b4 49 19 bd
       -0.21300371 0.31153998 -0.15403755 -0.037423804
000140 3e b2 58 3e 9f 2a 86 be 4e 03 8c 3b 71 35 14 be
       0.21161744 -0.26204392 0.004272855 -0.14473511
000150 33 0c 00 bd d6 81 96 3d cb c9 3e bc 5a db b7 3d
       -0.031261634 0.07348983 -0.011644791 0.08977385
000160 6d 4a 71 3d 2b 42 55 be 57 42 a6 be e0 bd 80 3d
       0.05890887 -0.20826022 -0.32472488 0.06286216
000170 2b 92 bd 3c 9f 07 a1 bd 2e 47 87 be a8 c9 a6 3d
       0.023140987 -0.07862782 -0.26421493 0.081439316
000180 f2 8e 85 3c 7e 6d 83 be cd 62 0e be 54 aa 10 3d
       0.016303513 -0.25669473 -0.13904877 0.035318688
000190 6b ba 88 be 40 45 30 be bd 46 ea 3d ab 65 dc be
       -0.26704726 -0.17213917 0.114392735 -0.43046317
0001a0 38 de 42 3e 72 48 16 3e 5d b8 05 3e 89 7a bc be
       0.19030082 0.14676073 0.1305861 -0.36812237
0001b0 5a 71 6d be 7e 04 cd be 61 fe 7b be 31 aa 83 3d
       -0.23187771 -0.4004249 -0.24608757 0.06428946
0001c0 d0 b7 13 3d 08 8a 91 bb 60 73 5d bd 07 7a d1 be
       0.03606397 -0.0044415034 -0.05406511 -0.40913412
0001d0 4f e4 17 be 02 0a a4 3e f3 2c 3f bd 86 a8 8b 3d
       -0.14833187 0.32038885 -0.046673726 0.06819253
0001e0 c4 05 0c 3e 77 d1 b9 be 75 dd 8f 3e 36 ad 58 bd
       0.13674074 -0.36292621 0.28098646 -0.05289956
0001f0 35 9b 26 be 21 1c 77 3e ee 8a ae 3d a2 bc 01 bf
       -0.16270144 0.24131824 0.085225925 -0.50678456

net.2.weight f4 [128, 128]
000000 fa d6 c7 bd 42 e2 16 3d 5a 2a 16 be 1c be 8a 3d
       -0.097578004 0.03683687 -0.14664593 0.06774542
000010 11 0f e9 3c 4b 3b 72 bd c4 80 18 3e ba a4 11 be
       0.028449567 -0.059138577 0.1489287 -0.14222994
000020 09 bb 1f be a3 9a 63 bd c2 64 89 3d 86 e0 0e bd
       -0.15598692 -0.055567395 0.06708671 -0.03488209
000030 41 23 0e 3e bc 4c 14 bd ec 12 cb 3c da 88 06 be
       0.13880636 -0.036205992 0.024789296 -0.13138142
000040 5a d3 3e be 79 8a f3 bd dd e8 b3 bd 33 46 be 3d
       -0.18635312 -0.11891646 -0.087846495 0.09290733
000050 9b 9b 79 bd 1d 70 f0 bd d4 71 2f be 2a 36 0d bd
       -0.060939413 -0.11740134 -0.17133266 -0.034475483
000060 d6 33 9a be d0 2a 71 3d 73 07 20 bd 77 cb 9d 3d
       -0.30117673 0.05887872 -0.039069604 0.077048235
000070 f9 da a8 3d 7f 96 21 be f9 c9 f6 3c 51 de aa bd
       0.08244891 -0.15780066 0.030125605 -0.08343185
000080 17 b4 60 3d 0b 44 28 3e 5b f0 dd 3d dd 8e 16 3d
       0.054859247 0.16432206 0.1083686 0.03675734
000090 13 0e cf bd b9 1b 64 3d 43 c0 03 be 01 6b 34 3e
       -0.10110106 0.0556905 -0.12866311 0.17618944
0000a0 3d 5f 55 3d 71 cd c1 3d 5b 9b 3f 3e 8c fa de bd
       0.05209278 0.09463013 0.18711607 -0.10887632
0000b0 95 67 cf 3c aa 30 6a bc 74 1d fd 3c 27 1f 40 3d
       0.025317946 -0.014293829 0.030897833 0.04690471
0000c0 ef a4 a7 3d d1 a9 b9 ba c2 3d f2 3c 59 46 e3 3d
       0.081857555 -0.0014164989 0.029570464 0.11097402
0000d0 fb 6e 3f 3d 3d 06 5e 3d 09 23 31 bc e9 eb 73 3d
       0.0467367 0.054205168 -0.010811576 0.059551153
0000e0 f2 4a f5 3d 02 73 83 3c c0 00 06 be 2c a4 78 be
       0.11977185 0.016046051 -0.13086224 -0.24281377
0000f0 78 67 d7 3b ba d9 38 be 66 d6 67 3d 55 4f c9 3c
       0.0065736137 -0.18051806 0.05660095 0.024573961
000100 7b 06 a6 3d ad c1 43 3d ce 3d 19 be da e3 1f bd
       0.08106705 0.047792125 -0.14964983 -0.039035656
000110 ca 45 a7 bd 3f 7b 5b bd 01 d8 fe 3d f9 bc a7 3d
       -0.08167608 -0.053584334 0.12443543 0.081903405
000120 7e f0 22 3e bf 6e 16 3e 67 f1 07 be 25 eb 24 3e
       0.15912053 0.14690684 -0.13275681 0.16105326
000130 8b 3a 63 be c1 7c b4 bb 22 03 02 3d 29 5c 9f bd
       -0.22190301 -0.005508036 0.03174127 -0.0778125
000140 c2 87 1a 3d f4 16 01 be c4 cf a3 3c c2 2c b6 bd
       0.037727125 -0.12606412 0.019996531 -0.088952556
000150 18 76 3e bd 8f 92 7b 3d 89 e7 1d be e3 f5 7e 3d
       -0.04649934 0.061419066 -0.15420355 0.062246215
000160 f9 d0 01 be 17 58 0a 3d a7 44 39 bd db 10 db bd
       -0.12677373 0.033775415 -0.045231488 -0.10696574
000170 a3 e0 b2 bd de cf 0e 3e ca 32 3a 3b f3 cb de 3d
       -0.08734252 0.13946483 0.002841162 0.10878744
000180 56 e3 90 be 22 da 7f be 5a 93 d3 3c 7e 9a 86 bc
       -0.28298444 -0.24985555 0.025827099 -0.01643109
000190 0f 1d a6 3b 3f 28 73 3b af f2 89 be 1d fd 73 be
       0.005069382 0.0037102846 -0.26942965 -0.23827024
0001a0 41 08 a9 3b 1b 21 28 bd 30 a1 8d 3c cc c0 72 3d
       0.0051584546 -0.041047197 0.017288774 0.059265897
0001b0 d9 b5 17 bd b4 dd f0 3d 09 6b d4 3b d0 b3 e9 3d
       -0.037038658 0.117610365 0.006482486 0.1141125
0001c0 b0 5f 9b 3d d8 75 e6 bc 44 a7 81 be d8 0a bf 3d
       0.0758661 -0.028132364 -0.25322926 0.0932824
0001d0 df b5 c1 bd 76 f7 3f 3d e8 17 6d 3d 5c 4a 98 3a
       -0.09458517 0.046866857 0.057884127 0.001161884
0001e0 dd 98 9b 3d c4 f4 f2 3d 3c 4d cf bd bd e9 d8 3d
       0.07597516 0.118630916 -0.10122153 0.10591457
0001f0 24 28 88 3d 25 1b 63 be 8a a5 77 3d 7d a9 55 be
       0.06648281 -0.22178324 0.060460605 -0.20865436
000200 ef da b8 bd cf 48 64 3d 98 8f a5 be 72 9e b7 3d
       -0.09026133 0.0557335 -0.32336116 0.08965768
000210 09 34 ea bd 4a a5 93 bb 3b 34 7a 3c 7e fd 9a 3d
       -0.11435706 -0.004505788 0.015271242 0.07567881
000220 29 91 16 3e cf 55 11 3e 4d a3 d2 bc 23 d7 13 bc
       0.14703812 0.1419289 -0.025712634 -0.009023461
000230 42 ac 83 bd 6c 07 0b be f0 5f 15 3e e4 c8 96 3d
       -0.0642934 -0.1357705 0.14587379 0.073625356
000240 f2 98 7b 3a 7f 78 a5 b9 04 10 2f be 06 2b 9b 3d
       0.0009597681 -0.0003156103 -0.17095953 0.075765654
000250 4a 35 10 bd 0e 79 3e 3e 86 0e ef bd 4d c5 61 3d
       -0.03520707 0.18600866 -0.11672692 0.0551198
000260 58 af 98 3b 0d 25 93 3d 8a 9e 60 3e 98 5f d2 3b
       0.0046595745 0.07184801 0.21935478 0.006420087
000270 35 04 41 3d e0 61 ec 3d aa a3 31 be 92 ce 19 3e
       0.047123153 0.11542106 -0.17347589 0.15020207
000280 26 b2 09 bd 05 c6 1f 3e 3d dd 5c 3c a8 71 22 be
       -0.03361716 0.15602882 0.013480482 -0.15863669
000290 ac fb 11 3d d3 79 cb bc 02 bc 70 bd 35 ef 89 be
       0.035640404 -0.024838364 -0.05877305 -0.26940313
0002a0 e0 b7 27 be 79 28 96 3d a8 e4 20 bd 1e 14 42 ba
       -0.16378736 0.07331938 -0.039280564 -0.00074035104
0002b0 a2 65 bc bc 4d 1e 1d 3e 3e 01 19 be 62 b3 6a 3d
       -0.022997681 0.1534359 -0.1494188 0.05729998
0002c0 51 2c a2 3d 6c 6d b6 bb 62 5f 34 3d 74 bd 2d bd
       0.07918609 -0.0055672433 0.044036277 -0.042417005
0002d0 37 db cb 3d 14 9e f8 ba cd da 31 3d 7a 06 b4 3b
       0.09953921 -0.0018968009 0.043421555 0.005493936
0002e0 55 75 14 3e 3e 06 ae be db ba fb 3d 69 55 c8 3d
       0.14497884 -0.33989137 0.12291499 0.09781916
0002f0 24 48 5c bd e8 b9 e7 bd 70 a6 2b 3e 9c 4e 2c be
       -0.053779736 -0.11314756 0.1676271 -0.16826862
000300 8a 29 98 bb 08 51 77 3c 67 17 36 be b6 33 d0 bd
       -0.0046436237 0.015095003 -0.17782365 -0.10166113
000310 f5 20 31 3e dd a2 40 bc e7 77 32 bd ea a2 bf 3d
       0.17297728 -0.01175758 -0.04357138 0.09357245
000320 2e 10 82 3d 88 e0 b9 3a d0 5a b5 3c e2 ee 82 bd
       0.06350742 0.0014181295 0.02213803 -0.063932195
000330 84 cb ce bd cd 43 de 3c be 5e 84 3d 14 4d 2a be
       -0.10097411 0.02713194 0.06463383 -0.16630965
000340 a2 a5 19 3d f3 ca 73 be aa 7b fe 3c 74 b6 db bd
       0.037511475 -0.23807888 0.031064827 -0.107281595
000350 98 3c e6 bd 31 37 90 bb 4f 90 1d bd bd df 65 bd
       -0.11242026 -0.0044011106 -0.0384677 -0.056121577
000360 6f 80 5d bd 0b ed 83 3d 9b 26 67 3c d8 f8 24 3e
       -0.054077562 0.06441697 0.014108325 0.16110551
000370 ce 57 61 be ae be 08 3d f8 2a 02 3e 9e 3e 69 bc
       -0.22006151 0.03338497 0.12711704 -0.0142361205
000380 9a c6 24 be 93 c1 97 be ca 37 08 be da 3d 06 3c
       -0.16091385 -0.29639873 -0.13302532 0.0081934575
000390 65 aa 93 bd 8d e8 a6 bd 67 0d 83 bd b8 70 84 be
       -0.072102346 -0.08149824 -0.06399041 -0.25867248
0003a0 28 84 27 3e 41 70 1e bd 43 f3 57 3d 7e c0 6f be
       0.16359007 -0.038681272 0.052722227 -0.23413274
0003b0 81 fd 0c 3d 9e 61 c9 bd ec 1f fe bd 64 bb 08 3e
       0.034421448 -0.09833072 -0.12408432 0.13352734
0003c0 00 e9 16 3e bb 94 1a be c4 aa f4 bd 9e 77 84 3d
       0.1473732 -0.15095799 -0.119466335 0.06468128
0003d0 89 57 9f bc 57 84 70 3d ce 6f b5 3d d8 68 53 be
       -0.01945092 0.05871996 0.08859216 -0.20645463
0003e0 ac ad 94 bd 1d bf f2 3b d5 e0 a8 bd bb 57 79 3d
       -0.07259688 0.0074080364 -0.08246008 0.060874682
0003f0 4d f6 9d bd 99 2b 76 3d 54 1b 00 3e 88 00 bd 3d
       -0.07712994 0.06010017 0.12510425 0.09228617

net.2.bias f4 [128]
000000 df e7 a1 3d fe 9e 3a 3e 3f fa e7 3d c0 d7 a3 3d
       0.07905554 0.18224713 0.113270275 0.080001354
000010 a7 97 29 3e f0 f2 55 3d 5c ca de 3d 0f ac 40 3e
       0.16561757 0.052233636 0.10878441 0.18815635
000020 99 bd 97 3e 26 b9 6f 3d aa 2c 73 3d 46 2f 3a be
       0.2963684 0.05852618 0.059368767 -0.18182096
000030 c6 4f de 3d 47 33 a9 3d 87 2a 40 bb 30 93 4a 3e
       0.10855059 0.082617335 -0.0029322223 0.1978271
000040 c2 cc 63 3e 01 45 ce 3d 5c 30 a3 3d 1e 31 ba 3d
       0.22246078 0.10071755 0.07968208 0.090913996
000050 48 41 2b 3e ab 2b 05 3e 15 7b 34 3e a8 c0 4c 3d
       0.16724122 0.1300494 0.17625077 0.04998842
000060 91 d7 6d 3e 44 3e 1c 3e 94 61 57 b1 49 99 d2 3c
       0.23226763 0.15258127 -3.1342084e-09 0.025707858
000070 59 f7 b6 bc a5 27 b6 3d 49 15 e3 3a f6 c6 08 3e
       -0.022334741 0.0889428 0.0017325069 0.13357148
000080 3f 97 ec bc 9f 77 33 3e 27 d4 4a 3d 43 5e 88 3c
       -0.028880714 0.175261 0.04951873 0.01664651
000090 1b a9 21 b4 94 d7 b8 3d aa 17 e9 3d b2 4e f3 3d
       -1.5055814e-07 0.09025493 0.11381467 0.11880244
0000a0 4f 0e c7 bb 19 72 49 3e be c1 ec 3d 88 5f 9c be
       -0.0060747038 0.19672431 0.11560391 -0.30541635
0000b0 c4 b4 45 3e 78 52 1a 3e 40 da de 3c f1 c6 3a be
       0.19307238 0.15070522 0.02720368 -0.18239953
0000c0 4d 29 05 3e 13 ce 50 3e 1e 89 a1 3d 6c bf d4 3d
       0.13004036 0.20391111 0.07887481 0.10388073
0000d0 a1 c1 72 3e a4 87 f0 bc 6b 34 04 3e 23 f5 09 3e
       0.23706676 -0.029361553 0.12910621 0.13472418
0000e0 1a 94 3c 3e 32 36 81 b9 9e 66 f0 3d 09 9b 3c 3e
       0.18415871 -0.00024645176 0.11738323 0.18418516
0000f0 af d3 45 3e be f3 26 3e 39 11 0c 3e ab e4 51 3e
       0.19319032 0.16303918 0.13678445 0.20497386
000100 f3 3b 1f 3e 07 4c 52 3e 9a 67 61 3e 00 f3 03 3e
       0.15550213 0.20536815 0.22012177 0.12885666
000110 d4 19 18 3e 91 24 8c 3d 93 2d 2b 3e 6a 8f cd 3d
       0.14853603 0.06842912 0.16716604 0.1003712
000120 0a f8 10 3e 0f d5 5c 3e 53 9d 83 bb 26 64 22 3e
       0.1415712 0.2156565 -0.0040165572 0.15858516
000130 f5 0c b6 3d a1 87 62 3e c2 6e 83 3d 00 65 4e bc
       0.0888919 0.22122051 0.0641761 -0.012597322
000140 3c ac a2 3d 64 19 c4 b8 ed 2f 93 3e 73 8f 7a 3d
       0.07943007 -9.350738e-05 0.28747502 0.06117196
000150 d1 51 41 3d f8 ad c7 3d 7c 87 72 3d ce 8c d7 3c
       0.047197167 0.09749979 0.05921124 0.026312258
000160 1a a4 2f 3e 6b 83 03 3e 0e 9f 76 3d 64 1a a4 3d
       0.17152444 0.128431 0.06021028 0.08012846
000170 52 f7 11 3e 40 50 28 3d ed 0d 12 bc 26 47 2b 3e
       0.14254501 0.041092157 -0.008914453 0.1672636
000180 31 26 9e a2 bf d4 a0 3d c4 93 2b 3e b7 c7 09 3e
       -4.2866423e-18 0.07853078 0.16755587 0.13455091
000190 0c 8f 5f 3e fe a9 ec 3d dc 2b 04 3e 29 05 dd 3d
       0.21831912 0.11555861 0.12907356 0.10792
0001a0 7d 36 2a 3e 79 75 48 3e df 86 37 3e 3a 63 01 3e
       0.16622348 0.19576062 0.17922543 0.12635508
0001b0 40 81 f7 3c 87 29 af 3d 61 d6 4f 3e f9 a1 71 3d
       0.030212998 0.085528426 0.20296623 0.05899236
0001c0 c3 2d 4e 3e 9c 9c ff 3d 49 f6 1a 3d bb 13 53 3e
       0.20134644 0.12481043 0.037832532 0.20612995
0001d0 0e b3 35 3d d8 d6 95 bc ff 60 be 3d 7f d3 2b 3e
       0.044360213 -0.018290922 0.09295844 0.16779898
0001e0 e3 c7 83 3c b4 3c c2 3d e3 fb f0 3d 21 01 79 be
       0.016086524 0.094842345 0.117667936 -0.24316837
0001f0 65 fc ce 3b 41 a2 22 3e 9e f2 17 3e b4 cd bb 3d
       0.006316709 0.15882207 0.14838645 0.09170094

net.5.weight f4 [4, 128]
000000 fe 75 67 bd ed 1d f4 be cc dd e1 3e 14 5f 07 3c
       -0.05650901 -0.47679082 0.4411453 0.0082624145
000010 5f 0a 8e 3d 60 a5 9e 39 41 b3 1b bc 7a d1 87 be
       0.06935572 0.00030259322 -0.009503187 -0.26527005
000020 be 5a a2 3e 3b 52 00 bd a4 59 a6 be 47 63 b9 bd
       0.31709856 -0.03132842 -0.32490265 -0.09052139
000030 51 04 09 be 5a fa a4 be ef 12 09 bc 5e 3b e4 be
       -0.13380553 -0.32222253 -0.0083663305 -0.44576544
000040 7d 46 d3 be dd a9 63 be 97 ba 0e bd 93 4b e4 3c
       -0.41264716 -0.22232766 -0.034845915 0.027868068
000050 71 35 bf be c8 f6 82 3d 7f 36 b8 be 98 20 3b be
       -0.3734546 0.06394726 -0.35979077 -0.18274152
000060 ab ee 40 3c 22 93 cc 3c d9 31 98 37 6d 9f 4e 3e
       0.011775653 0.024972502 1.8143024e-05 0.20178004
000070 e4 f3 45 bc 3e 76 98 3b e3 e1 78 bd 44 66 c0 3c
       -0.012082074 0.0046527674 -0.060762297 0.023486264
000080 e2 1f 16 be 8b 2c 6c bc 3b 4b 47 3d 76 d2 82 3b
       -0.146606 -0.014414917 0.04865573 0.003992374
000090 6b 26 05 3c cf 82 7e 3d 65 a1 e5 bc 82 2f 75 3e
       0.008126835 0.062136468 -0.02803106 0.23943904
0000a0 5f c0 e4 3a b4 86 1e 3d 80 9d 25 3d da 39 a9 3d
       0.0017452351 0.03870268 0.040433407 0.082629874
0000b0 93 f3 aa 3d a2 ce 4a be c7 c5 03 3d 92 63 a2 be
       0.08347239 -0.19805387 0.032171037 -0.3171659
0000c0 e0 b5 86 3d 60 4a d0 3c d1 d7 20 3d d6 2c 86 be
       0.06577659 0.02542609 0.03926832 -0.26206082
0000d0 de c2 88 3d 45 5e 9b bc 08 91 84 bd 19 a1 7d 3c
       0.06677793 -0.01896585 -0.06472975 0.015480303
0000e0 26 c2 61 3b 3a ea f4 bb 03 91 94 bc 0d d8 83 3d
       0.0034447997 -0.007474211 -0.018135553 0.06437693
0000f0 f8 82 a4 3e a1 56 a3 bc 84 aa f8 be e8 2a 42 3d
       0.3213117 -0.019938769 -0.48567593 0.0474042
000100 da df d5 bb f9 43 94 be c8 25 28 3d 9a ec 75 3c
       -0.0065269293 -0.2895811 0.041051656 0.0150100235
000110 45 fd 83 bd 02 c4 fb bb b3 54 a1 3d 08 3a d9 3c
       -0.06444792 -0.007683278 0.07877483 0.02651693
000120 8d 47 50 3d ef 3e 42 bd d7 c1 c2 bc 17 2c d4 be
       0.050849486 -0.0474233 -0.02377407 -0.41439888
000130 9d d9 8f 3e 39 41 bb bb ab 04 89 3d 64 b8 a2 bc
       0.28095713 -0.0057145623 0.066903435 -0.019863315
000140 8e 08 09 3b b3 5c 75 3b 76 87 b5 3d 3d c9 aa be
       0.002090964 0.0037439286 0.08863728 -0.33356658
000150 05 86 99 3c 81 df fb 3c 42 6a 74 bd eb 2b 88 bd
       0.018740663 0.030746223 -0.059671648 -0.06649002
000160 10 50 df 3b 1f a3 df be 0c 5e 05 be 86 7a 9a bd
       0.006814964 -0.4367914 -0.13024157 -0.07542901
000170 94 a9 b4 3c 0e 10 ca bd ea 49 9c bc 3e 5a e7 bb
       0.022053517 -0.098663434 -0.019078214 -0.0070603183
000180 ad 67 6a 35 18 0a 84 3e 41 6e f3 bc 8a 19 fd be
       8.732266e-07 0.2578895 -0.02971566 -0.49433547
000190 f1 b9 f9 be c2 2e 5f be 72 f0 54 bc 1d ab 7a bd
       -0.48774675 -0.2179518 -0.01299678 -0.061198343
0001a0 0f 5e 6d bd 1e 28 77 3d 51 49 b0 3b 89 48 ae be
       -0.05795103 0.060340993 0.0053798337 -0.34039715
0001b0 5d e1 03 bd a3 a3 42 3e b0 5d 56 3e ea 2e 75 3e
       -0.032197345 0.19007735 0.20934176 0.23943678
0001c0 80 21 2b 3d 76 3c de bc 60 5f 16 be a2 cd 64 3d
       0.041779995 -0.02712844 -0.1468482 0.05586017
0001d0 90 55 64 3d 83 ac b5 be 3a 39 f1 3c 88 7f 17 3d
       0.05574566 -0.35483178 0.029446233 0.036986858
0001e0 15 07 13 bc 63 14 d0 bd 0e 6a 9d 3c e7 1a cc bd
       -0.008973856 -0.101601385 0.01921561 -0.09966069
0001f0 ce 85 8d 3d fb c4 66 bc c8 50 83 3d 26 30 20 3c
       0.06910287 -0.01408505 0.06411892 0.0097771045
000200 12 3c 4a 3e 7e b5 3d 3e c7 cd 25 be 83 9d 32 bf
       0.19749478 0.18526265 -0.16191779 -0.69771594
000210 37 1a fc be 6c 64 c6 be 88 d7 cf be 75 ea 01 3e
       -0.4923875 -0.3874849 -0.40594125 0.12687095
000220 d0 ac d6 be 0e 22 b9 3e 32 20 42 bf e6 9f cb be
       -0.4192872 0.36158794 -0.75830376 -0.3977043
000230 45 4d 87 3e d0 13 3d 3d 58 20 b9 bc 9e 95 7c bd
       0.2642614 0.046161473 -0.02259843 -0.061666124
000240 ca 3c da 3d c3 10 5e 3e 99 8d 00 bf a9 04 a8 be
       0.10656126 0.21686082 -0.5021606 -0.32816055
000250 da 13 89 3d 6f 7f 1b bf f1 75 48 3e 9c c4 58 3b
       0.066932395 -0.60741323 0.19576241 0.0033076173
000260 7b 19 26 bf 18 9a 39 3e 1e 5e 10 b6 3a ed bc 3e
       -0.6488263 0.18125188 -2.1512456e-06 0.3689974
000270 30 dd d5 bd f5 1f 18 bf a1 8d 0b bf 63 5d df be
       -0.10442579 -0.5942376 -0.54512984 -0.43625936
000280 fb 92 41 3e 35 ab ef 3d 4b 29 1b bf fb 11 af be
       0.18903725 0.11702577 -0.60609883 -0.34193406
000290 4d 5b 78 bb 32 7a 2b bf c8 b7 36 be 24 da 19 3e
       -0.0037896216 -0.6698333 -0.17843544 0.1502462
0002a0 42 65 d1 be 19 ed 0a bf 97 b1 11 3d 13 27 3d 3f
       -0.40897566 -0.5426803 0.035569753 0.7388775
0002b0 4e 76 98 3d 23 87 ff 3d 3e 37 81 be 11 8d 35 3f
       0.0744444 0.12476947 -0.2523746 0.70918375
0002c0 bb 1a 96 be f9 33 06 bf 0c b2 e5 be e3 06 bc 3d
       -0.2931727 -0.52423054 -0.448624 0.09181001
0002d0 cf 21 cd be 26 9b 88 bc 26 41 68 be cf 48 65 3d
       -0.40064856 -0.016675543 -0.22681102 0.05597764
0002e0 7a f1 05 be bf f6 4b bb 5a da 04 3e bc ac a7 be
       -0.13080397 -0.0031122414 0.1297392 -0.32748973
0002f0 d7 82 0d bf 7b 3b ee be 08 3f d6 3d 7c 77 34 bf
       -0.5527777 -0.46529755 0.10461241 -0.7049482
000300 f2 35 ea ba fb 59 32 3e 40 df 60 bd 64 c9 49 3e
       -0.001786886 0.17417137 -0.054900408 0.1970573
000310 ce 4b 89 3e b6 38 93 be 5e 18 01 bf 57 29 2c bf
       0.26815647 -0.28754205 -0.50427806 -0.6725058
000320 74 25 1c bf b9 b8 14 3e 7f c8 08 3b a0 50 ea 3e
       -0.6099465 0.14523591 0.0020871458 0.45764637
000330 91 9d 1a 3c 01 19 88 be 2a a4 23 3e 6f d4 e8 3b
       0.009436981 -0.26581576 0.15980592 0.007105402
000340 e2 42 07 bf 49 82 90 bc c8 78 f4 be 10 44 82 3e
       -0.5283643 -0.01764025 -0.477484 0.25442553
000350 8a 76 21 bf 75 82 bb 3d a9 6d 2b bf e5 4a 4c bd
       -0.630715 0.09155742 -0.66964203 -0.049876112
000360 7d ed 86 bd 08 54 08 3c f9 e9 2b 3f ad 73 a6 3e
       -0.06588266 0.008320816 0.6715389 0.3251013
000370 6b fc 07 bf d8 2d 61 be a8 66 4e bb f3 14 ab 3e
       -0.53119534 -0.21990144 -0.0031494293 0.3341442
000380 6a a9 f6 37 ae c5 ed 3e d8 98 e1 bc e3 17 55 3d
       2.9404375e-05 0.4643988 -0.027538702 0.052024733
000390 12 3d 32 3e 13 c6 02 3e 02 d6 89 be b6 00 63 bd
       0.17406109 0.12770872 -0.26921088 -0.0554206
0003a0 9f ed 8d bf f1 6b 2f 3e ed 6c 88 be c0 7c d1 3d
       -1.1088141 0.1713102 -0.26645604 0.10228872
0003b0 91 cb af 3d a8 8b b7 3e 69 3d 06 bf b4 ce e0 3e
       0.08583749 0.35848737 -0.52437454 0.43907702
0003c0 75 bb 0b bf 9f 9a c0 be 03 e9 c5 be 48 7f f5 be
       -0.5458291 -0.37617967 -0.38654336 -0.4794867
0003d0 ea f2 c2 be 3f bf 82 3e 6d b1 69 be 2c 39 2c bf
       -0.38075954 0.25536534 -0.22821589 -0.6727474
0003e0 ab c7 91 3d ac e7 87 3e 57 c7 13 be a1 81 9d bf
       0.07118162 0.2654394 -0.14431511 -1.2305185
0003f0 b6 8e 0b 3f 75 72 ab bb 37 7f 28 be da 66 0b bf
       0.54514635 -0.00523215 -0.16454779 -0.54453814

net.5.bias f4 [4]
000000 21 4e 69 3d f0 e6 34 3e c5 66 95 bd df 40 92 bd
       0.056959275 0.1766622 -0.07294992 -0.071412794

mean f4 [1, 16]
000000 78 d8 c0 41 36 46 12 41 eb f5 15 41 fe 2c 2b 41
       24.105698 9.142141 9.372539 10.698484
000010 3e 58 5a 41 ec 95 92 41 2c 4f c2 41 32 ea f6 41
       13.6465435 18.323204 24.288658 30.864353
000020 2e 42 0e 42 02 9f f7 41 78 df c2 41 cb d1 93 41
       35.56463 30.95264 24.359116 18.477438
000030 49 8a 5c 41 8b bd 2b 41 79 06 16 41 f8 76 12 41
       13.783761 10.733775 9.37658 9.154045

std f4 [1, 16]
000000 cd 72 20 41 9c 97 a3 40 a3 6b a0 40 03 d5 ed 40
       10.028028 5.112257 5.0131392 7.4322524
000010 f0 1e 36 41 d4 e3 74 41 f3 a4 8e 41 eb 2e 99 41
       11.382553 15.305622 17.830542 19.14791
000020 7f 3f a4 41 82 05 99 41 69 fe 8d 41 59 e0 77 41
       20.531004 19.12769 17.749224 15.492272
000030 67 4b 3b 41 76 90 f3 40 00 5a a1 40 03 5c a5 40
       11.705909 7.6113844 5.0422363 5.167482
