controller_multilabel_fonctionne_vite_fait.pt (torch, 80721 bytes, 8 tensors)

net.0.weight f4 [128, 16]
00000000: bad8 b6bd f082 493d 7f39 02be 8ad8 ff3d
00000010: 55f0 a43e 44ad a3bd aeaa a93e ddc8 0dbe
00000020: 9161 67be 123c 1ebe b070 5d3e 63f2 0bbe
00000030: a454 713d 64df 0dbe d87c e73d 072e d3bd
00000040: 9fd3 a83b 6121 da3d 55c7 13be 2bce 4fbe
00000050: 1ba7 3f3e 227e 9e3d 12bb aebd 4478 e03d
00000060: 907b a5be c8f6 85be 2625 bc3d 8986 723d
00000070: 51f4 d1bd e793 343d 48e1 383e fab5 263e
00000080: d8ce cc3d 8143 063b d1ae 13be b8fb 8b3c
00000090: 7714 bcbd cf29 57be 08c3 603a 3a72 c1be
000000a0: cb43 c43d 3993 bd3c ce1e 3abd 94b2 7abb
000000b0: 010a 7dbe 7b20 2b3e 1f01 26be f5be e2bd
000000c0: 12aa 48be 25d3 8c3c 08cd f0bd 0b14 f33c
000000d0: 15c8 a6bd d151 aebd 0633 4ebe 0692 eebd
000000e0: e388 77be 4b3f 413e 9098 47be a8c3 643e
000000f0: f7be b33d be36 d6bd dc72 be3b 4c91 dcbc
00000100: 1cdf 9abe e436 17be 2305 af3e 223d 2fbe
00000110: 1e01 56be 7f8c 53bd afd6 6dbd 69e3 3b3e
00000120: 3f60 523d 4498 2d3d 6d95 79bd 30b1 863e
00000130: c104 743e 0c1d 49be 704a 4fbe 2980 3abe
00000140: 0861 babd aa3a bb3d 34ec 363d 7d42 ccbc
00000150: 2029 1d3e 2bfb 7e3e e71b b23e a715 ba3d
00000160: 2f50 6d3c 1d45 623e 570b 783e d9cc 153e
00000170: 2fef 283e 1aeb 08be 15cd 76be 91ed a3be
00000180: d32e 81bd 3ce3 ab3d c70a b8bc 4958 dc3d
00000190: db33 3b3d 71c6 9b3e f2bc d33e f6bd c7bd
000001a0: 55b0 90be ff3b 6abe 5906 6d3d efa5 bebd
000001b0: 68c0 17ba 5586 423d 9637 73bd f3e3 493e
000001c0: ece3 9fbe a360 803e 263d fb3d 7044 553d
000001d0: e0bf 8cbe 4106 8dbd e7f3 523e 3ef2 14bc
000001e0: ebaa d3bc c000 8cbe 7e8d 8bbd df89 af3d
000001f0: 66c3 48bd 9704 d7bd 19b4 35bd 6516 63be
00000200: 076f bb3e 7360 493d 80db 0abb faff 033e
00000210: aa46 833e c31f 13bd 9114 f03b f5a6 80bd
00000220: 04c8 423d 8ff6 0a3e 1494 003e b0e2 1e3e
00000230: 87b8 903c 284e 903e 5498 8dbb 7399 b93d
00000240: ed7b 053e f728 193e b4c7 76bd 68ec 753c
00000250: fd80 383e f6b4 c0bd f35e 27be d123 d7bd
00000260: 87bd 51be b9bc dbbd 9c9a c1bd 28f5 2fbe
00000270: 3c95 58be d2ed 30be 02f9 5fbe fe57 1ebe
00000280: 9055 f8bd f6d1 d9be 0cf3 70bc f7d5 df3c
00000290: f102 383e b024 aa3d ebd6 b93e 2b1e fd3d
000002a0: 0ef4 70be 9eb9 cebd ab47 dabd 7481 52bd
000002b0: e011 d0bd 5599 813d ea81 ca3d 3ae1 58be
000002c0: effb a93c d178 5a3e 3abd 4cbe f291 b3bd
000002d0: 97e6 52be ec40 1b3e 5e33 6ebe 695b 89be
000002e0: 9c95 9d3e ed48 323e a483 7dbd 4f8a 633e
000002f0: dc68 c43d b62d cbbd 19fd 3c3e 0ec8 26be
00000300: 2eee 79bc c886 8a3e ed84 21bc 0dad 35be
00000310: 0aae dcbc 7acb 4bbe 027c 17be 7832 213c
00000320: b0a3 b53d 8e84 343e 07a8 693e cb01 32bd
00000330: e75e 013e b39f d33c e95a 353e eadb aabe
00000340: d7e9 843e 91cb edbc 7c19 2bbd 384d 1bbe
00000350: 3a8d 3a3d 799e a3be 58dd 423e 242c a4bd
00000360: 7332 d13c 0f60 96bd e388 9bbe 5791 19bc
00000370: 7746 e1bd 9b29 77be 1398 713d f951 5c3d
00000380: be9d 793d f49a 92bd 2ab2 1c3d 61b2 bfbd
00000390: b0e0 253c 0674 07be dfe7 edbd cede 8abe
000003a0: 35f6 913e 6224 45be fd05 81be 1122 e8bd
000003b0: f8ae 203d 2739 18be d0c9 c5bc a654 ae3e
000003c0: 1227 82be ab5b e9bc 2ae8 81be aee3 53be
000003d0: 7fd8 d7bc 1342 233e 222e 5a3e 6b17 5bbe
000003e0: f16e 51be c85b edbd a8b3 dcbd 1858 42be
000003f0: e44f 1a3d 0c0a b03c 1f18 f93d d18b 08be
-0.08928056 0.049197137 -0.12717246 0.124924734 0.3221461 -0.07992032 0.3313803 -0.13846155
-0.22595812 -0.15452603 0.21625018 -0.13666682 0.05891861 -0.13854748 0.11303109 -0.103115134
0.0051521803 0.10650898 -0.14431508 -0.2029349 0.1871609 0.07738902 -0.085317746 0.10960439
-0.32320833 -0.26164842 0.09186773 0.059210334 -0.10251678 0.044086363 0.18054688 0.16280356
0.1000039 0.0020487013 -0.14422156 0.017087802 -0.09183591 -0.21012042 0.0008573984 -0.3778246
0.09583243 0.02314149 -0.045439534 -0.0038253414 -0.24710847 0.16711609 -0.16211365 -0.110715784
-0.19596127 0.017190525 -0.117578566 0.029672643 -0.08143631 -0.08511699 -0.20136651 -0.116489455
-0.24173312 0.188718 -0.19491792 0.22340262 0.08776658 -0.1045966 0.005812032 -0.026924752
-0.30248344 -0.14767033 0.34183607 -0.17113164 -0.20898864 -0.05164766 -0.058066066 0.18348469
0.05136132 0.04238154 -0.06093352 0.26307058 0.23829938 -0.19639987 -0.2024324 -0.18212952
-0.091005385 0.09142049 0.044658855 -0.024934048 0.15347719 0.249005 0.34786913 0.09086161
0.014484449 0.22096677 0.24223076 0.14628924 0.16497491 -0.13370934 -0.2410167 -0.32017186
-0.06307759 0.08392951 -0.022466077 0.107590266 0.04570375 0.30424836 0.4135509 -0.09753029
-0.2825953 -0.22874449 0.05786738 -0.09308993 -0.00057888636 0.04749139 -0.059379183 0.19715862
-0.31228578 0.25073728 0.122675225 0.05206722 -0.2749014 -0.068859585 0.20600854 -0.009090958
-0.025838336 -0.27344322 -0.06814097 0.08571219 -0.04901447 -0.10498922 -0.044361208 -0.22176512
0.36608145 0.049164247 -0.002118796 0.12890616 0.2563985 -0.035918962 0.0073266705 -0.062818445
0.04755403 0.13570617 0.12556487 0.15516162 0.017666114 0.28184628 -0.0043211374 0.09062471
0.13035555 0.14957033 -0.060249045 0.015009977 0.18017955 -0.094095156 -0.16344814 -0.10504878
-0.20482455 -0.10729355 -0.094533175 -0.17183363 -0.21150678 -0.17278221 -0.21872333 -0.15463254
-0.12125695 -0.42543 -0.014706384 0.027323706 0.17969872 0.08307779 0.36296782 0.1235927
-0.235306 -0.100939974 -0.10658201 -0.051392987 -0.101596594 0.06328074 0.098880604 -0.21179667
0.020750014 0.2133515 -0.19994059 -0.08768071 -0.20595776 0.15161484 -0.23261783 -0.26827553
0.30778205 0.17410631 -0.06189312 0.2222073 0.09590313 -0.09920828 0.18455924 -0.16287252
-0.01525454 0.27055955 -0.009858352 -0.17741795 -0.026938457 -0.19901839 -0.14793399 0.009838693
0.088691115 0.1762869 0.22818004 -0.04345874 0.12633859 0.025832986 0.1771046 -0.33370906
0.25959656 -0.029027732 -0.04177235 -0.15166175 0.04554484 -0.31956843 0.19029748 -0.08016232
0.025536751 -0.073425405 -0.30377874 -0.009373031 -0.10999768 -0.24136965 0.05898292 0.053789113
0.06094145 -0.07158461 0.038255848 -0.09360195 0.01012437 -0.13227853 -0.116164915 -0.2712311
0.28508154 -0.1925216 -0.2519988 -0.11334623 0.039229363 -0.14865552 -0.024144083 0.34048957
-0.25420433 -0.028486094 -0.2537244 -0.20692322 -0.02634835 0.15943174 0.21306661 -0.21395652
-0.20452477 -0.115897715 -0.10776454 -0.18978918 0.037673846 0.021489166 0.12162804 -0.13334586

net.0.bias f4 [128]
00000000: e578 87bd e81c 153e 9cf3 b63d 0b3b 4f3e
00000010: 52d7 443d 36c1 ee3d 3bd8 1e3d 73c5 9abe
00000020: 0b44 21bc e514 fb3c 02b0 debd dc56 543e
00000030: a804 1b3d 0176 9f3d a547 20be c84e a93d
00000040: eadb 243d 99c3 773e 6980 5d3e bcad d9bd
00000050: 37eb 873e 638c 21be c01e 97bd c535 d23d
00000060: b52f 203e 8fa4 223d 4fa6 13be 4479 453d
00000070: e6fd 803e 6fac 3ebc 2025 413d 05d7 2e3c
00000080: fda2 e9bd 0fe2 d7bd 735c 183e fb71 4bbe
00000090: 8869 933d 06b6 47be 1847 453e 702b 313e
000000a0: 5c9f 84bd e207 edbd 339e 023e 0569 673e
000000b0: e2d9 793e 9c7c 4d3d b621 f83c 0e0d 803e
000000c0: f891 a6bd a29e 3d3e 391d 023e 2784 71be
000000d0: 6188 453e 4d02 8dbc 0ac9 c9bd 423f 17be
000000e0: 3852 eebd a2d1 8b3e 7bfe 47be ecf9 cfbd
000000f0: 2b1d 3b3e 036d 86be 7086 953e b790 f4bc
00000100: bbac c03d 313c cebc 4563 7e3e ac26 5bbe
00000110: 1cd9 50bd 2bd3 29be 948c f03d 2e4f 50bc
00000120: c67a 503e 2568 643d e204 f73d 72dc 12be
00000130: 1497 503c c0b1 2e3d 4620 a0bb 20c8 98be
00000140: c8c8 893d 270d fc3d 2752 4fbb 041c 0e3d
00000150: 71de fd3d ccbb 2bbe 6cb8 f33d 7081 cf3d
00000160: 02c1 683e 5b86 0ebe 4352 333d b190 06be
00000170: fa57 1c3e 37d3 4f3e 9bdc 7bbe d83a 35be
00000180: 27e0 c23d 45ab ecbd a7fd 173e 8d85 8e3e
00000190: bd70 883e 9a4a 9a3c 4f49 2abe ae01 0cbe
000001a0: 00a6 08bd 3f09 993d 05e0 a23e 337d 6fbd
000001b0: 8a2a 0a3e 8ccd ab3d cba4 dbbc 40fd d73d
000001c0: 96b3 11be cacb 243e 740f 6bbe 2a76 e33d
000001d0: 29bd 59be 3ba9 673e a54d a6bd 966c 1abc
000001e0: a120 f33c 8f24 813d 5b2e 63be d782 0dbe
000001f0: 2c9f f23d 43ed 21bd 0d2d a43d c2a3 49bd
-0.06614856 0.14561808 0.089331836 0.20237367 0.048056908 0.11657946 0.038780432 -0.30228767
-0.009842883 0.030649612 -0.108734146 0.20736259 0.037846237 0.07786179 -0.1565233 0.082669795
0.04024879 0.24195708 0.21631016 -0.1062884 0.26546642 -0.1577621 -0.07378912 0.10264162
0.15643199 0.039707717 -0.1441891 0.04821135 0.2519371 -0.011637791 0.047154546 0.010671382
-0.11408041 -0.10541164 0.14879017 -0.19867699 0.07197863 -0.1950303 0.19265401 0.17301726
-0.06475708 -0.11573769 0.1275566 0.22598656 0.24399522 0.050167665 0.030289512 0.2500996
-0.0813331 0.18517545 0.1270646 -0.23585568 0.19290306 -0.017213011 -0.09852798 -0.14770225
-0.11636776 0.27308375 -0.1953067 -0.10155091 0.18272845 -0.26255044 0.2920413 -0.029854162
0.09407946 -0.025175186 0.24842556 -0.21401471 -0.0509883 -0.1658446 0.11745563 -0.01271419
0.20359334 0.055763382 0.12061478 -0.14341906 0.012731332 0.042649984 -0.00488666 -0.29840183
0.06727749 0.12307196 -0.003163466 0.034694687 0.12395943 -0.16770858 0.1190041 0.1013211
0.22729877 -0.1391844 0.043779623 -0.13141133 0.15267935 0.20295416 -0.24595873 -0.17698228
0.0951541 -0.115561046 0.14842854 0.27836266 0.26648512 0.0188344 -0.16629528 -0.13672516
-0.033361435 0.07472467 0.31811538 -0.05846901 0.1349279 0.08388814 -0.026811978 0.105463505
-0.14228663 0.16093364 -0.22955114 0.111065224 -0.21263565 0.2262315 -0.08120278 -0.009425303
0.029678645 0.06305801 -0.22185652 -0.13819443 0.11846766 -0.03953291 0.08016405 -0.049228437

net.2.weight f4 [128, 128]
00000000: 865d 043d d672 033d 9ceb 373d d2b4 9a3d
00000010: 69a1 10bd c1e0 ac3d c2d2 2ebd a962 0ebe
00000020: 25df 00bd fac6 313d 4cd6 d6bc 430f a23d
00000030: 092b ec3b e2fe ac3d 6290 2e3e 1fbe 9d3d
00000040: de97 05bd bd5e 983d 7ee4 223c d16e 83bd
00000050: 1542 dd3c 2456 933d 0cfc 2fba c0dc bd3d
00000060: 1339 1f3d c3b2 86bd caea 1a3d e8f4 dfbc
00000070: e219 273d 0e7b 283c 31e9 0d3e e730 b13d
00000080: 506f d5bc 2273 7ebd 4de9 00be ed4f 05bb
00000090: c081 cdbc 633a 64bc 1aeb 9cbd 4051 bebc
000000a0: 6a77 d93c 79c2 e7bd 3814 f83c ece4 223d
000000b0: a69d efbc 421d c53b 4d7c b5bd d5f9 23bd
000000c0: c630 d8bd cfd4 cb3b 33c5 b5bd 4db5 5abd
000000d0: 0b1a e13b 0ea1 933d 1a55 ee3d af5b 38bd
000000e0: 0137 02be d9e1 a23d 398c 51bd 6388 403d
000000f0: 63ac 013d 0ab3 14bb 71bf 88bc b512 fd3c
00000100: a557 d6bd 7903 87bd 3ada 8abc a3ba 25be
00000110: 24fe 8c3d 4bf6 b13d 18d3 033a e574 5f3c
00000120: 2438 4e3d fdb7 d43d 9429 7f3d 4eef 973d
00000130: 3b04 9dbd 192c 183e 0f8d d9bd 7905 d1bc
00000140: bc8b 9a3d bf42 8abb 154a 493e 5dfa 1a3e
00000150: 5877 87bd 2adf 6e3d 83aa ba3d 017b 703d
00000160: e341 20bc 4edf 8d3d e038 93bd a062 fbbd
00000170: 4ce8 aa3d 6609 4e3d 43e5 353d 92d9 7f3d
00000180: 2525 ae3c 9713 8abd d9cc 343d 1acc d93d
00000190: c667 c4bd e8eb 7b3a 04d4 483d cc78 273e
000001a0: 809c a3bd 0be6 663d 3dc3 0a3d c703 213d
000001b0: ad43 5c37 25a9 f43d 00ba bd3d 39a7 2b3d
000001c0: 0cb0 9e3d 3947 e33d e889 aebc f29d 20bd
000001d0: cce0 17bd a48e b93c ee92 f73d f2d3 72bd
000001e0: 9b4d ebbd b322 7d3d 5e62 bebb d97a 513e
000001f0: 6c61 22bc ba4d 8f3d 4b0d 89bd 2783 b03c
00000200: 4a2f fdbc 784f 7fbc f3a0 803d 08f6 4c3d
00000210: ef51 81bd 094c d93d 3e7a 00bd 2d62 c53d
00000220: c9e2 ac3c aac0 81bc 2d5a 723d 9b68 e63d
00000230: 11c7 a13d e9ff d33c ff16 233e 8470 3dbd
00000240: f1e3 16bc 8c93 e13d 6cef 92bc c754 57bc
00000250: b28b 273d 3a43 7e3d 36ea ec3d b86f e43d
00000260: b4f4 ab3d e910 1abd 2caa 91bd 4fe8 803b
00000270: 5913 80bd 60cf fe3d d3a6 083e d61a 90bc
00000280: 124f 1cbd f060 eebd d860 49bd 3580 e53d
00000290: 6da1 823d d5bf 833d 2fb4 3f3d 1404 b93d
000002a0: 68a9 71bd b914 c83c d487 fb3d b54b fd3b
000002b0: 7109 633d 405b abbc f412 b33b e6ef f2bc
000002c0: e040 2abd 0df1 9dbd 158d 0fbe 65f4 bdbc
000002d0: ae9e bfbd 52ef 523e bb10 cf3c 4ba1 f2bd
000002e0: aefe c4bc ca42 a1bd a4b4 90bd 0cb4 90bd
000002f0: 0b06 fcbc 36c8 e53c a4c0 d539 dff6 d3bd
00000300: 7876 453c d05d 2ebd 7c28 923d 99e3 4fbb
00000310: 74e1 c73d b4e8 3a3e 18c1 e13d aa58 d8bc
00000320: 08bc 713b 4df6 033e be8a bebc 87c7 663d
00000330: 91be 01be 7d19 cfbb a990 ab3c 6261 ae3d
00000340: 67c7 3abd b8f2 f3bd 6105 ca3d 749f 1b3e
00000350: 21c9 dcbd 0edb 193c 4b1a a63d 1eb9 35bd
00000360: a3c7 84bd a191 c63d d1a0 ae3d 989b 55bd
00000370: 78dd 273d 05d3 3f3d 3883 093e ffe2 b93d
00000380: 870c a93d df9c 15bd 8e60 36bd 6f2a 863d
00000390: a95d 223d b1de 9a3c 6c3b 073d bb07 993d
000003a0: abbc 1cbd 2452 b53c 98d8 14bd c04c 7a3d
000003b0: f450 6b3d 8a75 9a3d 4550 8a3d ae02 cfbb
000003c0: 22eb 7b3d eb45 dfbc b70d f93b 0016 b23c
000003d0: 0673 61bd 4589 5c3d efc6 e53d d5eb 83bd
000003e0: d9b2 e8bc 0f04 db3d d623 503d 5b2e 283e
000003f0: ade6 8bbc 08f0 863d 3293 55bd 123f a2bd
0.032315753 0.032091938 0.04490243 0.0755402 -0.035310183 0.08441306 -0.042681463 -0.13904823
-0.031462807 0.04340265 -0.026225232 0.07913067 0.0072072786 0.084470525 0.17047265 0.07702278
-0.032615535 0.07439945 0.009942172 -0.06417621 0.02700905 0.071941644 -0.0006713278 0.0927062
0.03887279 -0.06577065 0.03782157 -0.02733846 0.04079617 0.010283245 0.13858487 0.086519055
-0.026054054 -0.062121518 -0.12588997 -0.002034183 -0.025086284 -0.013929936 -0.076620296 -0.023232102
0.026546199 -0.113163896 0.030283079 0.0397691 -0.029249977 0.0060154507 -0.08861599 -0.04003318
-0.10556178 0.006220437 -0.088755034 -0.05339556 0.0068695596 0.07208453 0.116373256 -0.04500931
-0.12716295 0.07953233 -0.051159117 0.04700507 0.03165854 -0.0022689723 -0.016692849 0.03089271
-0.104659356 -0.06592459 -0.016949762 -0.16184478 0.06884411 0.08689555 0.0005028709 0.01363871
0.05034651 0.103866555 0.06229551 0.074186906 -0.076668225 0.14860572 -0.10622608 -0.025515305
0.075461835 -0.0042193825 0.19657166 0.15134569 -0.0661456 0.058318295 0.09114554 0.058711056
-0.009781334 0.069273576 -0.071885824 -0.122746706 0.08345088 0.05030193 0.044408094 0.06246335
0.021257946 -0.06742018 0.04414067 0.106346324 -0.09590106 0.0009610043 0.04903032 0.16354674
-0.079888344 0.05637173 0.0338776 0.039310243 1.3128779e-05 0.11946324 0.09263992 0.041907523
0.07748422 0.11097569 -0.021305993 -0.03921313 -0.037079617 0.022651024 0.120885715 -0.059284158
-0.114894114 0.06180067 -0.005810066 0.20457019 -0.0099109225 0.06997247 -0.066919886 0.021546913
-0.030906338 -0.015582912 0.062806986 0.05003932 -0.06314456 0.10610206 -0.03136658 0.09637866
0.021104233 -0.01583894 0.05916803 0.11250421 0.07899297 0.025878863 0.15926741 -0.04624988
-0.009209619 0.110144705 -0.01793643 -0.013142771 0.04090471 0.06207583 0.1156811 0.11154121
0.08396283 -0.037613783 -0.07112536 0.0039339433 -0.0625369 0.124418974 0.13344888 -0.017590921
-0.038161345 -0.11639583 -0.049164623 0.11206094 0.06378446 0.064330734 0.046802696 0.09033981
-0.05899945 0.024423944 0.122817665 0.0077299722 0.055428926 -0.020917535 0.005464906 -0.029655408
-0.041565776 -0.077119924 -0.14018662 -0.023187825 -0.093564376 0.20599106 0.025276532 -0.118471704
-0.024047222 -0.07874067 -0.070657045 -0.07065591 -0.0307646 0.02804957 0.00040770054 -0.10349821
0.012052171 -0.042569935 0.07136628 -0.0031721352 0.09759799 0.18252832 0.11023158 -0.026409466
0.0036885757 0.12886925 -0.023259517 0.056342628 -0.12670352 -0.006320177 0.020943003 0.08514668
-0.04560032 -0.11911529 0.09864307 0.15197545 -0.1078055 0.009390606 0.08110484 -0.044365995
-0.0648339 0.09695745 0.08526767 -0.05215034 0.040982693 0.046832103 0.13428962 0.09076499
0.082543425 -0.036526557 -0.044525675 0.06551062 0.039640103 0.018905016 0.033015653 0.074721776
-0.038265865 0.022133894 -0.036339372 0.06110835 0.05745025 0.0754195 0.067535914 -0.006317458
0.061503537 -0.02725502 0.007600512 0.021739006 -0.055041336 0.053841848 0.11219584 -0.06441466
-0.028405594 0.106941335 0.050815426 0.16423933 -0.017077768 0.06588751 -0.05214233 -0.07922186

net.2.bias f4 [128]
00000000: c3ac 7b3d 9a74 963d b618 063d 21eb 503d
00000010: 28a1 f1bd a056 4fbd aa36 87bd 30b5 943d
00000020: fa39 2e3d 866f 253d 3822 be3d ae2b 74bc
00000030: c15d 233d 130f 883d baf5 aa3d 2521 8b3c
00000040: 3644 cd3d a4a0 a3bc 8b5b 6a3b adda e63c
00000050: fab4 b8bd d9fb f53d 7fa2 a53c 0aeb 5dbd
00000060: bbaf e43d 2b0e cb3d d1b0 a93d 6f4a c63c
00000070: e11c 3f3d a498 5c3d 8d79 913c 1afc 023d
00000080: ab8a b13d 7707 d2bc 51a2 92bd 7ef1 eebc
00000090: 9a03 1d3d ac15 013d 6227 ad3d 04a4 34bd
000000a0: a2a6 123d ef00 2e3d f445 423d 8667 223e
000000b0: b750 3b3c b4e0 fa3d d1bd a23d 6b75 6ebd
000000c0: 1048 233d 2b0f a1bb 82ae 5ebd 2e8d 013e
000000d0: 7720 a1bc 5456 493d 92ad cc3c 84a2 6e3c
000000e0: 11aa c33d 94cd f63d 34b6 70bd 8d3e 47bd
000000f0: 0a86 9abd 31da 753d b69a b73d ba34 0a3e
00000100: ddfb 42b6 ce32 3bbd 14c6 3abc 9b03 d13d
00000110: a461 d53d 6e3b 6fbd de10 89bd cbcc bd3d
00000120: 608e 6bba eebd df3d fdd9 833d e8fa 89bd
00000130: 38b3 b5bc 35d8 9d3c 44d3 f03d 0db7 67bc
00000140: f750 d63d f8ee 613d 2fcb 8e3d 5147 2d3d
00000150: bd34 563d 0411 0dbd cadf be3d e38b a83c
00000160: 2dcc 963d b887 e03d b1d4 49bd 80c1 2a3e
00000170: b230 923c 433e 443d 700f 813d 8aaf 613d
00000180: 11ea 3c3c b4a6 30bd c36c b7bc 8cae b0bc
00000190: ff52 c83d 16b0 e23c 19bb af3d 2a75 b23d
000001a0: 92b0 29ba ce87 483d 4b22 7e3d 3696 0a3e
000001b0: bab4 223d 0934 353d c597 af3d 6ac5 9cbc
000001c0: ece2 87bc 643d ae3c ddef 673d 37c8 953d
000001d0: 005b 883c 3e15 1dbd 5f5c d63d b8eb a63d
000001e0: b3fb 683d acce e83d de54 dd3c f460 96bc
000001f0: 6fbc 13bd 3244 2b3d 8e83 2dbc 8cda a0bc
0.061444055 0.07346459 0.03273841 0.051005486 -0.11798316 -0.05061972 -0.06602223 0.07261121
0.04253576 0.04038956 0.092838705 -0.014902992 0.039884333 0.066435 0.0834765 0.016983578
0.10022776 -0.01997406 0.003576013 0.028180445 -0.090188935 0.12010927 0.020219086 -0.05417923
0.111663304 0.09914812 0.08285678 0.024205415 0.0466584 0.053856507 0.017758155 0.031978704
0.08669027 -0.025638325 -0.07159866 -0.029167887 0.038333513 0.03151481 0.08454777 -0.04410173
0.035803445 0.04248136 0.047429994 0.15859804 0.011432818 0.1224989 0.07946361 -0.058217447
0.039863646 -0.0049151382 -0.054365642 0.12651512 -0.0196688 0.049154595 0.024985109 0.014565114
0.09553922 0.1205093 -0.058767512 -0.048643637 -0.07545097 0.060022537 0.08965056 0.13496676
-2.9054856e-06 -0.045702748 -0.011399765 0.10205766 0.10419014 -0.058406286 -0.0669267 0.09267577
-0.0008985754 0.10924898 0.06438062 -0.0673731 -0.022180185 0.019268135 0.11759046 -0.014142764
0.104646616 0.05515954 0.06972348 0.04230434 0.05229639 -0.034440055 0.09320028 0.020574516
0.07363162 0.10963386 -0.049275104 0.16675377 0.017845485 0.04791094 0.063017726 0.055099048
0.011530415 -0.04312773 -0.022390729 -0.021567605 0.09781455 0.027671855 0.08580608 0.087137535
-0.00064731494 0.04895764 0.062044423 0.13533863 0.039723136 0.044239078 0.085738696 -0.019137103
-0.016587697 0.021269508 0.056625236 0.073135786 0.016644955 -0.038350336 0.10466837 0.081504285
0.056880664 0.113675445 0.027018007 -0.018356778 -0.036068376 0.041813083 -0.010590447 -0.019635461

net.5.weight f4 [4, 128]
00000000: 4d05 85bb 9383 593d 6d21 4bbe 945d 1dbe
00000010: 3a80 a1be b93f 4a3e 556e b93d ef90 ccbc
00000020: a3c8 38bc 3320 b53c 88e6 ac3c 4925 503e
00000030: a023 8cbc 347d 6abc 7e6d 353d 80e0 393d
00000040: cb46 13be 85c7 203e e265 a3bb c188 dabc
00000050: 265e ed3d 2cd5 6bbd 3230 813d 36ed 823d
00000060: 193c f4bd 892c be3b 9de7 3fbe 5a18 56bc
00000070: 5e83 13be b2fc 0d3e 7f5d ee3c e0df af3c
00000080: 3184 a5be 8cdc bf3c e535 a53d c2bf 6dbe
00000090: 47b7 ab3c e6a9 483d a071 e5bc 6d37 9d3d
000000a0: 1ba8 483c 4364 67bd aa1d 1a3d a7ae f6bd
000000b0: febb f3bd 200e b8bd 8785 d6bc 8404 4abe
000000c0: 5d70 35be 2c03 fabc 6d1a fabd eeeb a0bd
000000d0: 55e2 9f3e 12cd f7bd 77e9 4bbe ed70 ddbc
000000e0: 5eef a3bc bb37 6bbd c53a 543d e656 1abd
000000f0: 17aa 253e 3872 28be 8d68 933d 3fd4 1ebe
00000100: 3bb0 41b9 1b05 a23d e588 33bd 7537 523d
00000110: a314 0bbe 4fe5 c23d 5d9f a33d aaeb 73be
00000120: b006 deb8 fad6 33bc 1430 0abe 3cf7 7d3d
00000130: 1a12 ee3c 01af 99bd 0328 8ebe ca81 c9bd
00000140: 2098 af3c 9b31 00be 78d9 30be 11ef 223d
00000150: 946f 22be 0092 4bbd 7991 c4bc 57b3 b63d
00000160: 37ef 303d 52b0 f5bc a623 483e 98b6 7fbd
00000170: edd7 96be 7c29 4f3d 3ab3 49bd b5c1 0ebd
00000180: 6e3b 6ebd 2fc2 49bd 8645 08be 8002 f4bb
00000190: f6fc b83c 517b 353d c35d 43be 6a00 d7bb
000001a0: 0c79 563b 9af4 1d3e 03b1 e4bc c64f f8bd
000001b0: 9cad debd a0c4 cd3d aa6a bbbd 7168 073e
000001c0: 7920 1f3d bb92 483d 10e7 6d3a 0dc6 623d
000001d0: ab96 033d 8a67 c8bd 1f65 20be 769a 3dbd
000001e0: c098 25bc cedd a6bc 3b02 32be cf15 ecbd
000001f0: 77e5 0d3e 6d57 a8bd 99d7 febc e8ee 973b
00000200: 280c 4ebe 2172 0dbe e950 083e 6b2f 73bd
00000210: b160 ba3d b666 ff3d f6fe 2bbe 5155 70be
00000220: 0476 b1be a597 10be 0e46 c1be aeab b13d
00000230: b481 25be 267d d13d 467a 07be 85c1 c1bd
00000240: aeef 723d d6bf eebd f819 523e e6cb 57be
00000250: cecf 133e b277 0e3e b525 6bbc 0692 3dbb
00000260: 5a25 113e 6c4c 7bbe 629a 113e a991 7abd
00000270: 5e50 1c3e e8f0 063e 91a9 bcbe 06d9 50be
00000280: 28d1 343e 89bc 253d 1c03 7e3d fd2b 09be
00000290: 5cb8 38be ee35 24be 934c 71be 3c72 94be
000002a0: 6bd3 67be d668 073e f3d6 d53d 8c4b e8bc
000002b0: e265 7a3d 0889 ed3c a45e 8e3d bd0a 85bc
000002c0: 93da 283e c99a 843d 7084 cfbd 2712 3e3c
000002d0: bfbe 433e 3697 f1bb deeb 043e 3a45 03be
000002e0: ad56 d63d b16d 0fbe 659d 143e ba35 9f3d
000002f0: dc17 443e 0b0f 8b3d 4f11 88be 9de3 f8bd
00000300: 6bc6 393c 2eb6 c23d c75d bf3d 4296 c6bc
00000310: 1c1e 033e 0370 85bd 6685 2bbe 743b 663d
00000320: 5a5c 513b 0983 54be 0147 123c c2cf 33be
00000330: cb66 f93b e450 90be 24bb d33d 3750 a8be
00000340: 69f6 37be cbd3 11be a6fa ecbb d453 19be
00000350: 444c 133e 0246 063e 2dd4 5e3e d923 81be
00000360: b302 db3d a1fc 283e 0bb7 c4bb e0d1 673d
00000370: f12b 203e cb7a 64bc b469 053d 0e75 0dbd
00000380: 0441 35bd dd2f cc3d d12e 7d3d c585 343e
00000390: 6d6e 87bc 7a0c 72be 910d 3c3e 01df 5ebc
000003a0: 5711 17bb cb56 e23d bd4d de3d 87b5 2e3c
000003b0: 45f3 2c3d cc50 e23d 209e a73d 73f4 24be
000003c0: 7a46 8dbe 1cd6 1ebe ac71 dfbd 8fbf 47bc
000003d0: 835d 05be 3e80 2a3d c512 2d3e 2c1a 2dbe
000003e0: f767 37be 3671 b6be 5536 033e be13 923d
000003f0: 2655 9a3d df30 023e e6c2 83be b17a 903c
-0.00405947 0.053103995 -0.1983697 -0.15367728 -0.31543142 0.19750871 0.09054247 -0.024971453
-0.011278304 0.02211008 0.02110602 0.20326723 -0.017106831 -0.014312077 0.044293873 0.045380116
-0.14382474 0.1570111 -0.0049865106 -0.026676537 0.11590223 -0.057576343 0.06308021 0.06392901
-0.11925525 0.005803649 -0.18740697 -0.013067329 -0.14405581 0.13865927 0.029097317 0.021469057
-0.32327417 0.023420595 0.0806692 -0.23217681 0.020961417 0.048990153 -0.028008282 0.07676587
0.012247111 -0.0564921 0.037625946 -0.12045031 -0.11901091 -0.08987069 -0.026186718 -0.19728285
-0.17718644 -0.03051909 -0.122120716 -0.078575 0.31227365 -0.12099661 -0.19913279 -0.027031386
-0.0200116 -0.057426196 0.05181386 -0.03768053 0.16178165 -0.16449821 0.07197676 -0.15510653
-0.00018471565 0.0791113 -0.043831725 0.05132242 -0.13582091 0.095163934 0.079893805 -0.23820367
-0.000105870306 -0.010976547 -0.13494903 0.06200336 0.029061366 -0.075040825 -0.27764902 -0.098392084
0.021434844 -0.12518923 -0.17270458 0.039778773 -0.15862876 -0.049699783 -0.023995148 0.08920925
0.043196883 -0.029991303 0.19544849 -0.062429994 -0.29461613 0.050576672 -0.04924319 -0.034852702
-0.058162145 -0.049257454 -0.13307771 -0.007446587 0.022581559 0.044307057 -0.19078736 -0.0065613287
0.0032725958 0.1542534 -0.027916437 -0.121245906 -0.10872957 0.10047269 -0.09151204 0.13223435
0.038849328 0.048968058 0.00090752635 0.055364657 0.03212611 -0.097853735 -0.15663575 -0.046289884
-0.010107219 -0.020369437 -0.17383663 -0.11527597 0.13857065 -0.082198 -0.031108664 0.004636634
-0.20121825 -0.13813068 0.13312115 -0.059371393 0.09100474 0.124707624 -0.16796479 -0.23470046
-0.3466035 -0.14120348 -0.3774876 0.086753234 -0.16162759 0.10228948 -0.13230237 -0.09460739
0.059310608 -0.116576836 0.20517719 -0.21073875 0.1443474 0.13912848 -0.014352252 -0.0028926148
0.14174405 -0.24540871 0.14219049 -0.06117407 0.15265033 0.13177836 -0.3684812 -0.20395288
0.17657912 0.040463004 0.062014684 -0.13395686 -0.18039078 -0.16036198 -0.23564367 -0.28993404
-0.22639243 0.13223585 0.10441389 -0.028356336 0.06113232 0.028996006 0.06951645 -0.016240472
0.1648963 0.064748354 -0.10132682 0.011601008 0.19115733 -0.007372762 0.12980601 -0.12819377
0.10465751 -0.14006688 0.14513166 0.077739194 0.19149727 0.067899786 -0.26575705 -0.12152789
0.01133881 0.09507404 0.093440585 -0.02424157 0.12804455 -0.06515505 -0.16750106 0.056209043
0.0031945915 -0.20753111 0.008928061 -0.17559722 0.007611131 -0.28186715 0.103384286 -0.328737
-0.17965092 -0.14240949 -0.007232028 -0.14973384 0.14384562 0.13112643 0.21760626 -0.25222662
0.10693874 0.1650262 -0.0060032657 0.056596637 0.15641762 -0.013945292 0.03257151 -0.03453546
-0.044251457 0.09970067 0.061812226 0.17629154 -0.016532147 -0.23637572 0.1836455 -0.013602973
-0.0023051107 0.11051711 0.10854671 0.010663397 0.042224187 0.11050567 0.08184457 -0.16108875
-0.27592832 -0.15511364 -0.10910353 -0.012191667 -0.13023953 0.041626208 0.16901691 -0.16904515
-0.17910753 -0.35633248 0.12813695 0.07132672 0.07535772 0.12713955 -0.25734633 0.017636629

net.5.bias f4 [4]
00000000: ec6c 02be 05f3 5bbd b5ac 67bc 479a 59bc
-0.12736863 -0.05369856 -0.014140298 -0.0132814115

mean f4 [1, 16]
00000000: 6598 0242 c939 3b41 2c71 4941 f222 6341
00000010: 5dc0 8641 8361 ad41 c825 e441 2a1f 0c42
00000020: f312 2142 7cac 1842 dc8d fc41 565c cd41
00000030: ef9b 9d41 12af 6d41 75fc 4741 ebff 3c41
32.648823 11.701608 12.59013 14.196032 16.843927 21.672613 28.518448 35.030434
40.268505 38.16844 31.569267 25.670086 19.70114 14.855242 12.499135 11.81248

std f4 [1, 16]
00000000: 5512 4941 7543 1c41 26e0 3341 e7d9 4841
00000010: 9910 6541 058e 8741 32b4 9e41 c8b0 a241
00000020: 602a b941 2f91 b041 6372 a741 1f87 a641
00000030: cc25 9241 4e17 4941 c1a5 0841 f7a1 dd40
12.566976 9.766469 11.242224 12.553199 14.316552 16.944345 19.837986 20.336319
23.14569 22.07089 20.930853 20.815977 18.268456 12.56819 8.540467 6.926021
