controller_multilabel_ok2.pt (torch, 25937 bytes, 8 tensors)

net.0.weight f4 [64, 16]
00000000: 309b b4bd 59b7 ecbc 75d5 25bd e380 abbd
00000010: 3e0e ac3c 72cd 7fbe 6a7e 80bd fc33 7d3e
00000020: 5902 bf3c e26d 553e 266b d93d 8b1a 013e
00000030: 21a4 a33e e60d 16bf 8552 fdbe d988 1c3d
00000040: 83e1 c33e dc97 d03d 7ba7 833d a654 353e
00000050: f6ad 55be de3d d6be b724 9e3d b8be bb3e
00000060: ca9d 54be 45cf 9dbe c1f4 1b3f c3c9 e2bc
00000070: e0a5 0dbe b0d0 e6be ea9b d53c fa6a 88be
00000080: cbb8 67be def0 b6be f8fb a83d eb19 1d3e
00000090: 49a5 07bd fe49 343e 54d0 fb3b f99c 1c3c
000000a0: dd0a a6bd 1cbb 7dbe e538 ad3c ef57 313d
000000b0: 07c0 8f3d db9f fd3d 5ea8 ba3e 748d b0bd
000000c0: d2bc f83d b15b 4cbc 5b4c 553d 82df 3dbd
000000d0: df9d b03d 1c9d bebd 767a 91bd 7171 4bbf
000000e0: d806 003f e042 e03e bff9 2c3e 20fb b83e
000000f0: ff22 7cbd b4ec f33d b4c5 7fbd dce2 8fbe
00000100: 4017 143e b9e7 153e 6440 f53c 4624 2f3d
00000110: 60e4 c93d cc69 933d b9c5 76be a607 e6be
00000120: 44d1 9d3d cda1 e6bc 55e5 603e eb56 a0be
00000130: b552 0bbe bdb0 703e 05b1 b2bd 9e29 16be
00000140: a94d 423d 4ff4 d8be 08ac 13bf a13d 513e
00000150: 0fb9 973e d064 343d 1780 073d 2419 e7bd
00000160: ca2d 8cbd 68a5 0dbe 4f81 2a3d e26f 203e
00000170: 0429 ad3d d4a4 963d 01ca f43d 2e77 a5be
00000180: 87ca b7bb 107c 63be d5dc 423e 7783 863d
00000190: 7617 e33d 7c36 3f3c 1c54 333e 6017 273f
000001a0: d790 afbe 393e 3fbf 48fe 42bd 7895 39bd
000001b0: ab61 f1bd c7b5 71bd 9103 b0bc 0213 49bc
000001c0: 8b74 9e3d b825 f4be a7f6 803e a1c9 e13e
000001d0: 8de3 aa3e b1d9 93bc 8bb1 28be 90fe 853d
000001e0: 1c3e f0bc 0b92 f93d 295e a03d e2db a33d
000001f0: c1c8 c6bd b545 be3d d79e 6abe 1b32 8b3e
00000200: 90b2 c23e d72b 063e 6490 313e 1538 4ebd
00000210: 9362 ae3d 8115 653e 0f82 163e 32e9 c5bd
00000220: 05bd f3bd 7da2 79be 018d be3e ed5e 173c
00000230: 6eb9 4b3c 02bb 003e 3fa0 9dbe d32b 26be
00000240: b6fb ee3e f367 b83d 10b3 53bd caf6 a83d
00000250: 3b56 8cbb ab5f 883d 5f07 f9be 443e ecbe
00000260: b20d 953e 3ef9 813e a397 b4bc 7dc8 0bbf
00000270: b0de 39bc a3f8 153e 9c48 a9bc 2ae7 78bd
00000280: bef8 95bb fd99 12bd ea0e 77be d584 c0be
00000290: 5402 be3d 5042 80be 81ad 4fbd ca9e 463c
000002a0: 0ad4 b6bb 38a4 803d ae59 b1be 1a26 8f3e
000002b0: 1644 3d3e bc73 4e3e 9c4f 85bd a70e 0cbe
000002c0: 9eaa 0d3f 629b d53c 3db8 c93b aca9 b3bd
000002d0: a2a8 9dbd 4277 693d 1534 9ebe fa79 dbbe
000002e0: 725f b63e 8245 7e3e 6e26 22bf 39d1 e23d
000002f0: 6f2d 8cbc 6a30 89bd eb00 5bbe 9b89 89bd
00000300: f39a ea3c 890b d63b 6f6d 09bd c6b5 34be
00000310: d098 e43d 6202 a5be c61f 77be 0a9d 02bf
00000320: 8a3a f33d ba52 403e 78c3 e0bd 3540 433d
00000330: 76eb 2fbf c5c8 0c3d 8365 0b3e 94a2 b23e
00000340: 783b fbbd 69de b9bd 1b4e 09bd 4de6 083d
00000350: 3b66 643e 8e90 733e a74d 683c e105 ebbe
00000360: 7d87 b4be 1641 11be 6a1e a4bd d254 ddbe
00000370: fca7 b3bd 294e a23d d9e9 9b3d 6cd6 e33d
00000380: 1bd7 c1bd 7509 18bd a8ef af3b fd4d f33d
00000390: 19d0 5cbe 89d1 2abf 18ea 803e 6a19 b53e
000003a0: a51b 2c3f f1df 0fbf 73c6 9bbd 8c99 8abd
000003b0: c12f 96bd 1660 ccbc 6d2d 06bd d045 c13d
000003c0: 88c3 423d 9fc0 e63e de43 89be dbe3 8dbe
000003d0: 22bb cb3d 9cdc 733e d710 ec3c eccb 133e
000003e0: f872 223e 3a32 b3be 9bdc 39be 963e 093b
000003f0: 6817 e13d 1d87 c4bd 3503 10be bf61 96be
-0.08818662 -0.02889602 -0.04048677 -0.083741926 0.021002885 -0.24980715 -0.062741116 0.24726862
0.02331655 0.20842698 0.1061614 0.12607782 0.31961158 -0.5861496 -0.4947702 0.038216446
0.3825799 0.10185215 0.06428429 0.17708072 -0.20867142 -0.41844076 0.077218466 0.36668944
-0.20763317 -0.30822197 0.6092034 -0.027684098 -0.13832808 -0.4508109 0.026075322 -0.26644117
-0.22629087 -0.35730642 0.08251184 0.15341918 -0.033116613 0.17606351 0.0076847468 0.00955891
-0.08107541 -0.24778408 0.021145293 0.04329675 0.07019048 0.12384006 0.3645658 -0.0862073
0.121453896 -0.012473033 0.05207477 -0.04635573 0.086238615 -0.0930731 -0.07103436 -0.7946997
0.5001044 0.43801022 0.16892146 0.36129093 -0.061556812 0.11910382 -0.062444404 -0.28102767
0.14461994 0.14639176 0.02993793 0.042759202 0.09858012 0.071979135 -0.24098863 -0.4492771
0.0770593 -0.028153324 0.21962483 -0.31316313 -0.13605769 0.2350492 -0.0872517 -0.14664313
0.047437344 -0.42373893 -0.57684374 0.20433666 0.29633376 0.044041455 0.03308114 -0.11284092
-0.06844671 -0.13832629 0.041627225 0.1566768 0.08455089 0.07355657 0.11952592 -0.3231749
-0.00560886 -0.22215295 0.19029553 0.06568044 0.11088459 0.011670705 0.17512554 0.6527004
-0.34290192 -0.7470432 -0.047605783 -0.04530856 -0.11786207 -0.059011247 -0.021486076 -0.012272598
0.077370726 -0.47685027 0.2518818 0.44099143 0.33376732 -0.01804814 -0.16473977 0.065426946
-0.029326491 0.121860586 0.078304596 0.08000924 -0.097062595 0.09290639 -0.22912155 0.27186665
0.38026857 0.13102661 0.17340237 -0.050346453 0.08514895 0.22371484 0.14698051 -0.09663619
-0.11901287 -0.2437839 0.37216952 0.009238941 0.012434347 0.12571338 -0.3078632 -0.16227655
0.46676415 0.09004202 -0.05168444 0.08250196 -0.0042827404 0.06658872 -0.48638436 -0.46141255
0.2911201 0.2538547 -0.022044962 -0.54602796 -0.011344597 0.14645629 -0.020664506 -0.06076733
-0.0045767715 -0.035791386 -0.24126783 -0.37601343 0.09277788 -0.25050592 -0.050702576 0.012122819
-0.0055794762 0.06281322 -0.34638733 0.27958757 0.18483004 0.20161337 -0.06509325 -0.13677464
0.55338466 0.026075069 0.006155996 -0.08772597 -0.0769818 0.0569985 -0.3089911 -0.42866498
0.35619694 0.24831203 -0.6333989 0.11075062 -0.017111508 -0.066986874 -0.21387069 -0.06715699
0.028638339 0.006532137 -0.03355163 -0.17647466 0.11161959 -0.3222838 -0.24133214 -0.5102087
0.118764 0.18781558 -0.10974783 0.047668654 -0.6871866 0.034371156 0.13612942 0.34889662
-0.12267202 -0.090756245 -0.033521753 0.033422757 0.22304623 0.23785612 0.01417867 -0.45902923
-0.3525962 -0.14184985 -0.080136135 -0.43228775 -0.08772275 0.07925064 0.07612962 0.11124882
-0.09464856 -0.037118394 0.0053691454 0.118801095 -0.21563758 -0.66725975 0.251786 0.35370952
0.6722968 -0.5620108 -0.076062106 -0.06767568 -0.07333327 -0.024948161 -0.032758165 0.09437144
0.047549754 0.45068833 -0.2680959 -0.27712902 0.09947802 0.23814625 0.028816624 0.14433259
0.1586417 -0.34999257 -0.1815056 0.0020941845 0.109907925 -0.09596083 -0.14063723 -0.2937145

net.0.bias f4 [64]
00000000: 24a1 b6bd 9d61 823d 6904 413e dd1e dc3d
00000010: 7453 313c b9aa 5ebe 260e b7be d4be 6c3d
00000020: a145 8e3e 98db 153e 7a7e bfbb e554 93bc
00000030: a7a8 423d b5ae 08be 305a fd3d 1f07 01be
00000040: a7f1 963d 4709 0f3e 8351 053d 3be9 293e
00000050: d7ca aa3e 1cb9 a23c 55ed aabe 60f9 fe3b
00000060: b4d3 863d 71e8 0cbe 1831 4abe 4607 8bbe
00000070: 662e 33bd b2d2 15be 7b12 54be fba7 683e
00000080: cc6d 343c bd4d a9be d805 8ebe 1f5c dbbd
00000090: 33fc 103e 1bc9 c0be 01fb a5be a5ac fbbd
000000a0: f61b aebd b033 23be baef c13e fb2d d53e
000000b0: 9c9d 833e dfa4 e6be a0e6 0bbf ad58 803d
000000c0: a36b 40be 0d44 92be 34ac 00be 8cc8 043e
000000d0: f82a 27be 5c95 babd 8730 79be 10d2 633b
000000e0: ffcb a6be 17d6 84be 87ba 29be ce64 41be
000000f0: 1381 e13e ce4c 373e 61bd 23be f547 793e
-0.08917454 0.063662745 0.18849339 0.10748074 0.010823119 -0.21744813 -0.35752982 0.057799175
0.27787498 0.1463455 -0.0058439346 -0.017984817 0.04752412 -0.13347895 0.123707175 -0.12600373
0.0737031 0.13968383 0.03254844 0.16592877 0.3335788 0.019863658 -0.33384195 0.0077811927
0.06583348 -0.13760544 -0.1974529 -0.27153987 -0.04374542 -0.14631155 -0.20710175 0.2272033
0.011012506 -0.33067122 -0.27738833 -0.1071093 0.14158706 -0.3765343 -0.32418063 -0.12288789
-0.08501427 -0.15937686 0.3787821 0.41636643 0.25706184 -0.45047662 -0.5464878 0.062669136
-0.1879106 -0.28567544 -0.1256569 0.12967128 -0.16324985 -0.09110519 -0.24334918 0.0034762658
-0.32577512 -0.25944588 -0.16575061 -0.1888611 0.44043788 0.17900392 -0.15990211 0.24343856

net.2.weight f4 [64, 64]
00000000: 632e 00bd 3048 97be 3c6b ba3e d5a0 083e
00000010: 9449 203d ef1f d2bd 9647 3b3e a85c 263d
00000020: e718 ee3d a8bf 213d ce4e f0bc 1b22 0b3e
00000030: b5e6 e4bd 988a bcbd 07fe 59bd 804f 1d3e
00000040: a187 36be e2ed bf3c 0f49 04be b1a9 b0be
00000050: 8c46 b33c fc9a 333e 56bf bbbd a528 a73e
00000060: e4f0 e03c aeca 16ba c793 7ebe 36b6 813a
00000070: bb9a 8bbd 57d8 833d 87ad 29be 9e90 1ebb
00000080: 0a7d 27be 967c dabd 7a5d 9dbe 06d2 3d3e
00000090: b915 fcbd 114f 61be 9807 9abd dce9 a63d
000000a0: b493 b7bd 47e8 2bbd 29d8 213e 5423 093d
000000b0: 55db 583e 4fca 69be 375d aabd 2640 81bd
000000c0: 48d7 a23d 6e2e cfbc 2f48 593d 6f2a 67bc
000000d0: 1941 19be 45bb 00be bb04 303d 4483 73bd
000000e0: 6fbe 043e 2215 34bf 1886 23bd 02fd 0ebe
000000f0: 2428 cabc 5c14 9c3e 5573 ba3d e9c1 eb3c
00000100: 323e 9e3d 906d df3d aa21 783e 3c19 3bbe
00000110: 3536 1dbd 33f5 b73d 2251 a2be 9ab8 713d
00000120: 4415 ad3e 8a0f 94bc f80e 2b3e 0ae7 043e
00000130: 7043 f1bd a92f 873d 4099 5fbe 0c6b 31be
00000140: 83c2 95bd ed65 5bbe 6745 273e 8588 cf3c
00000150: 7c36 13bd 31d0 d53d 860e a6bd 8c5a 6cbd
00000160: eeb6 26be 5b8f acbe 5438 dbbd e421 1c3e
00000170: 7783 31be f35c fabc 1266 8fbe a736 8fbd
00000180: 623d c63d 7750 183d 7d10 6ebc ca4b 47be
00000190: 56fc 8b3d 8ab8 34be c4c0 bebe 34e9 08be
000001a0: 022f ae3d 361b f8bc 1287 6b3e 586b e03d
000001b0: eaba fc3d 9ee1 773d c925 5cbe e204 623e
000001c0: e563 553d 29b6 023e c205 1fbe 999f ac3d
000001d0: d8f0 3fbe 9ba8 dbbe e397 d63d 9a62 3e3e
000001e0: 7159 83bd 1890 39bd 394f 46bd be7f 4f3e
000001f0: 30a4 96be 30d1 4fbe af9a 77bd f036 90bd
00000200: d3de 333e 636c 75bd 2a42 f23d e844 3b3e
00000210: 004b 9dbe 61f2 8d3c 381a 20be 150d 113e
00000220: 024b e83c 5d19 e0be 406b 3cbc b8e0 9cbe
00000230: 006c 273e 019f 2cbe 6a2c 033f 49e5 393e
00000240: 5314 00be eac5 90be 82a3 cb3e 2163 37be
00000250: 436b 963e cd18 9fbc 3c9f 39bd 98b0 bd3d
00000260: d05e 843e 1f8f 51bc 903b ac3d e913 ab3e
00000270: 4ca8 d73d fc31 0ebe 3a09 9d3d 445e 8ebd
00000280: d688 46bd 73dd 3b3b b7ef 46be a6cd 40bd
00000290: f428 e3be 3241 c039 d40f 863e 27d7 c1bd
000002a0: 8c72 77bc fd41 a8bd c297 87be 0383 8c3e
000002b0: 5413 193e 2f21 91bd ff15 05bd be63 debc
000002c0: 1539 283d 4fbf 03bd 7bba 1cbd eaa9 88bc
000002d0: be48 763e b8f8 023e 8bdd 99be a90a 09be
000002e0: d0e2 213e 126c 3dbd c94e eabd 5dc6 40be
000002f0: d277 043e 314d 143e d2bd 953e 7ac1 9dbd
00000300: 0d1f fd3c 8042 193e 371c 953d 56e3 45be
00000310: 9a0a 19bd 0634 e73d ea96 92ba c736 2fbe
00000320: 3be1 ac3d 4585 843d 3e30 d43d 1fbe b6bb
00000330: 9e94 5cbe 8de5 103e f79f 4fbe baff b53d
00000340: 3ad8 aa3c 175b 333d f286 e23c ce22 123e
00000350: 5736 2e3e 3119 a53c 1b8d 153e f5a0 afbd
00000360: b0b6 b8be 3dde f4bd ee45 f2bd 0be5 5cbd
00000370: ddd9 3fbe 7e5d d33d 5d3e 04bf 5a50 e43c
00000380: b6f6 733e 54db ddbd ccc8 2e3e 150d 893b
00000390: 57d1 da3d f617 fbbd ed67 97bd e546 973d
000003a0: 6a29 0abe e5fc c63b af6d 3c3e 69e5 9fbc
000003b0: 1355 d6bc 9c87 c83d e4ae c9be 8a1e 78bd
000003c0: d022 a7bd ad32 39be aadf ad3b de8b db3c
000003d0: 5853 98bd e1fa 49bf bc0b a23e ad28 a33b
000003e0: c9f3 59be 1b95 123e cb15 eb3d 9e97 193d
000003f0: 1886 20be 334b a4bd 7875 9a3d 389a 51bd
-0.031294238 -0.29547262 0.36409938 0.13342603 0.03913267 -0.10259997 0.18289027 0.040615708
0.116258435 0.03948942 -0.029334452 0.13587229 -0.111768164 -0.09206122 -0.053220775 0.15362358
-0.17825176 0.023428861 -0.12918495 -0.34504464 0.021884225 0.1753959 -0.09167354 0.32648197
0.027458616 -0.00057522475 -0.2486106 0.0009896222 -0.06816622 0.06437748 -0.16570102 -0.0024195085
-0.16356292 -0.10668294 -0.3073538 0.18537149 -0.12308831 -0.22002818 -0.0752098 0.08150074
-0.08963719 -0.041969564 0.15805115 0.033480957 0.21177419 -0.22831081 -0.083185606 -0.063110635
0.07951218 -0.025290694 0.053047355 -0.014109238 -0.14966239 -0.12571438 0.04297326 -0.059451357
0.1296327 -0.70344746 -0.039922804 -0.13963702 -0.024677344 0.30484283 0.09104029 0.028778987
0.077267066 0.10909569 0.24231592 -0.18271345 -0.038381774 0.08982315 -0.31702524 0.05901394
0.33805287 -0.018073816 0.16704929 0.1297876 -0.11780441 0.06600887 -0.21835804 -0.17325991
-0.07312491 -0.214256 0.16335069 0.025333652 -0.035940632 0.104401 -0.08108239 -0.05770354
-0.1628072 -0.33703122 -0.10704103 0.15247303 -0.17335306 -0.0305619 -0.2800756 -0.06992846
0.096796766 0.037186112 -0.014530298 -0.19462505 0.06835239 -0.17648521 -0.37256444 -0.1337021
0.0850506 -0.030286413 0.23000744 0.10957974 0.123403385 0.0605179 -0.21498789 0.22072175
0.05209722 0.12764801 -0.1552954 0.08428878 -0.18744218 -0.42902073 0.10478189 0.18592301
-0.06413544 -0.045303434 -0.048415396 0.20263574 -0.2942214 -0.20294642 -0.060450252 -0.070417285
0.1756547 -0.05991782 0.11829026 0.18288004 -0.30721283 0.01732749 -0.15635002 0.14165147
0.028356079 -0.4376935 -0.01150018 -0.30640197 0.16349792 -0.1685753 0.51239645 0.18153872
-0.12507753 -0.28275996 0.39773184 -0.17908908 0.2937871 -0.019421006 -0.045317873 0.09262198
0.25853586 -0.01279047 0.08409798 0.33413628 0.10530147 -0.13886255 0.076677755 -0.069515735
-0.04847034 0.002866593 -0.19427381 -0.04707112 -0.44367182 0.00036669668 0.2618395 -0.09464865
-0.015102994 -0.08215711 -0.2648297 0.27443704 0.1494878 -0.070864074 -0.03249168 -0.02714717
0.041070063 -0.032164868 -0.03826378 -0.016682584 0.24051186 0.12790191 -0.30051836 -0.13382973
0.15809178 -0.046245642 -0.11440808 -0.1882567 0.12936333 0.14482571 0.29246384 -0.07702918
0.030898595 0.14966774 0.07280772 -0.19325003 -0.037363626 0.112892196 -0.0011183892 -0.1711074
0.08441397 0.06470732 0.10360764 -0.0055768634 -0.21541068 0.14150067 -0.20275865 0.088866666
0.020855058 0.043788042 0.027652238 0.1427109 0.17012917 0.020153614 0.14604609 -0.08575622
-0.3607688 -0.11956451 -0.11829744 -0.05392937 -0.18735452 0.103205666 -0.5165766 0.027870346
0.23824582 -0.10832849 0.17068785 0.0041824677 0.1068446 -0.122604296 -0.07392869 0.07386569
-0.1349236 0.006072628 0.18401216 -0.019518571 -0.026163613 0.097914904 -0.39391243 -0.060576
-0.08160937 -0.18085738 0.005306204 0.026800092 -0.074377716 -0.78898436 0.31649578 0.004979214
-0.21284403 0.14314692 0.11478766 0.03749811 -0.15676153 -0.080221556 0.07541937 -0.051172465

net.2.bias f4 [64]
00000000: 761a e93e c70e 4b3e 250f 873e 66ec 3c3e
00000010: c506 f03d 75b7 4f3c 4c39 a83d 2895 4e3e
00000020: bd25 283e e782 f53d d2a7 0a3e 124c c9bd
00000030: da08 733e 8f44 b93d 02e5 3dbd 0825 f03d
00000040: 74ef a33e 162c 693e ebf9 5c3e 48d7 2fbd
00000050: 4c94 193e 6d26 c13d e0aa 6e3e 9df2 793e
00000060: 6499 293e 0c6a 703e 026c e33d 9cec 9f3c
00000070: 96c4 953d e1ef a03e b4d5 d93d 1ac8 8e3e
00000080: 5120 373c 3559 633e b882 883e 445d e43e
00000090: b535 863d 80a2 8cbe 9782 453e 2901 293e
000000a0: 012f 6e3e 0bee 5c3e a1fb 003e 177f 4e3d
000000b0: 57e9 f33d 9bb6 a83c bb2c 273c 8af9 7f3d
000000c0: 382b 183e fb68 6a3e 47eb 05bb 39f7 cc3d
000000d0: c9f6 b83d 26ee 553e b867 d63d b5a2 9d3e
000000e0: b3e9 fe3d 11c0 573e 67f1 683d fd8c 8b3e
000000f0: 6ad3 b43e 069b 613e f363 63bc 3021 7f3e
0.45528 0.19829856 0.26378742 0.18449554 0.11720041 0.012678017 0.082140535 0.20174086
0.16420646 0.11987858 0.13540581 -0.098289624 0.23733845 0.0904628 -0.046360977 0.11725813
0.32018626 0.22770724 0.21579711 -0.042929918 0.14997977 0.09431157 0.23307371 0.24408956
0.1656242 0.23477954 0.11104585 0.019522004 0.073128864 0.31433013 0.10636464 0.2788704
0.011177138 0.22201999 0.2666223 0.44602406 0.065532126 -0.27467728 0.19288097 0.16504349
0.23260118 0.21575181 0.12595989 0.05041417 0.119097404 0.020594886 0.010203536 0.06249384
0.14860237 0.2289161 -0.0020434426 0.100080915 0.090314455 0.20891628 0.104690015 0.30788198
0.12446918 0.21069361 0.056870844 0.27256003 0.35317546 0.22031793 -0.01387881 0.24915004

net.5.weight f4 [4, 64]
00000000: 1d17 f83d fbf7 7ebd 48e8 483d 7f9e bbbd
00000010: 5ba9 f8bd 4a4c a6bc 9435 f63c 631c 2d3d
00000020: 27d4 75bd 87a4 b6bd 92c9 b63e d014 da3c
00000030: a504 253d 4b16 00be dbbb 8cbd 17ff e8bc
00000040: 5ce8 d63d 256f a7be 5f02 27bd 4d99 94bd
00000050: 5181 2b3b 8347 fb3c 4ad9 563d 3e63 443e
00000060: d4e4 53be c390 15bd 7b0f ff3c d041 89be
00000070: 8d42 b73b de86 ac3d f1bb 50bf a1f8 10bf
00000080: a1c0 c1bd bc97 17bf 37c1 573d 5d4c e63e
00000090: 4e41 363c 37c6 d83d 62b2 623a 9e86 dabd
000000a0: caf4 023f 18c2 ecbe 3eb8 43bd 565a f0be
000000b0: d347 e13d 633e d8bd e537 053c 543c c83b
000000c0: ac46 d3be c52e 09bf c686 443d 11d3 b7be
000000d0: 1481 6c3e a034 00bf c1d8 f9bc f755 77bf
000000e0: b16b 16be 07a9 62bc 8195 e6be 22a3 dc3c
000000f0: e6cd 353e f1c1 6dbf 7a22 bd3c 139d 113d
00000100: 4acf 2abe 7222 cc3d c1e4 6ebf 4598 e23e
00000110: a3b1 b53e 9fdc 3dbd c362 77bf 64b1 62bf
00000120: 0bbd e93d 034c c93e 045e 113f 2a6e 75bf
00000130: e798 4dbf 449d cfbe 2dd1 b23e 37c1 573e
00000140: 6355 693e dfb0 153f cb24 17bf c139 843e
00000150: c9a8 21bf a275 6ebf 943d 31bf 0783 fdbd
00000160: 8fec ad3e a069 003f d16f b83e 95bf 01be
00000170: 4921 4dbf 1874 5bbf 1b13 1c3f 8ce8 0f3d
00000180: 4f57 d2be 1f05 0cbe d465 78bf 91f6 053f
00000190: e460 81bd 60fc 613f ee6d 54bf 29a5 9d3e
000001a0: 172d 17bf 56ed d13e 4bde 163e df54 f4be
000001b0: 8439 8cbf 1a1d 773e b8c7 f13e b81f 593e
000001c0: 46ef 373e 8c70 143f c062 2bbf ef2d 0abd
000001d0: 10f8 ef3e 8c04 9e3e 45f9 60be 0379 a03e
000001e0: e117 d8bd 6e6a 39be aa83 a33d 6dcf abbf
000001f0: d1b9 3abe a547 943e 07c1 68bf 9c00 84bf
00000200: c091 703d f076 103f cd3b 74bc af14 6c3e
00000210: 4cc1 903e 39ce cabf e5f5 d5bc 02c7 debd
00000220: c678 53bf fe0c 07bf 85d8 81be 8cf4 6abc
00000230: 59b7 69bd 4b92 a2bf aafc b33d c192 1f3d
00000240: 0e9e 34bf 7c29 043f d8fb e03d 99ba f23d
00000250: 9854 12bf fed8 463c 462a 07be df65 d83e
00000260: 3e7a 25bf 34eb 92be 1cf9 2d3f f30b d33e
00000270: 2a98 9e3c 002a b63c e20e 123e 8617 083f
00000280: 28f3 93bf 0bc7 fd3e 2cd6 a6bc ab6c 54bf
00000290: e11e afbf fc12 d03e 5aa1 6c3d 3436 2dbf
000002a0: 3184 48be b331 9ebd 7547 803c 6f9f 963c
000002b0: 14bc c13d a953 393f 7f5e b83c ba57 58bf
000002c0: c618 4c3d 777e ff3e 11ef 32bc 8ac6 bd3e
000002d0: 70ad 383d c6b4 1ebf 334b 063d be50 093f
000002e0: 294a 4d3f 12b4 823d d683 12bc c47f b1bc
000002f0: 969e 89bc b1b8 603e c342 9abc b58b 28bd
00000300: f6ef 6bbf 7758 2a3f 2b8c 2abc d150 c53e
00000310: 168e 953e 0618 133d 8975 05bd eca1 a8bc
00000320: 286e 963e 6e6e bb3e 7ff1 c8bc 08d3 6c3d
00000330: 0626 cabd 78cc a73e 5bdc e4be 434e 1ebf
00000340: 70de ecbb 7d6a e6be 419d b7be 91d4 63bf
00000350: f67a 77bc fd0a e9bc a711 24bd f1fa 85bf
00000360: 6456 4b3f 2af4 c63c 1b50 1bbe d959 73bf
00000370: 836f 5dbc 9fe6 b9bd 6201 0e3e dda5 2f3f
00000380: 6825 353e 43d4 133f 3231 a4bc af21 dfbe
00000390: 292e a53d a98f a43e 4852 3ebf 2a2a 043e
000003a0: b6db 423d b034 7e3e 5ac7 7dbf 5711 893e
000003b0: 6e0b 8f3e d8b2 d0be 48fd b8be ce96 4c3d
000003c0: c995 9f3e d53f ed3e 79d2 02bd ad01 87bf
000003d0: 4c94 5f3d 199f 103f 2878 30bf a7e8 0a3f
000003e0: c564 49bf 4bd7 96bf 1919 773d 6949 d4bc
000003f0: 864c 0abf 05b2 003e 996c 913c ec67 d1bc
0.121137835 -0.06224821 0.049049646 -0.0916109 -0.12141677 -0.02030005 0.030054845 0.0422634
-0.060016777 -0.089181 0.3570066 0.026621252 0.040287632 -0.12508504 -0.06871768 -0.028441949
0.10493538 -0.32701984 -0.040773746 -0.07255802 0.0026169608 0.030673748 0.052453317 0.19178483
-0.2069276 -0.03651501 0.031135311 -0.26808023 0.0055926503 0.084241614 -0.81536776 -0.5662938
-0.09460569 -0.59215903 0.0526745 0.44980136 0.011123968 0.105846815 0.0008647797 -0.106702074
0.5115477 -0.46241832 -0.04778313 -0.4694392 0.110000275 -0.10558774 0.008131002 0.0061107073
-0.41264856 -0.5358699 0.047980092 -0.35903218 0.23096114 -0.500803 -0.030498864 -0.96615547
-0.14689519 -0.013834245 -0.45035937 0.026933257 0.17754325 -0.92874056 0.023087729 0.03555019
-0.16680637 0.099675074 -0.933178 0.44256797 0.3548709 -0.04635298 -0.96635073 -0.88551927
0.1141301 0.39315805 0.5678408 -0.9587122 -0.80311435 -0.40549672 0.34925213 0.210698
0.22786479 0.5847301 -0.59040517 0.25825313 -0.6314817 -0.93148243 -0.69234586 -0.12378507
0.33969542 0.5016117 0.3602281 -0.12670739 -0.80128914 -0.8572402 0.6096665 0.035133883
-0.41082236 -0.13673829 -0.9703038 0.52329355 -0.063173085 0.8827572 -0.8298024 0.3079007
-0.59053177 0.41001385 0.14733236 -0.47721002 -1.0955052 0.24132195 0.47222686 0.21203506
0.1796237 0.5798423 -0.66947556 -0.033735212 0.46868944 0.30862844 -0.21970089 0.31342325
-0.105514295 -0.18107006 0.07984097 -1.3422676 -0.18234946 0.2896091 -0.90919536 -1.0312686
0.058732748 0.56431484 -0.014906836 0.23054765 0.28272474 -1.5844184 -0.026118228 -0.108778015
-0.8260616 -0.527542 -0.25360504 -0.014340531 -0.05705962 -1.2700895 0.08788426 0.038958315
-0.7055367 0.516258 0.109855354 0.11851997 -0.5716033 0.012136696 -0.1319972 0.4226522
-0.6463965 -0.2869507 0.67958236 0.41220054 0.019359667 0.022236824 0.1426349 0.53160894
-1.155858 0.4956592 -0.020365797 -0.82978314 -1.3681298 0.40639484 0.057771064 -0.6766083
-0.19581677 -0.07724323 0.015659073 0.01838657 0.09459701 0.7239328 0.022505997 -0.8450886
0.049828313 0.49901173 -0.010921256 0.37065536 0.045087278 -0.6199459 0.03278656 0.5363883
0.80191284 0.06382002 -0.008942565 -0.021667369 -0.016799252 0.21945454 -0.018830663 -0.04114886
-0.92163026 0.66541237 -0.010409395 0.3853822 0.29209965 0.035911582 -0.032582793 -0.020585023
0.29380918 0.3660769 -0.024529217 0.057818443 -0.09870534 0.32773185 -0.44699368 -0.6183817
-0.007228665 -0.4500312 -0.35862163 -0.88996226 -0.015105 -0.028447622 -0.040055897 -1.0467206
0.79428697 0.024286348 -0.15167277 -0.9505897 -0.013515356 -0.090771906 0.13867715 0.6861246
0.1769005 0.5774576 -0.02004299 -0.43580386 0.08065445 0.32140854 -0.743443 0.1290671
0.047572814 0.24824786 -0.9913231 0.26771042 0.27938408 -0.40761447 -0.36130738 0.049948506
0.31168965 0.46337762 -0.031939004 -1.0547386 0.054584786 0.56492764 -0.68933344 0.5426125
-0.7866939 -1.1784452 0.06032667 -0.025913911 -0.54023015 0.12567909 0.017751979 -0.02556225

net.5.bias f4 [4]
00000000: 87b5 393e f588 8d3d d036 28be 0ed1 16be
0.18135653 0.06910888 -0.1642716 -0.14728186

mean f4 [1, 16]
00000000: 78d8 c041 3646 1241 ebf5 1541 fe2c 2b41
00000010: 3e58 5a41 ec95 9241 2c4f c241 32ea f641
00000020: 2e42 0e42 029f f741 78df c241 cbd1 9341
00000030: 498a 5c41 8bbd 2b41 7906 1641 f876 1241
24.105698 9.142141 9.372539 10.698484 13.6465435 18.323204 24.288658 30.864353
35.56463 30.95264 24.359116 18.477438 13.783761 10.733775 9.37658 9.154045

std f4 [1, 16]
00000000: cd72 2041 9c97 a340 a36b a040 03d5 ed40
00000010: f01e 3641 d4e3 7441 f3a4 8e41 eb2e 9941
00000020: 7f3f a441 8205 9941 69fe 8d41 59e0 7741
00000030: 674b 3b41 7690 f340 005a a140 035c a540
10.028028 5.112257 5.0131392 7.4322524 11.382553 15.305622 17.830542 19.14791
20.531004 19.12769 17.749224 15.492272 11.705909 7.6113844 5.0422363 5.167482
