controller_multilabel_32n_45e.pt (torch, 10833 bytes, 8 tensors)

net.0.weight f4 [32, 16]
000000 30 2d dc bb 98 19 14 3e 3b ae e8 bd 90 12 5f 3c
       -0.006719254 0.14462888 -0.11361357 0.0136152655
000010 80 3e 3e be 65 3f eb 3d 08 8e 88 3e 16 6b 38 3e
       -0.1857853 0.11486701 0.2667086 0.180096
000020 14 e0 ea 3e 38 29 f2 3c 4b e2 9e bc 7b f6 3b 3e
       0.45874083 0.02956067 -0.019395014 0.18355744
000030 36 7a 4b 3e d3 2e 41 3d bf 28 a0 3c 31 b3 10 be
       0.19870839 0.047163796 0.01955068 -0.14130856
000040 71 8d d1 3d 1d 1e bb bd 4e 03 6d bd 0e 0f c9 bc
       0.10232056 -0.09136603 -0.05786448 -0.024543311
000050 2e 0d b1 bc ce 36 d6 3d 94 7e 99 3c 60 83 aa be
       -0.02161273 0.10459672 0.018737115 -0.33303356
000060 4f b5 96 3e bd 5c e7 3e d4 aa 84 3e 69 f4 d7 bc
       0.29435202 0.4518794 0.25911582 -0.026361661
000070 c4 c2 b1 be 81 6c cf be 34 50 a5 be 33 d2 48 be
       -0.34718907 -0.4051247 -0.32287753 -0.19611435
000080 7e d9 19 be 07 d8 b3 bd 6e 24 9e bd 68 97 cc 3d
       -0.15024373 -0.08781438 -0.07721792 0.09989816
000090 9c 58 a2 3e e5 95 c1 3d 59 71 d8 3e e5 a3 39 be
       0.3170823 0.09452418 0.42273977 -0.18128927
0000a0 eb c0 80 be a8 44 14 be 3a ce 45 be 5f 2e 5d 3d
       -0.25147185 -0.14479315 -0.1931695 0.0539993
0000b0 5b 30 80 bd 4a 36 a7 bd 58 23 bc 3b 43 02 0b 3d
       -0.06259223 -0.08164652 0.005741518 0.033937704
0000c0 ae 9a 2f be 99 c3 6c 3c 22 21 0b 3d fe 9e a4 be
       -0.1714885 0.014450931 0.033967145 -0.3215255
0000d0 97 41 d4 be 46 13 0f bf 99 23 4e bd c4 b3 e7 3e
       -0.4145629 -0.55888784 -0.050326917 0.45254338
0000e0 31 d5 65 3e 47 8f 31 be 7a 0c a8 bd d5 7b 5f 3e
       0.22444607 -0.17339812 -0.08205505 0.21824582
0000f0 6b 57 87 bc b8 9c 76 3c ba 77 20 bc 36 d5 c3 bc
       -0.016521176 0.015052013 -0.00979417 -0.023905378
000100 56 b9 ea be ce 0b a9 3d e5 9c 48 3e 9c c4 c6 3d
       -0.45844525 0.08254205 0.195911 0.09705469
000110 e6 12 40 3e 6f d9 02 bd db 7d 2f 3e fb 7a 28 3e
       0.18757209 -0.031945642 0.17137854 0.16453163
000120 a0 78 00 be 34 49 09 be 0e 08 1d 3f 81 4d fb 3e
       -0.12546015 -0.13406831 0.61340415 0.49082568
000130 e3 8b 25 3d 78 d5 b3 3e dc f5 96 3e 3a 0f 7e 3e
       0.04041661 0.351238 0.2948445 0.24810496
000140 4a be 25 be 46 75 ce be 72 be 87 be d6 52 0a be
       -0.16185871 -0.40323848 -0.26512486 -0.13508162
000150 d9 02 7d 3e 78 5e 8c bc 0a 1c e8 bd 0e 5d 19 bd
       0.24708118 -0.01713489 -0.11333473 -0.03744226
000160 2d 7f 8e bc 5a b0 3d be f9 b2 ce 3d 6a b9 ab 3b
       -0.017394627 -0.18524304 0.1009273 0.005240609
000170 a0 80 ae be 24 6f aa 3d c2 ff 18 be 47 0a 5e 3d
       -0.34082508 0.0832198 -0.14941314 0.05420902
000180 a2 69 c8 3d 23 f1 89 3d 28 1b d7 3e b5 60 0d bd
       0.09785773 0.06735446 0.42012906 -0.034516055
000190 3a f1 29 be 55 09 0e bf 15 95 a2 bd 91 78 5f 3e
       -0.16595927 -0.5548299 -0.079385914 0.21823336
0001a0 d4 95 3f 3d 93 75 5d bd a6 ad 47 bd 31 82 e1 3d
       0.046773747 -0.054067206 -0.04874959 0.1101116
0001b0 1a a2 09 3e 5c d1 ef bd 12 5f 24 3e f9 23 e0 bd
       0.13440743 -0.11709854 0.16051891 -0.10944361
0001c0 9c 48 b5 3e ed 4a f0 bd a8 d3 8d be 8a 5d a7 3d
       0.3540696 -0.11733041 -0.27700543 0.08172138
0001d0 73 83 d2 bd fe af 68 3d 42 32 b1 bd 51 6f 06 be
       -0.10278978 0.056808464 -0.08652164 -0.13128401
0001e0 fa 87 34 be a7 01 6b be 98 30 02 bf a0 e1 f0 bd
       -0.17629996 -0.22949849 -0.508554 -0.117617846
0001f0 07 2c fb bd 76 fd 74 be a3 bc 99 3d e0 9a 86 be
       -0.12264257 -0.23924813 0.07506683 -0.26290035
000200 de b1 13 3d 9c 4c 74 bd 99 7f 63 3c 47 c5 e6 3d
       0.0360583 -0.059643373 0.013885402 0.112680964
000210 5b d8 17 3e b5 33 97 3e e1 51 b0 3e d9 e0 8f 3e
       0.14828627 0.29531637 0.3443747 0.28101233
000220 4f 14 92 3d ba c8 73 be 85 36 2f be b3 c6 8b bd
       0.0713278 -0.2380704 -0.17110641 -0.06825008
000230 53 40 97 be 65 4b ae be 84 bf a8 be 62 54 98 be
       -0.29541263 -0.34041896 -0.32958615 -0.2975188
000240 bb c2 48 3c 66 dd 27 bd 7a 0f 0d be e7 7c d5 bd
       0.012253459 -0.040982626 -0.13775435 -0.10424214
000250 ad 9d 40 3d b0 82 a3 be 7e 89 d4 3c 53 1a bd be
       0.04702537 -0.31935644 0.025944468 -0.36934146
000260 f7 d6 d1 be bb 16 2a be 9f f8 05 3d bd 86 09 3e
       -0.40984318 -0.16610233 0.032707807 0.13430305
000270 f7 63 7c 3e a8 ac 1e 3e ae 96 9b be 7c 8e 01 bf
       0.24647509 0.1549555 -0.30388397 -0.5060804
000280 15 7b 52 bc 4a f5 00 be 09 8e a3 3d ac e5 24 be
       -0.012846728 -0.1259357 0.079860754 -0.16103238
000290 bd a4 38 be 9d 9a c3 be 93 15 1b 3c 46 1f aa be
       -0.18031593 -0.38203898 0.009465593 -0.33226985
0002a0 46 70 17 be 2e b9 91 be 1b 09 15 be 71 d5 ea 3d
       -0.14788923 -0.28461593 -0.14554255 0.11466492
0002b0 3c b1 a9 3e b8 12 fa bc 9c 01 57 3e a6 35 82 3e
       0.33143032 -0.030526504 0.20996708 0.25431556
0002c0 30 80 67 be 40 01 7a 3d 90 a4 96 be f8 5c c9 bd
       -0.22607493 0.06103635 -0.29422426 -0.098321855
0002d0 68 3e 5e 3d f4 40 9b be 6a b1 32 be d3 87 24 be
       0.054258734 -0.30322993 -0.1745049 -0.16067438
0002e0 b9 27 c8 be d9 a3 28 3c f6 ed db 3e b3 34 1b 3e
       -0.39092806 0.010292971 0.42954987 0.15156822
0002f0 de 96 d6 bc b2 8a af 3b 70 ec 55 bd 51 b8 b9 bd
       -0.026194986 0.00535711 -0.052227437 -0.09068359
000300 7d 56 cb bb 7b 84 b2 3d 94 28 f0 bd 7f 7d 04 3d
       -0.0062053786 0.08716675 -0.1172649 0.032346245
000310 b3 1e 6f 3e 0a 20 6b 3e e1 37 92 3e d9 2e e1 3d
       0.23351555 0.2296144 0.28558257 0.109952636
000320 4f ee c0 3e 24 bb 54 bd 26 c6 89 3d 30 bc 93 3e
       0.37681815 -0.051936284 0.06727247 0.28854513
000330 5f 25 0d bd 81 c5 04 bf 77 13 de be 1b 7a c0 be
       -0.034459468 -0.5186387 -0.43374225 -0.3759316
000340 ec ac f6 3e fc 9f 0c be 1f ad c4 3d 07 84 94 3e
       0.48178804 -0.13732904 0.09603333 0.2900698
000350 37 a5 45 3e f5 eb ff 3d da 83 b2 bc 19 d7 4b be
       0.19301306 0.12496177 -0.021791387 -0.19906272
000360 51 3f f0 be b3 ea d7 be fc cd 58 3e 07 b9 5c 3e
       -0.46923307 -0.4217125 0.21172327 0.21554957
000370 43 cd 30 3e 97 d6 e6 bd 6b e4 31 bd 77 d7 40 bd
       0.17265801 -0.112713985 -0.043430727 -0.047080483
000380 88 5a 0a 3f f8 47 7f 3e 9c 00 43 3e 6b 10 8f 3e
       0.5404439 0.24929798 0.19043201 0.27942213
000390 c3 a0 c9 3d 00 f0 80 3e e7 32 c2 3d 0f 83 08 be
       0.09845116 0.25183105 0.09482365 -0.13331245
0003a0 5f ae b0 bd ff 27 ae be ec 3e 4d 3e f4 d6 f6 3c
       -0.08627009 -0.3401489 0.20043534 0.030131795
0003b0 64 b5 38 3e a9 88 17 3e 6c 89 52 3e ea 60 14 3e
       0.18037945 0.14798225 0.20560235 0.14490095
0003c0 94 77 42 be 72 4a 06 3e ea e8 ca 3d 02 5b 62 3e
       -0.18990928 0.13114336 0.09907706 0.22105029
0003d0 d4 e3 90 bd 2c 22 14 3e 11 d4 1c bd 37 5e 01 be
       -0.07074705 0.1446616 -0.03828818 -0.12633596
0003e0 65 4e 94 bd 88 f8 86 3e f0 15 25 3f 79 a2 c4 3e
       -0.07241515 0.2636149 0.644866 0.38405207
0003f0 1e 45 6b 3d 8c 4c c6 bc e2 05 11 be d3 d0 8a 3e
       0.057438962 -0.024206422 -0.141624 0.27112445

net.0.bias f4 [32]
000000 ee a1 8e 3e 4c 44 b9 3e ac ec 2e 3e b0 08 5e 3e
       0.27857918 0.3618492 0.1708247 0.21683002
000010 fc 34 05 be ca 46 50 3e 02 96 37 3e b7 e3 5d be
       -0.13008493 0.20339504 0.17928317 -0.21668898
000020 1d 2e ae be eb 7b 7b bc d6 43 15 bd 64 e0 ac 3c
       -0.34019557 -0.015349369 -0.036441647 0.021103092
000030 5f 1c 61 3d 85 4f ef 3e d4 8d c2 bc 16 73 b2 bd
       0.054958697 0.46740356 -0.02374927 -0.08713357
000040 a6 9c 8a be 4a 8d be 3d c0 df f2 3d e5 91 3d 3d
       -0.27072638 0.093042925 0.11859083 0.046281714
000050 fa aa f3 3d 66 a6 32 3e e3 07 ea bd e1 c9 60 3e
       0.118978456 0.17446288 -0.114272855 0.2195201
000060 f8 cd 56 be 1c 46 6f bc 92 28 a2 3d eb 85 56 be
       -0.20977008 -0.014604118 0.079178944 -0.20949523
000070 7c 0d b4 3e 27 ff 9c 3e 91 fd 38 3e 03 93 8d bd
       0.35166538 0.30663416 0.18065478 -0.06912806

net.2.weight f4 [32, 32]
000000 f9 91 25 3e 53 0b a3 3e 31 3c 0b bd 72 79 37 be
       0.16168965 0.31844577 -0.03399295 -0.17917421
000010 a9 b1 bb 3e c4 fa 3a be a5 af cc bd fe 19 32 3e
       0.3665898 -0.18259722 -0.09994439 0.17392728
000020 69 66 48 3e d0 f1 1b 38 6a 76 b5 3c cd f5 c8 3d
       0.19570316 3.7180085e-05 0.02215119 0.09812508
000030 ba 2d 20 3e 0d 7e c1 3d 1e 8f 77 be 8f 2e 28 3d
       0.15642443 0.094478704 -0.24175689 0.041060027
000040 61 6c 56 bd fa 24 13 bd 26 ac 68 bc 15 ed c3 bd
       -0.052349452 -0.035923935 -0.0142012 -0.09566704
000050 68 47 b5 3c d4 c8 0b 3e d0 ee 22 3e 6d d4 06 3d
       0.022128776 0.13650829 0.15911412 0.03291743
000060 cd e5 00 3e 2a 1c 79 bd 2d 97 07 3f a8 74 22 3e
       0.12587662 -0.060817875 0.5296505 0.15864813
000070 60 46 8e bd 6c 4f 4a bc 17 ff de bd 7b 72 79 3d
       -0.06947017 -0.012348037 -0.10888498 0.060900193
000080 e4 fd 0e be 1e 51 05 3e 01 cd 95 bd 95 b1 54 be
       -0.13964039 0.13019225 -0.07314492 -0.20770867
000090 8d bc 1b bd 26 5e 6c bd e9 5f e9 bc d8 34 9d 3e
       -0.038021613 -0.057706974 -0.028488116 0.3070438
0000a0 91 f1 7e 3d 52 3a 4a 3e fa 9c a6 3e 22 21 7f 3e
       0.062242094 0.1974881 0.3254164 0.24914983
0000b0 a3 38 8b 3e f3 fd 1a 3e 0d 26 c5 bc 69 df a1 bb
       0.27191648 0.15135936 -0.024065996 -0.0049399626
0000c0 61 49 b7 bd 04 6f bc be 19 e4 ae bd ab 7b 62 be
       -0.08949543 -0.36803448 -0.085396 -0.22117488
0000d0 a5 38 84 bc 10 f0 ba 3d ea 7f 06 bd 88 07 6b 3d
       -0.016140291 0.091278195 -0.032836832 0.05738023
0000e0 6b ef c3 3d 95 d6 ec bd 14 ef 70 3e 11 ad 4d 3e
       0.0956715 -0.11564366 0.23528701 0.20085551
0000f0 fa d6 03 bd d4 3d 3c be f7 6b 01 be e0 58 1c 3d
       -0.03218744 -0.1838296 -0.12638842 0.038170695
000100 8c 54 0a bd 3c 94 e3 be 55 16 fd 3d 25 f7 2d 3e
       -0.033772036 -0.4444903 0.12357775 0.1698881
000110 98 a8 89 be a0 1b 9c bd 0a 70 42 3e f2 92 3a be
       -0.2688644 -0.076224566 0.18988052 -0.18220118
000120 c9 77 1b be 6c 6f 65 be 17 ff 81 be bb bf c6 bc
       -0.15182413 -0.22405785 -0.2538993 -0.024261346
000130 3d 11 b5 be fc 41 3b 3e 74 2c 6c 3e 1b 35 b1 bd
       -0.35364714 0.1828689 0.23063833 -0.08652707
000140 45 a6 88 3e 0c 6b 26 3e 80 79 0c 3d 66 65 60 3d
       0.26689354 0.16251773 0.03429556 0.0547842
000150 be db 53 be 26 14 b6 3d dd 8e 85 3d 32 69 a8 3e
       -0.20689294 0.08890562 0.0652139 0.32892758
000160 16 29 6b be 02 d0 9e 3e 9e 5e a1 be 47 60 0f bd
       -0.22964892 0.31018072 -0.315175 -0.035003927
000170 46 49 e7 bc a3 0f 58 3e ac d0 96 3e 46 0d 27 be
       -0.028233182 0.21099715 0.2945608 -0.16313657
000180 a2 44 ac 3d 84 b4 a5 3a bc 27 20 3e 23 7b b6 3e
       0.08411528 0.0012642299 0.15640157 0.3564082
000190 61 07 15 bf 62 96 4f 3e 84 e8 3f 3e 2c 6d de bc
       -0.58214384 0.2027221 0.18741041 -0.027151667
0001a0 8e 89 ac 3d 58 f1 c1 3d 50 9e 27 be 5c 12 3e 3e
       0.08424674 0.09469861 -0.16368985 0.18561691
0001b0 e1 b0 ac 3d 4e eb a6 be 2a cc 84 3e dc 7d e9 bd
       0.084321745 -0.32601398 0.25937015 -0.11400959
0001c0 50 c5 83 be 41 4a bd 3e 8c 79 6c bb 15 46 ad 3e
       -0.25736475 0.36970714 -0.003608319 0.3384253
0001d0 b1 f6 4f 3e 9e 49 51 be af 90 d5 3d 98 47 0b be
       0.20308949 -0.20438239 0.10427987 -0.1360153
0001e0 86 95 fb bc fd 7f f3 be 48 61 d2 bb 76 5a c0 be
       -0.030710947 -0.47558585 -0.0064202882 -0.37569016
0001f0 f3 0f e8 bd 93 b3 8a 3d 46 3e 46 bc ff 7a d2 be
       -0.11331167 0.06772532 -0.012099808 -0.41109464
000200 5c ae 5a 3e ec 4d da 3d c5 96 03 3e fd 80 24 3d
       0.21355575 0.10659394 0.12850483 0.040162075
000210 a1 3b 75 3e cb b9 3d be d7 8c 1d 3e 16 51 94 3e
       0.23948528 -0.18527906 0.15385757 0.28968114
000220 36 d3 28 3e 1e e3 22 be ed 05 3a 3d db c9 9a 3d
       0.1648682 -0.15906951 0.045415808 0.07558032
000230 5b b2 7b 3e 5f 28 84 bd 17 e8 87 be b6 7c 0f 3e
       0.24579756 -0.06453013 -0.26544258 0.14012417
000240 7b 12 9b 3c 0a c1 52 3c 41 8e 73 3e 3d 5f 08 be
       0.01892971 0.012863407 0.23784734 -0.1331758
000250 6e 7d b0 3d 71 f6 d2 bd 57 1c ea 3c 82 b0 1b 3c
       0.08617674 -0.10300911 0.028577967 0.009502532
000260 b6 53 74 3e 69 45 30 be d3 9b 2a 3e 3f 32 1a be
       0.23860058 -0.17213978 0.16661005 -0.1505823
000270 ee c6 31 3e 15 3c d6 bd 77 d1 26 bd bb e0 d4 3e
       0.17361042 -0.104606785 -0.040727105 0.41577706
000280 ed 85 4b 3e bb c2 8e 3d 8c ca d7 3d 9c 5d ba bd
       0.19875307 0.06970736 0.105366796 -0.09099886
000290 6c 2d 6e 3e 97 d3 ba bd 1d b5 1c 3d 49 a1 09 3d
       0.23259515 -0.09122389 0.03825866 0.03360108
0002a0 0c d8 87 3e 51 29 33 bc 51 26 ef 3d a6 cf f0 3c
       0.26532018 -0.010935144 0.1167723 0.02939589
0002b0 53 ca b8 3e a8 a4 0f be 42 c7 66 be e0 98 16 bd
       0.3609186 -0.14027655 -0.22536948 -0.036766887
0002c0 84 32 0a 3e 51 6e 05 3e 19 88 5d bc 67 1f ec bd
       0.13495833 0.13030364 -0.013521218 -0.11529427
0002d0 21 b2 4d 3e 8c 03 19 be 73 56 f8 3d 89 9c e0 bd
       0.20087482 -0.1494276 0.12125864 -0.10967357
0002e0 9f 9f e0 3e cf 5a 4a 3d 60 14 82 3e 87 c1 cc bd
       0.4387178 0.049403008 0.2540617 -0.0999785
0002f0 7f 29 c4 3e 65 b8 e1 3d 33 68 c4 bc f7 ff 98 3e
       0.3831291 0.110214986 -0.023975467 0.29882786
000300 8f 17 da bc fd 7f 87 bd 14 99 d0 3d f1 7b 19 3e
       -0.026622562 -0.06616209 0.10185447 0.14988686
000310 c2 0e 0a be c5 9d 08 3e 14 9a e1 bd a4 0e fa bd
       -0.13482192 0.13341434 -0.11015716 -0.12209824
000320 68 13 dd bd 82 09 dc 3d 62 41 b7 3d cc 66 61 3e
       -0.10794717 0.10744001 0.08948018 0.2201187
000330 e2 3d 88 be 9b 3d d5 3c 23 53 bb 3e 8d e8 35 bd
       -0.26609713 0.026030352 0.36586866 -0.04441123
000340 d0 6c 80 3e a4 b2 fa 3d 1c ba ab bc 6d b1 71 3e
       0.25083017 0.12241104 -0.020962767 0.23602839
000350 f2 79 dc bd 67 ce 68 3e b9 78 78 bd 14 f9 3c 3d
       -0.10765447 0.22734986 -0.060662005 0.046135977
000360 9e 54 97 be 5b f4 c0 3e cb 74 08 bf 28 ea bb bd
       -0.29556745 0.37686428 -0.5330321 -0.09175521
000370 7f e6 e7 bd 84 35 1b 3e 9e cd 36 bd c8 d5 58 be
       -0.113232605 0.15157133 -0.044629686 -0.21175301
000380 f5 cc f3 bd c6 97 47 be 6c b7 25 3e 83 bd 0b be
       -0.11904327 -0.1949149 0.16183251 -0.13646512
000390 3a b0 84 be fc 12 9a 3e dd 80 30 3b b8 78 6d bd
       -0.259157 0.3009261 0.0026932277 -0.057976454
0003a0 22 50 86 be fd 5e 90 be 0b c9 66 be 9a 6f 12 be
       -0.2623301 -0.2819747 -0.2253763 -0.14300385
0003b0 04 32 11 be 77 3e 55 3e 47 4a 36 3e c4 56 59 be
       -0.14179236 0.2082461 0.17801772 -0.21224505
0003c0 b8 07 f2 3d 51 fa 12 be 57 ef 59 3e a8 c3 d3 3e
       0.118178785 -0.143533 0.21282707 0.4136021
0003d0 01 20 de bc bc f8 dc 3c 69 79 81 bd 41 a8 80 3e
       -0.02711487 0.026974075 -0.06321985 0.25128368
0003e0 88 c5 70 bd 7d 18 20 3e cc d5 13 bf 69 78 38 3e
       -0.05878213 0.15634342 -0.57748103 0.18014683
0003f0 dd b7 b1 bd 09 57 b0 3d 97 c0 2b 3e 65 e8 39 3d
       -0.08677647 0.08610351 0.16772686 0.045387644

net.2.bias f4 [32]
000000 20 76 19 3e 8c 54 84 3e e5 c1 24 3e c4 83 fd 3c
       0.14986467 0.25845754 0.1608959 0.03094662
000010 29 3e f5 3d 3b 40 c0 bc 6f 61 7c 3e 48 d3 de 3d
       0.11974747 -0.023468127 0.24646543 0.108801425
000020 b2 a5 37 3e 60 28 46 bc aa 81 c0 bd 86 00 8d 3e
       0.17934301 -0.012094587 -0.093997315 0.27539462
000030 32 e3 24 3e 56 ad c6 3d 5f a3 8e 3d bd 78 52 3e
       0.16102293 0.0970103 0.06964754 0.2055387
000040 5d e5 0f 3e d2 f2 14 3e 20 77 2f 3e ec 1f 22 bd
       0.14052339 0.14545754 0.17135286 -0.039581224
000050 c7 44 45 3c d2 6e d1 3c 96 71 4f 3e ed 9e be 3d
       0.012040324 0.025565539 0.20258173 0.093076564
000060 15 68 86 bd 7e 01 56 3e 5a 4b 64 3d 36 39 ab 3d
       -0.06562821 0.20899007 0.055735923 0.083605215
000070 44 70 5c 3d aa 3a c2 3d 12 4e 42 3e 20 2c 15 3e
       0.053818002 0.094838455 0.18975094 0.14567614

net.5.weight f4 [4, 32]
000000 3f cc 03 3e d9 74 c5 be ff 2a 41 be 96 7d de 3e
       0.12870882 -0.3856571 -0.18864058 0.4345519
000010 a1 a0 1b 3e 9c 68 9d 3d 90 8d 00 bf eb 2b 53 be
       0.15197994 0.07685968 -0.5021601 -0.20622222
000020 5b a0 b0 bd f5 3a 22 3e ad ff d2 3e 0d ea ed be
       -0.086243354 0.15842803 0.4121069 -0.4646763
000030 ee 95 32 be 10 db 4f be 10 8d 00 3e 7f bc b4 be
       -0.17440006 -0.2029841 0.12553811 -0.3530006
000040 28 a6 d0 bc bc 32 90 3d 3e 59 a4 bc cd a7 1d 3e
       -0.025469854 0.07040927 -0.020062085 0.15396042
000050 93 a6 ca 3d ca 83 45 3e 4f 80 a3 be 31 2f 21 3e
       0.09895053 0.19288555 -0.3193383 0.15740658
000060 0a f3 b7 bb e5 2c 4b be 10 09 85 bd da 0f 74 bb
       -0.0056136893 -0.19841345 -0.06495869 -0.0037240894
000070 66 ff 24 be f8 93 07 be 40 0f 88 be 4b b4 1b 3e
       -0.16113052 -0.1324004 -0.26574135 0.15205495
000080 88 6c cd be a2 40 89 be b7 f1 95 3e d6 b3 7f 3e
       -0.40121865 -0.26807123 0.29285976 0.24970946
000090 00 3b f4 be fb d8 d4 be b6 d1 9e 3e b1 9a 93 3e
       -0.47701263 -0.41571793 0.31019372 0.28828958
0000a0 85 03 2a 3e 18 73 0a be 03 c5 be 3e a9 89 42 3e
       0.16602905 -0.13520467 0.37259683 0.18997826
0000b0 b9 7a bd be 95 c5 7f 3e c3 53 97 3c 30 86 2f be
       -0.37007692 0.24977715 0.018472558 -0.17141032
0000c0 7d bb b9 be a9 73 e2 be 96 80 3c be 25 8c 2a bf
       -0.36275855 -0.44228867 -0.18408427 -0.66620094
0000d0 e2 b9 56 be e4 8d 14 bf 36 4c b4 3e 3d a4 40 3e
       -0.20969346 -0.5802901 0.35214394 0.18812652
0000e0 2d a0 84 be f2 7e 6e 3e 06 0a 96 be ca 4e da be
       -0.25903454 0.23290613 -0.29304522 -0.42638236
0000f0 39 c6 8e 3e 81 e4 8b 3d 94 12 bb 3e 80 07 34 3d
       0.27885607 0.06830693 0.3653761 0.043952465
000100 7d 18 78 be e8 4c e2 be 05 27 ad 3e 9d ea fa bd
       -0.24228092 -0.441993 0.33818832 -0.1225178
000110 c8 d0 15 3e a1 12 66 3d ae 5d 2e 3e ce a4 45 3f
       0.14630425 0.05617011 0.17027923 0.77204597
000120 86 5e cb 3e 94 80 d0 3e 7c 41 9b be 40 ee 56 be
       0.39720553 0.40723097 -0.30323398 -0.20989323
000130 7d 57 79 be 4e 53 b7 be c5 04 8b 3e f4 6c 03 3e
       -0.2434978 -0.35805744 0.27152076 0.12834531
000140 9f ea 2a bd ba 2b 1e bc a7 4a 45 bc c4 37 95 be
       -0.04172766 -0.00965398 -0.012041724 -0.29144108
000150 85 3c ca be ae 3a 99 be 18 22 f6 bd dd ae ad 3e
       -0.39499298 -0.29927582 -0.120182216 0.33922473
000160 1b 41 94 be cd ff e6 3e 84 54 f5 3d 2d 51 27 3e
       -0.28955922 0.45117036 0.11979011 0.1633956
000170 4b e0 98 be d2 09 01 bf 3f 6e 9d 3d 76 f5 96 3e
       -0.29858622 -0.5040561 0.076870434 0.29484147
000180 5e a7 ac 3e 31 76 5e 3e 2f 95 b6 be d8 1b 85 be
       0.3372144 0.21724774 -0.35660693 -0.25997806
000190 db 36 d2 bd 72 a9 7f be f0 67 a7 3b 75 54 c2 be
       -0.10264369 -0.24966982 0.005108826 -0.3795506
0001a0 eb 06 01 bf 6c 19 40 be cb e0 8d bd 66 79 ed 3e
       -0.5040118 -0.18759698 -0.069276415 0.46381682
0001b0 3d 34 2f 3e aa 95 f9 3e 6d dd c0 be 92 dd d4 3e
       0.17109771 0.48746997 -0.37668934 0.41575295
0001c0 76 42 1c be 52 09 49 bd 9a 48 70 be 9d f0 bf bd
       -0.15259728 -0.049081154 -0.23465195 -0.09372065
0001d0 ba 67 ae 3d 5f 61 4f 3e eb fc d5 3e 9d 84 b1 be
       0.08515878 0.20251988 0.41794524 -0.34671488
0001e0 1d c6 27 bd e1 75 bf be 33 15 94 be 99 98 40 bd
       -0.04096042 -0.37394622 -0.28922424 -0.04702053
0001f0 42 4d 1c 3f 23 05 da 3e 30 45 30 bd 9f 0b c9 be
       0.61055386 0.42582044 -0.043034732 -0.3926668

net.5.bias f4 [4]
000000 51 e4 5f be bf a9 03 3e 0e 63 ee bd 86 5a 96 3d
       -0.2186444 0.12857722 -0.11639987 0.07341485

mean f4 [1, 16]
000000 7d af 05 42 06 34 46 41 ca 8f 52 41 c7 5c 64 41
       33.421375 12.387701 13.160105 14.272651
000010 a0 ac 83 41 f6 ab a7 41 fa f9 e0 41 d6 1d 0f 42
       16.45929 20.958965 28.122059 35.779137
000020 c1 fc 23 42 08 43 18 42 36 6a ec 41 ec e0 bf 41
       40.99683 38.06546 29.55186 23.984825
000030 3e 78 97 41 8f 1f 72 41 c3 b1 49 41 dd 01 3e 41
       18.933712 15.132705 12.605899 11.875455

std f4 [1, 16]
000000 e5 bb 63 41 e2 08 38 41 67 c1 4a 41 8e 0a 4d 41
       14.233373 11.502169 12.672217 12.815077
000010 99 ea 5e 41 00 3e 85 41 76 b5 9d 41 8e 77 a8 41
       13.932275 16.655273 19.713604 21.058376
000020 c3 8c bf 41 ea 6a bb 41 98 2e a6 41 f0 75 a0 41
       23.943731 23.427204 20.77275 20.057587
000030 7d 4b 8d 41 96 d3 63 41 dc 38 1c 41 26 50 02 41
       17.66186 14.239157 9.763882 8.1445675
